checkpoint_actor.pth (torch_old, 537958 bytes, 18 tensors)

bn0.weight f4 [24]
0	0x3f01a52d	0.50642663
1	0x3ef2f513	0.47452602
2	0x3e836dcb	0.25669703
3	0x3cce33d4	0.025171198
4	0x3f2e7249	0.68143135
5	0x3f3771b4	0.7165787
6	0x3f18e982	0.59731305
7	0x3f4cafaf	0.7995557
8	0x3d9f9953	0.07792916
9	0x3defeef9	0.11715502
10	0x3ed47b07	0.41500112
11	0x3e4177fe	0.1889343
12	0xbc28b648	-0.0102973655
13	0xbb9296ab	-0.0044735274
14	0x3eb70c19	0.35751417
15	0x3eb4f36f	0.35341975
16	0x3f3d93a2	0.74053395
17	0x3eafe70b	0.3435596
18	0x3e89dcd2	0.26926285
19	0x3db328d4	0.08748022
20	0x3f6015b8	0.8753314
21	0x3f772217	0.9653639
22	0x3efe8c3f	0.49716374
23	0x3f2f36b6	0.6844286

bn0.bias f4 [24]
0	0xb8f85e94	-0.00011843178
1	0x3a916a8d	0.0011094377
2	0x3af6baa1	0.001882393
3	0x39a5d574	0.00031630287
4	0xba02b67d	-0.00049862993
5	0x3a114fd7	0.0005543208
6	0x39c63608	0.0003780576
7	0xb95db80d	-0.00021144767
8	0xba802744	-0.0009777327
9	0xb884aaf8	-6.326096e-05
10	0x37d258f1	2.5075367e-05
11	0x399f91d1	0.00030435485
12	0xba88418a	-0.0010395509
13	0x3997cdda	0.00028954336
14	0x3a2dbbc3	0.0006627405
15	0xba0558f8	-0.0005086805
16	0x3a1cec8d	0.00059861765
17	0x390a7a75	0.00013206324
18	0xba80a1f2	-0.0009813888
19	0x3a8679b8	0.0010259664
20	0xb9d1e337	-0.00040032875
21	0x3ac83af1	0.0015276355
22	0x3a522ce4	0.00080175535
23	0x3a19343d	0.0005844271

bn0.running_mean f4 [24]
0	0xc0fd734a	-7.9203234
1	0xbe6496bf	-0.2232313
2	0x3faa48c4	1.3303456
3	0x3e58b7d0	0.21163869
4	0xbd56426c	-0.05230944
5	0x407da3ef	3.9631307
6	0x3faa48c4	1.3303456
7	0x3e58b7d0	0.21163869
8	0xc100e07e	-8.054808
9	0xbe67a826	-0.22622737
10	0x3fc408d7	1.5315198
11	0x3e5727b7	0.21011244
12	0xbd39365d	-0.04521786
13	0x4080a1d0	4.0197525
14	0x3fc408d7	1.5315198
15	0x3e5727b7	0.21011244
16	0xc1034ba5	-8.205968
17	0xbe6dfda5	-0.23241289
18	0x3fba4c79	1.4554588
19	0x3e3816a9	0.17977394
20	0xbd31654b	-0.04330949
21	0x4081e5e7	4.0593143
22	0x3fba4c79	1.4554588
23	0x3e3816a9	0.17977394

bn0.running_var f4 [24]
0	0x4143e30e	12.242933
1	0x3f4eb422	0.8074361
2	0x439e8619	317.04764
3	0x41836e2b	16.428793
4	0x41de2896	27.769817
5	0x40295d79	2.64633
6	0x439e8619	317.04764
7	0x41836e2b	16.428793
8	0x41336a13	11.213397
9	0x3f53752a	0.82600653
10	0x43a20a19	324.0789
11	0x41856b33	16.677343
12	0x41e67e9e	28.811825
13	0x401877e3	2.3823173
14	0x43a20a19	324.0789
15	0x41856b33	16.677343
16	0x4123d3c3	10.2392
17	0x3f5a7e6f	0.8534917
18	0x43a66a7a	332.83185
19	0x4187a928	16.957596
20	0x41f01810	30.01175
21	0x400ae617	2.1702936
22	0x43a66a7a	332.83185
23	0x4187a928	16.957596

fc1.weight f4 [400, 24]
0	0x3ec95578	0.3932302
1	0xbd1099da	-0.035302974
2	0xbcc790f4	-0.024361111
3	0x3de77b09	0.11302764
4	0x3d8f1f87	0.06988435
5	0x3a944a94	0.001131373
6	0x3bc95f97	0.0061454284
7	0x3dca9255	0.09891192
8	0x3e82f7cf	0.25579688
9	0xbdb710de	-0.08938764
10	0xbc470276	-0.012146583
11	0xbe3efaa2	-0.18650296
12	0xbce84699	-0.028353976
13	0xbda74618	-0.08167666
14	0xbc9065d8	-0.017626688
15	0xbe40b768	-0.18819964
16	0x3e68b900	0.22726822
17	0xbddda1a5	-0.10821847
18	0xbe301d7d	-0.17198749
19	0xbe383204	-0.1798783
20	0xbdbeeb5c	-0.09322235
21	0xbe957e0a	-0.29197723
22	0xbe4cef09	-0.2001306
23	0xbe8cedf4	-0.27525294
24	0x3ed15dca	0.40891868
25	0xbe233fb8	-0.15942276
26	0x3d9dfc6f	0.077141635
27	0xbe8b5bba	-0.2721842
28	0x3e20956c	0.15682
29	0xbdc32688	-0.09528834
30	0x3db163b8	0.08661598
31	0xbe73f85b	-0.23825209
32	0x3dd62a5f	0.104573004
33	0xbe7bcd8e	-0.24590132
34	0xbe1d608f	-0.15368865
35	0x3d95fc84	0.07323554
36	0x3d7b0db6	0.061292373
37	0xbd46c6cc	-0.04852943
38	0xbdadbd0f	-0.08483326
39	0x3dd776c0	0.10520697
40	0x3a681323	0.0008852949
41	0xbe58a2da	-0.21155873
42	0xbcda4a72	-0.026646826
43	0x3d69ced5	0.057082016
44	0xbcb500fd	-0.022095198
45	0xbe54508c	-0.20733851
46	0x3c102ecd	0.008800221
47	0x3d0f7177	0.035020318
48	0xbe2e58e0	-0.1702609
49	0xbd8ebba1	-0.06969381
50	0xbdaa2e8e	-0.08309661
51	0xbe75e4d3	-0.24013071
52	0xbe028dcd	-0.12749405
53	0xbcf77877	-0.03020881
54	0xbe0714cf	-0.13191532
55	0xbe4ce16e	-0.2000787
56	0xbd4ebf69	-0.05047551
57	0xbe2422a5	-0.16028841
58	0x3e775d81	0.24156763
59	0xbde57e0b	-0.112056814
60	0xbe1fa0c6	-0.15588674
61	0x3d802e1b	0.06258794
62	0x3e5e5ebb	0.21715824
63	0xbdb70de4	-0.08938196
64	0x3e318bda	0.17338505
65	0xbe8a4c44	-0.2701131
66	0xbbf85827	-0.007578868
67	0xbd9deecd	-0.07711563
68	0x3e7bd47d	0.24592777
69	0x3e8b4ba2	0.2720614
70	0xba8a673e	-0.0010559333
71	0xbdf66215	-0.120304264
72	0x3d4993ec	0.049213335
73	0x3e27ca3f	0.16385745
74	0xbca5e176	-0.02024911
75	0xbdeed255	-0.116612114
76	0xbed09797	-0.40740654
77	0x3e9e53c2	0.30923277
78	0xbd68fea7	-0.05688348
79	0xbe13f19f	-0.1444764
80	0xbbbbc3b3	-0.0057301163
81	0x3e1eecc5	0.15520008
82	0x3d25861e	0.040411107
83	0x3d9f054f	0.077646844
84	0xbcd25e3c	-0.0256797
85	0x3d5367c1	0.05161262
86	0xbd06bbf0	-0.032894075
87	0x3e0e06b4	0.13869745
88	0xbaeda431	-0.0018130598
89	0x3e137d33	0.14403228
90	0x3d80c9a4	0.0628846
91	0x3e0df7d7	0.13864075
92	0x3e8ccfda	0.27502328
93	0xbdd3190f	-0.10307514
94	0x3c96f87b	0.018429032
95	0x3e1cd6d5	0.15316327
96	0x3e355463	0.17707972
97	0x3d2c35a4	0.042043343
98	0xbdae664d	-0.08515606
99	0x3d5e2946	0.05423858
100	0xbe68e888	-0.22744954
101	0xbe1a826c	-0.15088814
102	0xbd71b6be	-0.059012167
103	0x3e0f6f78	0.14007366
104	0x3ebec7a8	0.372617
105	0x3d881242	0.066441074
106	0x3e234dfe	0.1594772
107	0x3d92729d	0.07150767
108	0x3e2a0bc0	0.16606045
109	0xbe15b264	-0.14618832
110	0x3e47a719	0.19497336
111	0x3c8286a8	0.01593335
112	0x3e6cff61	0.23144294
113	0xbc3d2874	-0.011545289
114	0xbe417942	-0.18893912
115	0xbe0a10ab	-0.13482921
116	0xbeb1aded	-0.34703007
117	0xbda34ea3	-0.07973983
118	0xbe5aee2e	-0.21379921
119	0xbe29ecd0	-0.16594243
120	0xbc1ffaf6	-0.009764424
121	0x3f070766	0.52745664
122	0x3d9c86f7	0.0764293
123	0xbdc5576e	-0.096358165
124	0x3e2c974b	0.16854589
125	0x3d94e0b6	0.07269423
126	0x3d028b31	0.031871025
127	0xbe1cc441	-0.1530924
128	0x3c756579	0.014977806
129	0x3e903fe1	0.28173736
130	0x3e81cacc	0.25350034
131	0xbe47ea07	-0.19522868
132	0x3d080626	0.03320899
133	0xbbadcd5f	-0.005304023
134	0x3e393a15	0.18088563
135	0xbe0c8050	-0.13720822
136	0xbdb39fa0	-0.087706804
137	0x3e3a55bb	0.18196766
138	0xbcdff3e1	-0.02733797
139	0xbd316ff1	-0.043319646
140	0xbe856b2b	-0.26058325
141	0x3d77e24b	0.060518544
142	0x3bea276e	0.0071458137
143	0xbd31a09a	-0.043366052
144	0x3e65f11b	0.22455256
145	0x3e0c397f	0.13693808
146	0x3d69cd18	0.05708036
147	0xbd4f7b1e	-0.050654523
148	0xbecb5475	-0.39712873
149	0x3dbb1e40	0.09136629
150	0x3ccf7a4d	0.025326872
151	0xbdf54bde	-0.11977361
152	0x3deec054	0.116577774
153	0x3dc8c500	0.098032
154	0x3d8696c5	0.06571726
155	0x3ceeccc5	0.029150376
156	0xbcd02c9e	-0.0254119
157	0x3d5377f9	0.051628087
158	0x3dbc73b9	0.0920176
159	0xbbb1cecb	-0.005426263
160	0x3be415f2	0.006960624
161	0x3d531cc6	0.051541112
162	0xbe4cfd7c	-0.20018572
163	0x3b24116b	0.0025034796
164	0xbd29fd9d	-0.04150163
165	0x3e90195e	0.28144354
166	0xbe766556	-0.24062094
167	0xbd91071c	-0.07081434
168	0x3e1408ab	0.14456432
169	0x3e3d608f	0.18493865
170	0xbd9a31dd	-0.07529042
171	0xbc6ae0ab	-0.014335792
172	0xbee0d065	-0.43908992
173	0xbe998e61	-0.2999144
174	0xbdc92d3a	-0.098230794
175	0xbd27db9f	-0.04098093
176	0x3c72e913	0.014826077
177	0x3e32ef6a	0.17474142
178	0xbe6e7268	-0.2328583
179	0x3d8f41cd	0.069949724
180	0x3e237b3c	0.15964979
181	0xbdf6388e	-0.12022506
182	0xbe42cbed	-0.19023104
183	0x3d1d2164	0.038361922
184	0x3d3b60d4	0.04574664
185	0x3e548038	0.20752037
186	0x3c8bfc69	0.017088132
187	0xbdd752e9	-0.10513861
188	0xbe72937d	-0.23689075
189	0x3cafd59a	0.021464158
190	0x3d0997ad	0.033591915
191	0xbdc02f98	-0.09384078
192	0x3d551200	0.05201912
193	0xbe241b99	-0.16026153
194	0xbc1a94c9	-0.009434887
195	0x3e52b7b8	0.20577896
196	0x3e982060	0.297122
197	0x3dbee148	0.09320313
198	0x3d5ec0d1	0.054383103
199	0x3e6bacd8	0.23015153
200	0x3beaa3dc	0.007160647
201	0xbe1b7aa5	-0.15183504
202	0x3e52b900	0.20578384
203	0x3e12fc9b	0.14354174
204	0x3d1e89b9	0.03870556
205	0xbd945a37	-0.072437696
206	0x3e50cc54	0.20390445
207	0x3dd13a7d	0.10216234
208	0x3cb5a920	0.022175372
209	0xbe742710	-0.23843026
210	0x3d85d254	0.065342575
211	0xbdeb1efa	-0.11480518
212	0xbe716115	-0.2357219
213	0xbe3a225c	-0.1817717
214	0x3d7602b8	0.060061187
215	0xbe53c8b8	-0.20682037
216	0xbe2cd34a	-0.16877475
217	0x3d4284ac	0.047489807
218	0x3e5d3b79	0.21604718
219	0x3dae149c	0.08500025
220	0x3c9e2a9c	0.019307427
221	0x3eb6e21a	0.35719377
222	0x3e447411	0.19184901
223	0x3d9db6c5	0.07700876
224	0xbe4f74f4	-0.20259458
225	0x3ba0f264	0.0049117077
226	0xbe379ba9	-0.17930473
227	0xbe3daace	-0.18522188
228	0x3d42ad84	0.04752876
229	0x3e848141	0.25879863
230	0xbe5e813c	-0.21728987
231	0xbe1d6e58	-0.15374124
232	0xbd648e71	-0.055799905
233	0xbb91d619	-0.0044505713
234	0xbd475247	-0.04866245
235	0xbd027b84	-0.031856075
236	0xbe9241f2	-0.28565937
237	0x3e8dc69b	0.27690586
238	0xbd1b7b2a	-0.037959255
239	0xbdafe942	-0.08589412
240	0xbdbca67b	-0.09211441
241	0xbe37f3d4	-0.17964107
242	0xbdbe8a38	-0.09303707
243	0xbe225abf	-0.1585493
244	0x3e82140c	0.2540592
245	0xbe2d0a3b	-0.16898434
246	0xbdde1a9f	-0.10844921
247	0xbe4eac73	-0.20182972
248	0xbdb15cf4	-0.086603075
249	0xbe2ac742	-0.16677573
250	0xbe9e1b4a	-0.30880195
251	0x3d15c8d9	0.036568496
252	0x3d28b320	0.041186452
253	0xbe684c8d	-0.22685452
254	0xbe95005f	-0.29101846
255	0x3cf97d9d	0.030455405

fc1.bias f4 [400]
0	0xbe4afaa2	-0.19822171
1	0xbe45e521	-0.19325687
2	0xbd8fffbc	-0.07031199
3	0x3e06fe1d	0.13182874
4	0x3d265761	0.040610675
5	0xbe185f0d	-0.14880009
6	0x3e3096da	0.17245045
7	0x3e2ba2a6	0.16761264
8	0x3dacd594	0.08439174
9	0x3e4c8612	0.19973019
10	0x3e0b3ddd	0.13597818
11	0x3ced0d6e	0.028937068
12	0x3e10694b	0.14102666
13	0xbdee1216	-0.11624543
14	0xbcd60057	-0.026123209
15	0xbdd93f67	-0.10607796
16	0xbd13920f	-0.036027964
17	0xbe24b3b5	-0.16084178
18	0x3e0ddac1	0.13852979
19	0xbda4b45f	-0.080422156
20	0x3d81328a	0.06308468
21	0x3e3f6e22	0.18694356
22	0x3d8c8269	0.06860811
23	0x3c2e387e	0.010633586
24	0x3e4f825b	0.2026457
25	0xbe4f128d	-0.2022192
26	0x3e41ec5e	0.18937823
27	0xbe351db2	-0.17687109
28	0x3e4ecc3f	0.20195101
29	0x3c8241ec	0.015900575
30	0xbe007ec4	-0.12548357
31	0xbd8e24a8	-0.069405854
32	0xbdd6ed7d	-0.10494516
33	0x3dfa66d1	0.12226642
34	0x3e34b06d	0.17645426
35	0x3dfc105e	0.12307809
36	0x3e185d96	0.1487945
37	0x3e49e1a6	0.19714984
38	0xbe389847	-0.18026839
39	0x3daf52b3	0.085606955
40	0x3c83d19d	0.016091162
41	0x3dfae808	0.12251288
42	0x3d6953d3	0.056964707
43	0x3bbb8920	0.0057231337
44	0x3e0af224	0.13568932
45	0xbda92628	-0.08259231
46	0xbe1f19cd	-0.15537186
47	0xbe16339e	-0.14668128
48	0x3e158951	0.14603163
49	0x3b55c759	0.0032620041
50	0xbe28f553	-0.16499834
51	0x3d9150b4	0.07095471
52	0xbbc7c929	-0.006096978
53	0xbdf7befb	-0.120969735
54	0x3e36d7a3	0.17855696
55	0x3df24d1b	0.11831113
56	0x3e3113eb	0.17292754
57	0xbd07cf3e	-0.033156626
58	0xbe012181	-0.12610437
59	0xbe2fc689	-0.17165579
60	0x3cc33a16	0.023831408
61	0xbe128a2c	-0.14310521
62	0x3df9429c	0.12170908
63	0xbe3d6ea4	-0.18499237
64	0xbe145fe6	-0.14489707
65	0x3cf2db50	0.029645592
66	0x3d4cbd23	0.049985062
67	0xbce0414a	-0.027374882
68	0xbd2e44c8	-0.042546064
69	0xbdd484ec	-0.10376915
70	0xbd70f7f3	-0.058830213
71	0x3cdc29b4	0.026875354
72	0xbe3be1a3	-0.18347792
73	0xbd10ca49	-0.035349164
74	0xbd014211	-0.031557146
75	0x3b915149	0.004434739
76	0x3e1b5a0f	0.15171073
77	0xbe2f2a31	-0.17105938
78	0x3d914a93	0.07094302
79	0x3d9afb65	0.07567481
80	0x3d681690	0.056662142
81	0xbd6f2ecc	-0.05839424
82	0x3df294f4	0.11844817
83	0xbe13bf74	-0.14428502
84	0xbdaac782	-0.08338834
85	0xbbb99b85	-0.0056642913
86	0xbcf6f31e	-0.030145224
87	0xbe4de779	-0.20107831
88	0x3de06e4d	0.10958538
89	0x3df7ebce	0.12105523
90	0xbe3a07e9	-0.1816708
91	0x39a2ef09	0.00031077143
92	0xbe2f9b72	-0.17149141
93	0xbd18e076	-0.037323438
94	0x3cc4f1a8	0.024041012
95	0x3e353f55	0.1769994
96	0x3e13098c	0.1435911
97	0x3dd7094b	0.10499819
98	0x3cddd3ac	0.027078472
99	0xbe40dfde	-0.18835399
100	0xbd84a2e8	-0.064763844
101	0x3e3a8966	0.18216476
102	0x3c8b582d	0.017009819
103	0xbd3bdb64	-0.045863524
104	0xbd90c3ad	-0.07068572
105	0x3dc9a8f9	0.09846682
106	0x3e035aef	0.12827657
107	0xbc932022	-0.017959658
108	0x3d73fcc4	0.059567228
109	0x3e1a759d	0.15083928
110	0x3e0bb310	0.13642526
111	0x3dd81e24	0.10552624
112	0x3e0eef89	0.13958563
113	0x3d97f776	0.07420246
114	0x3d686453	0.0567363
115	0xbe4db178	-0.2008723
116	0xbd23df3b	-0.04000781
117	0xbd731f30	-0.059355915
118	0x3d3c5ff1	0.045989934
119	0xbd6c5166	-0.057694815
120	0xbe3f9f8b	-0.18713205
121	0x3e2f2adb	0.17106192
122	0xbdb4c9ae	-0.0882753
123	0xbe474d73	-0.19463138
124	0xbdad3181	-0.08456708
125	0x3d2d41d1	0.042299096
126	0xbd8e0898	-0.06935233
127	0xbe50de5c	-0.20397323
128	0x3d8b3c3b	0.067985974
129	0x3da12794	0.07868877
130	0x3e4294b2	0.19002035
131	0xbe4f1ae9	-0.20225109
132	0xbd1cf2bc	-0.038317427
133	0xbd9d2c67	-0.07674485
134	0xbd91efb8	-0.07125801
135	0x3b84e101	0.004055143
136	0x3e435ce1	0.19078399
137	0xbcb15fd2	-0.021652136
138	0x3e32c71e	0.1745877
139	0x3ce5b713	0.028041398
140	0xbdd94e69	-0.10610659
141	0xbca5ecd9	-0.02025454
142	0x3dd6a32d	0.10480342
143	0x3df7a7f5	0.12092582
144	0xbd8b0cac	-0.06789526
145	0xbcd2934b	-0.025705
146	0xbe2ec26c	-0.17066354
147	0xbe05705f	-0.13031147
148	0xbd5c43d2	-0.053775616
149	0x3df8ea0a	0.121540144
150	0x3c49aa67	0.0123086935
151	0x3ddd1bd6	0.10796325
152	0xbe2e9be7	-0.1705166
153	0x3d2bc22d	0.041933227
154	0xbe28fe5a	-0.16503277
155	0xbd73ee7a	-0.0595536
156	0x3e2a8bb8	0.16654861
157	0x3c0ac584	0.008469943
158	0xbe1b86d7	-0.15188156
159	0xbe4d39dc	-0.20041603
160	0xbd7b5e49	-0.061369214
161	0xbda310e9	-0.0796221
162	0xbe41a26c	-0.18909615
163	0x3de468c8	0.11152798
164	0x3b847b3e	0.004043012
165	0xbd0035ca	-0.031301297
166	0x3e222458	0.15834177
167	0xbe452c4e	-0.19255182
168	0x3d86cf01	0.065824516
169	0x3e1b93c3	0.15193085
170	0x3d36761f	0.044546243
171	0x3de079c7	0.10960727
172	0xbd9562e1	-0.0729425
173	0xbe445cb1	-0.19175984
174	0x3e439e3a	0.19103327
175	0xbe4fdccd	-0.20299073
176	0xbdaa5c4a	-0.08318384
177	0x3e3c66aa	0.18398538
178	0xbdc83c68	-0.097771466
179	0xbd24e5ed	-0.040258337
180	0xbdd712f1	-0.1050166
181	0x3d2a5b3d	0.041590918
182	0xbd95f444	-0.073219806
183	0x3d9c921f	0.07645058
184	0x3e4bf7f3	0.19918804
185	0xbe1d0a91	-0.15336062
186	0x3e08d786	0.13363466
187	0xbd53d105	-0.05171301
188	0xbe504d76	-0.20342049
189	0x3db5be7c	0.08874223
190	0xbe0bab62	-0.13639596
191	0x3df62616	0.12018983
192	0xbd114bc6	-0.035472654
193	0xbdfc743f	-0.1232686
194	0xbe363024	-0.17791802
195	0x3d33e265	0.04391708
196	0xbe493793	-0.19650106
197	0x3de5ceb9	0.1122107
198	0x3d9fa752	0.07795586
199	0xbe30ddc1	-0.17272092
200	0x3ddae9f1	0.10689152
201	0xbe24fd1d	-0.1611218
202	0x3ca736a9	0.020411806
203	0xbd7293d1	-0.059223
204	0x3e0c27ca	0.13687053
205	0xbe2fdf76	-0.17175087
206	0xbd838c1c	-0.06423208
207	0xbd948a44	-0.072529346
208	0xbc8b9c94	-0.017042436
209	0x3caa1db1	0.020766111
210	0xbe02b969	-0.12766041
211	0x3cdabc96	0.026701253
212	0x3c165971	0.009176598
213	0xbdd42c17	-0.10359972
214	0x3d452915	0.048134882
215	0x3e193df4	0.1496504
216	0x3dd74423	0.10511043
217	0x3d868c1e	0.06569694
218	0xbdb869b2	-0.09004535
219	0xbe1733b0	-0.14765811
220	0x3df8d14a	0.12149294
221	0x3cfdc74f	0.030978827
222	0x3c80e9b1	0.015736433
223	0x3dd44002	0.10363771
224	0xbdbff1d5	-0.09372298
225	0xbe4f2fc8	-0.20233071
226	0xbe0f9918	-0.14023244
227	0xbe43af87	-0.19109927
228	0x3e0222d6	0.12708601
229	0x3e001417	0.12507664
230	0xbdbfa9d8	-0.09358567
231	0xbd3b3ec8	-0.04571417
232	0xbd2dc1e5	-0.04242124
233	0xbdaa2a41	-0.083088405
234	0xbe0e325f	-0.13886403
235	0x3d83e58a	0.064402655
236	0xbd945429	-0.07242615
237	0xbe081474	-0.13289052
238	0x3d1d18e6	0.038353823
239	0xbda70199	-0.081546016
240	0x3d27f336	0.04100343
241	0xbbffaddd	-0.0078027085
242	0x3d86bb17	0.06578653
243	0x3e09bf74	0.1345194
244	0xbe3803b9	-0.1797017
245	0xbdc60ba7	-0.09670191
246	0x3e4c475b	0.19949095
247	0x3c153e1d	0.009109047
248	0xbd0acda1	-0.03388751
249	0x3e253b53	0.16135912
250	0x3e361929	0.17783035
251	0x3d932b1c	0.07185957
252	0xbe24cf6f	-0.16094755
253	0x3e46e307	0.19422542
254	0xbe3ce31f	-0.18446015
255	0xbe4e60d5	-0.20154126

bn1.weight f4 [400]
0	0x3eb6d803	0.3571168
1	0x3e942fa4	0.28942597
2	0x3f1aa702	0.60411084
3	0x3f35d0ca	0.7102171
4	0x3ef4705f	0.47741982
5	0x3f23a1f3	0.6391899
6	0x3efdce2f	0.49571368
7	0x3e4da3dd	0.2008204
8	0x3ef586ad	0.47954312
9	0x3eed5916	0.4635703
10	0x3ea56ad5	0.3230807
11	0x3e671a26	0.22568569
12	0x3ecf2eed	0.4046549
13	0x3edf5712	0.43621117
14	0x3edbf058	0.42956805
15	0x3e7293d7	0.23689209
16	0x3eea349c	0.45743263
17	0x3f066285	0.5249408
18	0x3e882425	0.26590076
19	0x3f2d2c8c	0.676461
20	0x3e89c86e	0.26910728
21	0x3f18da04	0.59707665
22	0x3e88515b	0.2662457
23	0x3ebca78a	0.36846572
24	0x3f029176	0.51003206
25	0x3e8d8829	0.27642944
26	0x3eeda1f1	0.46412614
27	0x3dd82912	0.105547085
28	0x3f1e7541	0.61897665
29	0x3f3714ba	0.71516
30	0x3e85e0d5	0.26148096
31	0x3f1c4a42	0.6105081
32	0x3e912865	0.2835113
33	0x3ef460cb	0.47730097
34	0x3e5fc2f0	0.21851707
35	0x3f44f613	0.7693798
36	0x3eb0efcf	0.3455796
37	0x3f0659c7	0.5248074
38	0x3f4688fd	0.7755278
39	0x3e4e7f03	0.20165639
40	0x3ea8fba7	0.33004496
41	0x3eda4050	0.42627192
42	0x3e6f19f7	0.23349749
43	0x3f0071dd	0.5017374
44	0x3e9ebfa4	0.31005585
45	0x3e25f48b	0.16206567
46	0x3ed20a95	0.41023698
47	0x3ea5a8aa	0.32355243
48	0x3f0cec15	0.5504773
49	0x3f6069ed	0.8766163
50	0x3f661226	0.8987144
51	0x3e30ea30	0.17276835
52	0x3ebf822f	0.3740401
53	0x3e7dc5f8	0.2478255
54	0x3f05de7b	0.52292603
55	0x3f28e062	0.6596738
56	0x3e98da07	0.29853842
57	0x3e0df226	0.13861904
58	0x3e3d4608	0.18483746
59	0x3ef5e0b2	0.4802299
60	0x3f0b7a9d	0.5448397
61	0x3e8fba5c	0.28071868
62	0x3ea84681	0.3286629
63	0x3ed8d5a1	0.42350486
64	0x3f29c110	0.66310215
65	0x3e728468	0.23683321
66	0x3eab6a3b	0.33479485
67	0x3eed15b1	0.46305612
68	0x3eb2dab5	0.34932485
69	0x3f441d99	0.7660766
70	0x3e33d30e	0.1756098
71	0x3eac3fe2	0.3364249
72	0x3e900e26	0.28135794
73	0x3f1664a6	0.5874733
74	0x3eb16af4	0.3465191
75	0x3f11f94e	0.57021034
76	0xbc0f2b08	-0.008738287
77	0x3eaa62be	0.3327846
78	0x3ee299cd	0.44257966
79	0x3a9c5c37	0.0011929338
80	0xba97ac44	-0.0011571725
81	0x3f0f7221	0.5603352
82	0x3f2714ad	0.65265924
83	0x3eedf326	0.4647457
84	0x3f24dfb3	0.6440384
85	0x3f16bd0d	0.5888222
86	0x3f23d2d4	0.63993573
87	0x3e727261	0.23676445
88	0x3e45d2ff	0.1931877
89	0x3f2d80c9	0.67774636
90	0x3f0621f3	0.5239555
91	0x3e4c1385	0.19929321
92	0x3f0c2b1a	0.5475327
93	0x3e3bb0f5	0.18329223
94	0x3e993039	0.29919603
95	0x3e9aa50e	0.30204052
96	0x3f0c34b3	0.5476791
97	0x3e9b326c	0.30311906
98	0x3f28a39c	0.6587465
99	0x3b92e00c	0.004482275
100	0x3edf1f3c	0.43578517
101	0x3f11474d	0.5674942
102	0x3ea69a2a	0.32539493
103	0x3eb96c5c	0.36215484
104	0x3edbf604	0.42961133
105	0x3e876928	0.26447415
106	0x3f037c4c	0.51361537
107	0x3e87327f	0.26405713
108	0x3ebd7cb4	0.37009203
109	0x3f21edba	0.63253367
110	0x3f159ed5	0.58445483
111	0x3eced389	0.40395764
112	0x3ef16ba2	0.4715243
113	0x3ea4cff8	0.32189918
114	0x3f31a03e	0.69385135
115	0x3c34d0ef	0.011036142
116	0x3e5769a4	0.21036392
117	0x3f3a63f0	0.7280874
118	0x3ec8d235	0.39222875
119	0x3ef4608a	0.47729903
120	0x3f1b61eb	0.60696286
121	0x3f14d9e2	0.5814496
122	0x3e861a00	0.2619171
123	0x3f29b580	0.6629257
124	0x3f178aa1	0.59195906
125	0x3ee7f4aa	0.4530385
126	0x3de89e59	0.113583274
127	0x3f11eb60	0.5699978
128	0x3f06eae5	0.5270217
129	0xba027443	-0.0004976431
130	0x3aee67dc	0.0018188911
131	0x3ea5f165	0.32410732
132	0x3e9adcd2	0.30246598
133	0x3e99d578	0.30045676
134	0x3f194e97	0.59885544
135	0x3ed32cb2	0.41245037
136	0x3f4667e1	0.77502257
137	0x3f17e537	0.5933413
138	0x3f4bc42b	0.79596204
139	0x3f257a3c	0.6463964
140	0x3ee32231	0.44362023
141	0x3f3352da	0.70048296
142	0x3ea5244a	0.3225425
143	0x3f4bb843	0.79578036
144	0x3ec869a4	0.39143097
145	0x3f5afaff	0.8553924
146	0x3c651511	0.013982073
147	0x3ec4f53a	0.38468343
148	0x3f1c099f	0.6095218
149	0x3e738bef	0.23783849
150	0x3efc8ba3	0.49325284
151	0x3f1db0d3	0.6159794
152	0x3ed1bda8	0.4096501
153	0x3eb2c279	0.34913996
154	0x3ea7d69d	0.32780924
155	0x3ea1e357	0.3161876
156	0x3ea60ac0	0.32430077
157	0x3f1a5c1e	0.6029681
158	0x3eeced09	0.46274593
159	0x3ec65c15	0.38742128
160	0x3ed17a48	0.40913606
161	0x3f21da79	0.6322399
162	0x3f1e7a86	0.61905706
163	0x3f0a9d10	0.5414591
164	0x3ee8adfa	0.45445234
165	0x3f1dc256	0.6162466
166	0x3f0a182d	0.5394314
167	0x3eedfdb8	0.46482635
168	0x3f112ed5	0.56712085
169	0x3f149756	0.5804342
170	0x3f275c3a	0.653751
171	0x3ed17ee0	0.4091711
172	0x3e9dbc42	0.30807692
173	0x3f355452	0.7083179
174	0x3ed0e757	0.40801498
175	0x3e8c1363	0.2735854
176	0x3ebc253e	0.36747164
177	0x3edcebfc	0.43148792
178	0x3ea6d997	0.32587883
179	0x3f147290	0.5798731
180	0x3e965f8c	0.2936977
181	0x3ea095af	0.313642
182	0x3f102ec4	0.5632136
183	0x3eebd381	0.46059802
184	0x3f23fa02	0.64053357
185	0x3e830d01	0.2559586
186	0x3e9af2a9	0.3026326
187	0x3f18a2db	0.596235
188	0x3f0186d3	0.5059635
189	0x3bee6fab	0.0072764955
190	0x3e8f74ad	0.28018704
191	0x3f1871de	0.5954875
192	0x3e98f1c4	0.29871953
193	0x3eaa5967	0.33271334
194	0x3e9b5963	0.30341634
195	0x3e850e89	0.25987652
196	0x3eb3b065	0.35095516
197	0x3f277f60	0.65428734
198	0x3e64e923	0.2235456
199	0x3f230b7a	0.63689387
200	0x3e92fbe2	0.28707796
201	0x3ecad709	0.39617184
202	0x3ec0955e	0.37613958
203	0x3f0640f4	0.5244286
204	0x3e8ceaac	0.2752279
205	0x3f0f62c4	0.5601008
206	0x3e6bc4a7	0.23024236
207	0x3eb5c34b	0.3550056
208	0x3f1123b0	0.5669508
209	0x3f24e620	0.6441364
210	0x3f15a98c	0.58461833
211	0x3ed75c10	0.42062426
212	0x3ea2c655	0.3179194
213	0x3f07ecb6	0.5309557
214	0x3f2e4ce3	0.6808607
215	0x3f476b94	0.77898526
216	0x3f21b090	0.6316004
217	0x3ebb6542	0.3660069
218	0x3ebd4342	0.36965376
219	0x3e98cdc9	0.29844502
220	0x3f07282a	0.5279566
221	0x3ec92eda	0.39293557
222	0x3e8b6dcd	0.2723221
223	0x3eb0cfa6	0.34533423
224	0x3ea931af	0.33045718
225	0x3f184999	0.594873
226	0x3f1dcff5	0.6164544
227	0x3f316b89	0.6930471
228	0x3f046415	0.51715213
229	0x3f1c8ac9	0.6114927
230	0x3ec788ba	0.38971502
231	0x3e9f48ea	0.31110317
232	0x3eb13929	0.34613922
233	0x3ec1aaa0	0.3782549
234	0x3f1cc12d	0.6123226
235	0x3ec26104	0.37964642
236	0x3ed4702e	0.41491836
237	0x3f03e14f	0.5151567
238	0x3e93ef94	0.2889372
239	0x3e9fd7ad	0.31219235
240	0x3f323e89	0.6962667
241	0x3e8bad87	0.27280828
242	0x3ece3b83	0.4027978
243	0x3ec1feac	0.37889612
244	0x3f077a18	0.52920675
245	0x3ef8d6db	0.48601422
246	0x3ee5bba0	0.4486971
247	0x3eaaeee7	0.33385393
248	0x3eb6563a	0.3561266
249	0x3f046241	0.51712424
250	0x3f0dfed2	0.5546695
251	0x3eb8e185	0.36109558
252	0x3f2ab405	0.6668094
253	0x3f0fdcb5	0.5619615
254	0x3f328e94	0.69748807
255	0x3efc13f4	0.49233973

bn1.bias f4 [400]
0	0xbec2eba8	-0.38070416
1	0xbe9e60df	-0.30933282
2	0xbef9eb3d	-0.48812285
3	0xbeb72c97	-0.35776207
4	0xbf2991a4	-0.66237855
5	0xbed85497	-0.42252037
6	0xbf1a119f	-0.6018314
7	0xbe4f6668	-0.20253909
8	0xbeba0896	-0.36334676
9	0xbe035c1b	-0.12828104
10	0xbec37707	-0.38176748
11	0xbe759b6e	-0.23985073
12	0xbe9c8b52	-0.30575043
13	0xbea00b41	-0.31258586
14	0xbeaadc21	-0.3337107
15	0xbe58193d	-0.21103378
16	0xbe4629cd	-0.19351883
17	0xbeb9ec73	-0.3631321
18	0xbe69fa56	-0.22849402
19	0xbf1a37f4	-0.6024163
20	0xbea9dc56	-0.33175915
21	0xbedeb7a6	-0.43499488
22	0xbe658169	-0.22412647
23	0xbed99c1f	-0.42501923
24	0xbeca1040	-0.39465523
25	0xbe8f5bd1	-0.27999738
26	0xbeb615c6	-0.35563487
27	0xbe20dfbf	-0.15710352
28	0xbf1c4aee	-0.61051834
29	0xbedaa4e8	-0.42703938
30	0xbd8420db	-0.06451579
31	0xbe955322	-0.29164988
32	0xbe88e726	-0.26738852
33	0xbece1152	-0.4024759
34	0xbea1579a	-0.31512147
35	0xbf0bcf85	-0.54613525
36	0xbebe2d47	-0.3714392
37	0xbf05767d	-0.52133924
38	0xbeea029e	-0.45705122
39	0xbe308239	-0.17237176
40	0xbe7c2085	-0.2462178
41	0xbf1876e0	-0.5955639
42	0xbe88ace8	-0.26694417
43	0xbeacea4b	-0.337725
44	0xbe4980a3	-0.19677977
45	0xbe4176a8	-0.1889292
46	0xbed11485	-0.40835968
47	0xbec0c3f3	-0.37649497
48	0xbec4c7c1	-0.3843365
49	0xbeb9e075	-0.3630406
50	0xbf1ac10e	-0.6045083
51	0xbd4c3f05	-0.049864788
52	0xbefd5680	-0.49480057
53	0xbeb4d5af	-0.35319278
54	0xbeaaf6c4	-0.33391392
55	0xbf0d6f9a	-0.55248415
56	0xbe8e4fad	-0.27795163
57	0xbe4b9a16	-0.19882998
58	0xbe7aad61	-0.24480201
59	0xbeced766	-0.4039871
60	0xbe93a149	-0.28833988
61	0xbe73f056	-0.2382215
62	0xbea114ae	-0.3146109
63	0xbee3278e	-0.44366115
64	0xbf399618	-0.7249465
65	0xbe808ee2	-0.2510901
66	0xbeee6679	-0.46562555
67	0xbec4b3f9	-0.38418558
68	0xbe90d88e	-0.28290218
69	0xbf0b34ee	-0.5437764
70	0xbeb81d87	-0.35960028
71	0xbec68e70	-0.38780546
72	0xbee05bf3	-0.43820152
73	0xbe9bdcbf	-0.30441853
74	0xbe9aa09a	-0.30200654
75	0xbf3f7b41	-0.74797446
76	0xbcd1d4dd	-0.025614196
77	0xbe6f2e2a	-0.23357454
78	0xbe8fe289	-0.2810252
79	0xbcd48015	-0.02593998
80	0xbbede7b3	-0.0072602867
81	0xbebb9dd9	-0.36643866
82	0xbeee37a7	-0.46526834
83	0xbe7c0a53	-0.24613313
84	0xbea23021	-0.31677344
85	0xbf18dd3c	-0.59712577
86	0xbeb835dd	-0.35978594
87	0xbe960790	-0.29302645
88	0xbe11871c	-0.14211696
89	0xbf14fd38	-0.5819888
90	0xbe5453a8	-0.20735037
91	0xbde97edb	-0.11401149
92	0xbf113536	-0.5672182
93	0xbeace6a5	-0.33769718
94	0xbe8041b4	-0.25050128
95	0xbe69e91e	-0.22842833
96	0xbf13c2ae	-0.5771893
97	0xbe905357	-0.28188583
98	0xbf1984ca	-0.59968245
99	0xbce4d4d4	-0.027933516
100	0xbec879d9	-0.39155462
101	0xbf228788	-0.63488054
102	0xbe82578f	-0.25457427
103	0xbea8a113	-0.3293539
104	0xbec51107	-0.38489553
105	0xbeb3daf1	-0.35127977
106	0xbef4d2c6	-0.47817057
107	0xbe8fa164	-0.2805282
108	0xbe8a03b7	-0.2695596
109	0xbf3b60b7	-0.7319445
110	0xbf0abd85	-0.54195434
111	0xbec6c716	-0.38823766
112	0xbee4ad18	-0.4466331
113	0xbea70fe2	-0.32629305
114	0xbf00f483	-0.50373095
115	0xbd31596b	-0.043298166
116	0xbe9bd331	-0.30434564
117	0xbe9838f7	-0.2973096
118	0xbf09a51f	-0.5376758
119	0xbead12ac	-0.33803308
120	0xbeea3f16	-0.45751256
121	0xbefe4038	-0.4965837
122	0xbe1760f3	-0.14783077
123	0xbed5d6ad	-0.41765347
124	0xbf13ded9	-0.57761914
125	0xbeba4789	-0.36382702
126	0xbeab6fe7	-0.33483812
127	0xbef8d3f5	-0.4859921
128	0xbe7131ba	-0.23554125
129	0xbc1df464	-0.009640787
130	0xbbf1d736	-0.0073803915
131	0xbe19bc3e	-0.15013215
132	0xbe5bb005	-0.21453865
133	0xbe5c271d	-0.21499296
134	0xbf14e0d0	-0.58155537
135	0xbeed1716	-0.46306676
136	0xbe9eb017	-0.3099372
137	0xbf24bbf1	-0.64349276
138	0xbe7512b0	-0.2393291
139	0xbf29ecb9	-0.66376835
140	0xbe96911b	-0.29407582
141	0xbf081b98	-0.53167105
142	0xbecdfdcc	-0.40232694
143	0xbf1631c7	-0.58669704
144	0xbee753d0	-0.4518113
145	0xbe6b014c	-0.22949713
146	0xbd6bcc0f	-0.057567652
147	0xbe9dfb7f	-0.3085594
148	0xbf01d80b	-0.5072028
149	0xbe8b2c6d	-0.27182332
150	0xbe95cd8e	-0.29258388
151	0xbf04e7ee	-0.51916397
152	0xbec95538	-0.3932283
153	0xbe88add8	-0.26695132
154	0xbe3d539c	-0.18488926
155	0xbeb4eeef	-0.35338542
156	0xbeadc804	-0.33941662
157	0xbeb9d43d	-0.36294737
158	0xbf0ad2e2	-0.5422803
159	0xbeb338c3	-0.35004243
160	0xbf0f3fba	-0.55956614
161	0xbf091f6e	-0.5356358
162	0xbec390b7	-0.38196346
163	0xbe8524e2	-0.26004702
164	0xbe52050a	-0.20509735
165	0xbe2d4f25	-0.16924722
166	0xbee996a7	-0.4562275
167	0xbeb0652c	-0.34452188
168	0xbf18163c	-0.59408927
169	0xbecaed4d	-0.3963417
170	0xbe895583	-0.26823053
171	0xbed9a3ea	-0.4250787
172	0xbe87e270	-0.26539946
173	0xbebfe703	-0.37480935
174	0xbeb614e7	-0.35562822
175	0xbf031248	-0.5119977
176	0xbe813b70	-0.2524066
177	0xbe977590	-0.2958188
178	0xbeb4108f	-0.35168883
179	0xbeed3b0d	-0.46334115
180	0xbe984bad	-0.29745236
181	0xbe4b4169	-0.1984917
182	0xbef72a78	-0.4827459
183	0xbec28f91	-0.38000157
184	0xbee55d69	-0.4479783
185	0xbe44f3c1	-0.1923361
186	0xbe95d958	-0.29267383
187	0xbea9249f	-0.33035752
188	0xbe894ece	-0.26817936
189	0xbd13a648	-0.03604725
190	0xbeab1433	-0.33413848
191	0xbeef33d2	-0.46719223
192	0xbe62efd7	-0.22161804
193	0xbec983cc	-0.39358366
194	0xbebd6c4e	-0.36996692
195	0xbe3a0d19	-0.18169059
196	0xbea7cb86	-0.32772464
197	0xbefeae18	-0.49742198
198	0xbe7d2a59	-0.24723186
199	0xbe9f00fb	-0.31055436
200	0xbe9b4508	-0.30326104
201	0xbec80df4	-0.39073145
202	0xbeb015fb	-0.3439177
203	0xbed15a25	-0.40889087
204	0xbeaf3f03	-0.34227762
205	0xbe954148	-0.29151368
206	0xbe9fd863	-0.31219777
207	0xbec0445c	-0.37552154
208	0xbedae630	-0.42753744
209	0xbf1462d0	-0.57963276
210	0xbec31373	-0.38100776
211	0xbe96732a	-0.29384738
212	0xbedd8a22	-0.4326945
213	0xbf1d3b6a	-0.61418784
214	0xbeb56b1c	-0.3543328
215	0xbf0638ad	-0.5243023
216	0xbef66d1a	-0.48130113
217	0xbec6c28a	-0.38820297
218	0xbe8c6ae3	-0.27425298
219	0xbeb2184f	-0.3478417
220	0xbf40e013	-0.7534191
221	0xbe7c0833	-0.24612503
222	0xbe8fa8ab	-0.2805837
223	0xbebb2166	-0.36548918
224	0xbe6a7dbc	-0.22899526
225	0xbe9f7e80	-0.311512
226	0xbef942b1	-0.48683694
227	0xbe60f412	-0.21968105
228	0xbee1f9b6	-0.44135827
229	0xbeb61604	-0.35563672
230	0xbea09b0f	-0.313683
231	0xbec17f24	-0.37792313
232	0xbec02a26	-0.37532157
233	0xbe55a856	-0.20864996
234	0xbf0e25de	-0.5552653
235	0xbe8f04ad	-0.27933255
236	0xbec787f8	-0.38970923
237	0xbf06b101	-0.52613837
238	0xbde9be92	-0.114133015
239	0xbec02f85	-0.37536255
240	0xbecb17e6	-0.3966667
241	0xbe9cefb7	-0.30651638
242	0xbef7ac8b	-0.48373827
243	0xbe82fc7a	-0.2558325
244	0xbe2dc608	-0.16970074
245	0xbedd5709	-0.43230465
246	0xbe750a0c	-0.23929614
247	0xbea96e21	-0.33091834
248	0xbee3481e	-0.4439096
249	0xbecf6622	-0.4050761
250	0xbf07875d	-0.5294092
251	0xbed064b1	-0.4070182
252	0xbee22b4a	-0.44173652
253	0xbefd9adb	-0.49532208
254	0xbecf1ac4	-0.40450108
255	0xbe6d6482	-0.23182872

bn1.running_mean f4 [400]
0	0xbe4bf9b6	-0.19919476
1	0xbe469b2f	-0.19395135
2	0xbd8f2f1b	-0.069914065
3	0x3e076bb1	0.13224675
4	0x3d23d63d	0.039999235
5	0xbe177643	-0.14791207
6	0x3e318cfc	0.17338938
7	0x3e2b6637	0.1673821
8	0x3dab8264	0.083744794
9	0x3e4dd933	0.20102386
10	0x3e0a84e7	0.1352726
11	0x3cf37a67	0.029721452
12	0x3e1122d8	0.14173448
13	0xbdef4644	-0.11683324
14	0xbccd002d	-0.025024498
15	0xbdda5d5c	-0.10662338
16	0xbd125422	-0.035724767
17	0xbe245a03	-0.16049962
18	0x3e0daa5e	0.13834521
19	0xbda2d970	-0.07951629
20	0x3d7f0a61	0.062265757
21	0x3e3f4130	0.18677211
22	0x3d8cf18f	0.06882011
23	0x3c20e3f2	0.009819971
24	0x3e4f4f70	0.20245147
25	0xbe4e4d95	-0.20146783
26	0x3e41b7db	0.18917792
27	0xbe35c89e	-0.1775231
28	0x3e4f2f6b	0.20232932
29	0x3c74649d	0.014916566
30	0xbe010634	-0.12600023
31	0xbd8d57c0	-0.069015026
32	0xbdd4707e	-0.10373019
33	0x3df8e9ad	0.12153945
34	0x3e347b0f	0.17625068
35	0x3dfb3167	0.12265282
36	0x3e182a18	0.14859807
37	0x3e49e30e	0.1971552
38	0xbe38c3d8	-0.18043458
39	0x3db231c9	0.08700902
40	0x3c87c2ed	0.01657244
41	0x3df9ff12	0.12206854
42	0x3d67b179	0.056565735
43	0x3b9eb259	0.004843038
44	0x3e0ac61b	0.13552134
45	0xbda70179	-0.08154578
46	0xbe1e1416	-0.1543735
47	0xbe17761c	-0.14791149
48	0x3e16859c	0.14699405
49	0x3b4df7f0	0.00314283
50	0xbe288903	-0.16458516
51	0x3d91445c	0.07093117
52	0xbbc6cd0f	-0.0060669254
53	0xbdf8fc7d	-0.12157533
54	0x3e379752	0.17928818
55	0x3df35f89	0.11883456
56	0x3e315845	0.17318828
57	0xbd070376	-0.032962285
58	0xbe01dfc0	-0.1268301
59	0xbe2f7b61	-0.17136909
60	0x3ccc37cf	0.024928955
61	0xbe1281d4	-0.14307338
62	0x3df93ce4	0.12169817
63	0xbe3dcd00	-0.18535233
64	0xbe14ced0	-0.14532018
65	0x3cf82d19	0.030294942
66	0x3d494faa	0.04914824
67	0xbcdf6743	-0.027270919
68	0xbd2d1b2a	-0.042262234
69	0xbdd2a5b9	-0.10285515
70	0xbd703b49	-0.05865029
71	0x3cd6f190	0.026238233
72	0xbe3ca51c	-0.18422359
73	0xbd11fa69	-0.0356392
74	0xbd00daeb	-0.031458776
75	0x3b818b4a	0.003953372
76	0x3e1b315f	0.15155552
77	0xbe3031d1	-0.17206503
78	0x3d8fc599	0.07020111
79	0x3d9af186	0.07565598
80	0x3d686c65	0.056743998
81	0xbd6ac672	-0.05731816
82	0x3df12048	0.11773735
83	0xbe133a2f	-0.14377664
84	0xbdaafa36	-0.08348505
85	0xbbb35419	-0.0054726717
86	0xbceeea84	-0.02916456
87	0xbe4e6390	-0.20155168
88	0x3de0f6d4	0.10984579
89	0x3df8b80e	0.12144481
90	0xbe3a6bdf	-0.18205212
91	0x3ad39324	0.0016141874
92	0xbe2f8ff0	-0.17144752
93	0xbd1bc1a6	-0.038026474
94	0x3cc5504e	0.024086144
95	0x3e3537e4	0.17697102
96	0x3e1291a2	0.14313367
97	0x3dd71ad7	0.10503166
98	0x3cd29947	0.025707854
99	0xbe40efeb	-0.18841521
100	0xbd83a5a3	-0.06428077
101	0x3e3aac98	0.18229902
102	0x3c906256	0.017625015
103	0xbd3d4222	-0.046205647
104	0xbd92f0d6	-0.07174842
105	0x3dca826b	0.098881565
106	0x3e04539e	0.12922522
107	0xbc8f35b3	-0.01748166
108	0x3d776cc0	0.060406446
109	0x3e1a8baf	0.15092348
110	0x3e0b992b	0.13632648
111	0x3dd945af	0.10608994
112	0x3e105ea3	0.14098601
113	0x3d9abd4c	0.07555637
114	0x3d6ae5ce	0.057348065
115	0xbe4d4343	-0.2004519
116	0xbd21e5df	-0.039525863
117	0xbd6efc4b	-0.058346074
118	0x3d38414f	0.044984158
119	0xbd671d3e	-0.056424372
120	0xbe3ed7d8	-0.18637025
121	0x3e2f205a	0.17102185
122	0xbdb50e16	-0.08840577
123	0xbe47ac82	-0.194994
124	0xbdae1f9b	-0.08502122
125	0x3d289388	0.04115632
126	0xbd8eb35d	-0.069678046
127	0xbe50ef8c	-0.2040388
128	0x3d8b6076	0.06805508
129	0x3da16630	0.07880819
130	0x3e429748	0.19003022
131	0xbe50237d	-0.20326038
132	0xbd1d812e	-0.038453273
133	0xbd9d97ab	-0.07694944
134	0xbd90f902	-0.070787445
135	0x3b98f3aa	0.004667719
136	0x3e443bf0	0.1916349
137	0xbcb618d4	-0.022228636
138	0x3e334d11	0.17509867
139	0x3cec0bc7	0.02881421
140	0xbdd8a693	-0.105786465
141	0xbca5e85d	-0.020252401
142	0x3dd5ff89	0.1044913
143	0x3df778b6	0.12083571
144	0xbd88dd2f	-0.066828124
145	0xbcd0b174	-0.025475241
146	0xbe2ed7ce	-0.1707451
147	0xbe0421ab	-0.12903468
148	0xbd5eb9f0	-0.054376543
149	0x3df96643	0.12177708
150	0x3c573ac2	0.013136568
151	0x3ddcecb9	0.10787339
152	0xbe2e513f	-0.1702318
153	0x3d29c1da	0.041444637
154	0xbe28095f	-0.16409825
155	0xbd78af6e	-0.060714178
156	0x3e290c7c	0.16508669
157	0x3c1b4fea	0.009479502
158	0xbe1b8314	-0.15186721
159	0xbe4c170e	-0.1993067
160	0xbd803dff	-0.06261825
161	0xbda0bc17	-0.07848375
162	0xbe429c9e	-0.19005057
163	0x3de3e04c	0.111267656
164	0x3b6013a6	0.00341914
165	0xbd01d321	-0.03169549
166	0x3e23590f	0.15951942
167	0xbe44a414	-0.19203216
168	0x3d86f85c	0.065903395
169	0x3e1bfbc3	0.15232758
170	0x3d393362	0.045215018
171	0x3ddfd3c7	0.10929065
172	0xbd946d8e	-0.072474584
173	0xbe443768	-0.19161761
174	0x3e42de49	0.19030108
175	0xbe4edb88	-0.20200932
176	0xbda90ac5	-0.08254007
177	0x3e3ced27	0.18449841
178	0xbdc6acaf	-0.097009055
179	0xbd26e032	-0.040741153
180	0xbdd673a8	-0.104712784
181	0x3d29d910	0.041466773
182	0xbd946fa1	-0.07247854
183	0x3d9ba620	0.07600045
184	0x3e4bc9e6	0.19901237
185	0xbe1dc76a	-0.15408102
186	0x3e0944e4	0.13405186
187	0xbd505e5a	-0.05087123
188	0xbe4fdb16	-0.20298418
189	0x3db56ac3	0.08858254
190	0xbe0b78a7	-0.13620244
191	0x3df6bb96	0.12047498
192	0xbd0ec71f	-0.034857865
193	0xbdfb6cec	-0.122766346
194	0xbe37694d	-0.17911263
195	0x3d352831	0.044227783
196	0xbe4922ad	-0.19642134
197	0x3de5e6de	0.11225675
198	0x3d9d1672	0.07670297
199	0xbe308571	-0.17238404
200	0x3dd93c4f	0.10607206
201	0xbe24fe67	-0.16112672
202	0x3ca91eb4	0.020644523
203	0xbd714cf5	-0.058911283
204	0x3e0cd5db	0.13753454
205	0xbe2fe5e6	-0.17177543
206	0xbd85b0a7	-0.065278344
207	0xbd936036	-0.07196085
208	0xbc8882e8	-0.016663983
209	0x3ca9037d	0.020631546
210	0xbe0281b0	-0.12744784
211	0x3cd99127	0.026558472
212	0x3c0d8ae4	0.008639071
213	0xbdd4c782	-0.103896156
214	0x3d45ce37	0.048292365
215	0x3e1a99dd	0.15097757
216	0x3dd631e6	0.10458736
217	0x3d85753d	0.06516502
218	0xbdb913c8	-0.09036976
219	0xbe167a0b	-0.14694993
220	0x3df860a5	0.121278085
221	0x3d01205b	0.031524997
222	0x3c7a2974	0.015268672
223	0x3dd33138	0.10312122
224	0xbdbfb746	-0.093611285
225	0xbe4e57a8	-0.20150626
226	0xbe0efdc4	-0.13963991
227	0xbe43def2	-0.19128016
228	0x3e017bd0	0.12644887
229	0x3e000625	0.12502344
230	0xbdc182c7	-0.09448772
231	0xbd3ddea6	-0.046354912
232	0xbd2d4a3b	-0.04230712
233	0xbdaaf914	-0.08348289
234	0xbe0e08b4	-0.13870507
235	0x3d84cd6e	0.06484495
236	0xbd90da40	-0.07072878
237	0xbe08b7dd	-0.13351388
238	0x3d22ce3e	0.03974747
239	0xbda87aa7	-0.08226519
240	0x3d269d16	0.040677153
241	0xbc0555df	-0.008138149
242	0x3d87d3cd	0.06632195
243	0x3e09d739	0.13461007
244	0xbe37d866	-0.17953643
245	0xbdc733a3	-0.09726646
246	0x3e4ddacc	0.20102996
247	0x3c0736bf	0.008252799
248	0xbd07d9c8	-0.033166677
249	0x3e2606fa	0.16213599
250	0x3e368955	0.17825826
251	0x3d92b67f	0.071637146
252	0xbe250a44	-0.16117197
253	0x3e47463f	0.1946039
254	0xbe3bf6a7	-0.18355809
255	0xbe4d7cce	-0.2006714

bn1.running_var f4 [400]
0	0x3e6490e1	0.22320892
1	0x3e626b65	0.2211128
2	0x3e80416a	0.25049907
3	0x3d92f0cc	0.071748346
4	0x3ec7aa05	0.38996902
5	0x3e590a33	0.21195297
6	0x3e94a6d2	0.29033524
7	0x3eb09270	0.34486723
8	0x3dd3e616	0.1034662
9	0x3ea0ca9f	0.31404588
10	0x3e80c050	0.25146723
11	0x3e583300	0.21113205
12	0x3e96e265	0.294696
13	0x3e6bb83c	0.23019499
14	0x3e27b112	0.1637614
15	0x3e8172b9	0.2528284
16	0x3df4d1eb	0.11954101
17	0x3e3a0dd4	0.18169338
18	0x3e8bbe68	0.27293706
19	0x3e665f54	0.22497302
20	0x3e8311f0	0.25599623
21	0x3ec2eee9	0.380729
22	0x3eb854fb	0.36002335
23	0x3e715db6	0.23570904
24	0x3e641731	0.22274472
25	0x3e9c9a39	0.30586413
26	0x3e67c9e9	0.22635616
27	0x3eb82bb2	0.35970837
28	0x3e3b741e	0.18306014
29	0x3e8cfac6	0.27535075
30	0x3e587270	0.21137404
31	0x3ee666c0	0.45000267
32	0x3e4d1937	0.2002915
33	0x3e4ded05	0.20109947
34	0x3e252195	0.16126092
35	0x3e3bdfd4	0.18347102
36	0x3e9b43c3	0.30325136
37	0x3ea120f8	0.31470466
38	0x3e5f6c3e	0.21818635
39	0x3ea66141	0.32496074
40	0x3ea57f7f	0.32323834
41	0x3e5bdb19	0.21470298
42	0x3ea1e341	0.31618693
43	0x3e79800a	0.2436525
44	0x3e4791a7	0.19489156
45	0x3e7c826b	0.24659126
46	0x3e41ff83	0.18945126
47	0x3e7d4da0	0.24736643
48	0x3e86a5d9	0.26298407
49	0x3d90a68b	0.070630156
50	0x3e336945	0.17520626
51	0x3e7f3502	0.24922565
52	0x3ea67d88	0.32517648
53	0x3ece320d	0.4027256
54	0x3e6c64a3	0.23085265
55	0x3ef86e5f	0.48521706
56	0x3ed41845	0.41424766
57	0x3e665d14	0.22496444
58	0x3e656021	0.22399952
59	0x3e1aa143	0.15100579
60	0x3e947659	0.28996542
61	0x3ebab754	0.36467993
62	0x3e37fe89	0.17968191
63	0x3e50d1b6	0.20392498
64	0x3e9011b9	0.2813852
65	0x3e36957f	0.17830466
66	0x3e7cc4f0	0.246845
67	0x3e4823a4	0.19544846
68	0x3e5f54bd	0.21809669
69	0x3e90711d	0.282113
70	0x3e8d8c06	0.27645892
71	0x3e738010	0.2377932
72	0x3e6a947f	0.2290821
73	0x3edf8b19	0.4366081
74	0x3e29513f	0.16534899
75	0x3e90337a	0.28164274
76	0x3dca6a3a	0.09883542
77	0x3e0ff19d	0.14057012
78	0x3e30f3f9	0.17280568
79	0x3cce02c2	0.0251478
80	0x3addb686	0.0016915358
81	0x3e5388a3	0.20657592
82	0x3e82b1bf	0.25526235
83	0x3e5b96e9	0.21444286
84	0x3df72b28	0.12068778
85	0x3eae84a3	0.3408557
86	0x3e9c30d6	0.3050601
87	0x3e947968	0.28998876
88	0x3ec305a5	0.38090244
89	0x3ea3975a	0.3195141
90	0x3e7a0151	0.24414565
91	0x3eaa738d	0.33291283
92	0x3d5db334	0.05412598
93	0x3e76cd7b	0.24101822
94	0x3ea1d217	0.31605598
95	0x3e540e12	0.20708492
96	0x3e8811ab	0.2657598
97	0x3e2f0979	0.17093457
98	0x3e0b6e74	0.13616353
99	0x3c3a70a6	0.011379397
100	0x3e6ca8d3	0.23111276
101	0x3ea530a6	0.32263678
102	0x3e6a76a2	0.22896817
103	0x3ed994f5	0.42496458
104	0x3e705888	0.23471272
105	0x3e35555d	0.17708345
106	0x3e02b9a1	0.12766124
107	0x3e4f29ea	0.20230833
108	0x3ea6660d	0.32499734
109	0x3ecce597	0.40018913
110	0x3e87fefb	0.26561722
111	0x3e1b00f2	0.1513708
112	0x3e73ed38	0.2382096
113	0x3efc30e7	0.4925606
114	0x3e5c8870	0.21536422
115	0x3d552a34	0.0520422
116	0x3e5e45dd	0.21706338
117	0x3e19639a	0.14979401
118	0x3e01cff5	0.12676986
119	0x3e46a4fd	0.19398876
120	0x3ea3f20f	0.32020614
121	0x3e7de646	0.24794874
122	0x3ea3b26d	0.31972066
123	0x3ea3705c	0.3192166
124	0x3ea016a5	0.31267276
125	0x3e5d18fb	0.2159156
126	0x3ec02eae	0.37535614
127	0x3e606d2e	0.21916649
128	0x3ef9bdaa	0.48777515
129	0x3ba81713	0.005129704
130	0x3d29afb4	0.04142733
131	0x3e4221d3	0.18958215
132	0x3e4773c1	0.1947775
133	0x3e92b8dc	0.28656662
134	0x3e3c8cc6	0.18413076
135	0x3e5b1033	0.21392898
136	0x3e8e0ebf	0.27745625
137	0x3e737da2	0.23778394
138	0x3e2d8710	0.16946054
139	0x3e384dfe	0.17998502
140	0x3e2e4cf1	0.17021538
141	0x3e26331b	0.16230433
142	0x3e6522f6	0.22376618
143	0x3e5c8908	0.21536648
144	0x3e9f593d	0.3112277
145	0x3d828632	0.06373252
146	0x3d151836	0.036400042
147	0x3e81c2df	0.25343987
148	0x3ecc64c5	0.3992063
149	0x3ecbadec	0.3978113
150	0x3e746adc	0.23868889
151	0x3e74793c	0.23874372
152	0x3e950884	0.2910806
153	0x3e0d4b5d	0.1379828
154	0x3eaa1fe1	0.33227447
155	0x3e917715	0.28411165
156	0x3e1df9d7	0.15427338
157	0x3e65034e	0.22364542
158	0x3e97b747	0.29632017
159	0x3ea7a12c	0.32740152
160	0x3e45b57f	0.19307517
161	0x3e4555cc	0.1927101
162	0x3e67cd41	0.22636892
163	0x3e687ceb	0.22703902
164	0x3df99d47	0.121882014
165	0x3e826302	0.25466162
166	0x3efe980a	0.49725372
167	0x3e8586b7	0.26079342
168	0x3ea1d0d4	0.31604636
169	0x3e404029	0.18774475
170	0x3e4901b2	0.19629553
171	0x3ea83f20	0.3286066
172	0x3e6d7186	0.23187837
173	0x3e62c86d	0.22146769
174	0x3e4bfef8	0.19921482
175	0x3e25c746	0.16189298
176	0x3e7e1c54	0.24815494
177	0x3e7b079d	0.24514623
178	0x3eb55147	0.35413572
179	0x3e8911bf	0.26771352
180	0x3f045d0d	0.51704484
181	0x3e5e65cb	0.21718518
182	0x3e1cc5b9	0.153098
183	0x3e8e6860	0.27814007
184	0x3e8564f4	0.26053584
185	0x3e15f568	0.14644396
186	0x3ea1ff47	0.31640074
187	0x3e9087ca	0.282286
188	0x3eb6fc52	0.3573938
189	0x3c0a77ce	0.008451415
190	0x3e8e3462	0.2777434
191	0x3e335662	0.17513421
192	0x3e912820	0.28350925
193	0x3db7fb1c	0.08983442
194	0x3e8a2084	0.26977932
195	0x3e58bdc7	0.21166144
196	0x3e2d2f00	0.1691246
197	0x3ded04d5	0.11573187
198	0x3dc73863	0.09727552
199	0x3ef05767	0.46941683
200	0x3ea652e8	0.32485127
201	0x3e479d6e	0.19493648
202	0x3e500e31	0.20317914
203	0x3e858b9e	0.26083082
204	0x3eaee3c4	0.34158146
205	0x3e39824f	0.18116115
206	0x3e6ef737	0.23336492
207	0x3eb1c7c8	0.34722733
208	0x3e88c549	0.26713017
209	0x3e53644b	0.20643727
210	0x3e708bbf	0.23490809
211	0x3e63e805	0.22256477
212	0x3ed1d050	0.40979242
213	0x3e9ca2b3	0.3059288
214	0x3dc7aa65	0.09749297
215	0x3e1e6abb	0.15470402
216	0x3e61e38c	0.22059458
217	0x3e66cd0f	0.22539161
218	0x3e65d9ea	0.22446409
219	0x3e8283fe	0.25491327
220	0x3ebb5eb8	0.36595702
221	0x3e731ce6	0.23741493
222	0x3e9d98af	0.3078055
223	0x3e625596	0.22102961
224	0x3ea578f0	0.3231883
225	0x3e4a23b9	0.1974019
226	0x3e1700e4	0.14746433
227	0x3e2389c8	0.15970528
228	0x3e872858	0.26397967
229	0x3e501a93	0.20322637
230	0x3dfa4d57	0.12221783
231	0x3e66c4c5	0.22535999
232	0x3e82cbc2	0.2554608
233	0x3ed20a27	0.4102337
234	0x3e579c60	0.21055746
235	0x3e306a76	0.17228112
236	0x3e3adea4	0.18248993
237	0x3e2f6402	0.17127994
238	0x3e8e2aff	0.27767178
239	0x3e2fec0f	0.17179893
240	0x3e629f0a	0.22130981
241	0x3e27609a	0.16345444
242	0x3e1cd7d4	0.15316707
243	0x3e6392c5	0.22223957
244	0x3e7cc53a	0.24684611
245	0x3ea24de3	0.31700048
246	0x3e625cc2	0.22105697
247	0x3e8fb93f	0.2807102
248	0x3e2fdbd8	0.17173707
249	0x3e51204a	0.20422474
250	0x3e4943b4	0.19654733
251	0x3e8a8c16	0.27060002
252	0x3e78884c	0.24270743
253	0x3ead1d04	0.338112
254	0x3e30e1cc	0.17273635
255	0x3ddefaaa	0.10887654

fc2.weight f4 [300, 400]
0	0xbf0db6a0	-0.5535679
1	0xbe697f23	-0.22802405
2	0xbb8509d4	-0.0040600095
3	0xbea9570c	-0.33074224
4	0x3e2a8053	0.16650514
5	0x3cd5db9f	0.0261057
6	0x3c4718b5	0.012151887
7	0x3e15fd7c	0.14647478
8	0xbda3b5db	-0.079936706
9	0xbe2c65db	-0.1683573
10	0xbe74705a	-0.23870984
11	0xbeb79e5f	-0.35863015
12	0x3e12d3a6	0.1433855
13	0x3d120b35	0.03565522
14	0x3d82ae3a	0.06380887
15	0xbcdcac89	-0.02693774
16	0xbd9427e2	-0.072341695
17	0x3adad5e3	0.0016695823
18	0xbd1e3f18	-0.03863439
19	0x3d2705db	0.04077707
20	0x3d7e4776	0.06207987
21	0x3e9700d9	0.29492834
22	0xbeb07dbc	-0.34470928
23	0x3db2402f	0.08703648
24	0xbbebfad0	-0.00720153
25	0xbe2d0eae	-0.16900131
26	0x3cda0930	0.026615709
27	0x3d0cb2b0	0.034350097
28	0xbe472c13	-0.19450407
29	0xbcfae01e	-0.030624446
30	0x3da473a2	0.08029868
31	0x3e2aaa96	0.16666636
32	0x3d34936e	0.044085912
33	0x3d22703a	0.03965781
34	0x3d9ddfb5	0.07708684
35	0xbedbbeac	-0.4291891
36	0x3be80744	0.0070809443
37	0x3eacad22	0.3372584
38	0x3e685d93	0.22691946
39	0xbe3c3f54	-0.18383533
40	0x3e3b92ad	0.18317671
41	0x3ebefbb0	0.37301397
42	0x3e81f6dd	0.25383654
43	0xbdfdc121	-0.12390352
44	0xbeb8535a	-0.36001092
45	0xbc7bfc01	-0.015379907
46	0x3e1b4cf6	0.15166077
47	0x3db01aba	0.08598848
48	0xbd791236	-0.060808383
49	0xbe09a32c	-0.13441151
50	0xbe870df2	-0.26377827
51	0xbe1d43be	-0.15357873
52	0xbede22cf	-0.43385932
53	0x3e3bf476	0.18354973
54	0xbd20a6da	-0.039221622
55	0x3db1ae69	0.08675844
56	0x3def54f7	0.11686128
57	0xbde1aa31	-0.110187896
58	0xbc9cbcff	-0.01913309
59	0x3e34ff1f	0.17675446
60	0x3d83da2f	0.064380996
61	0x3e35f983	0.17770962
62	0xbe23c96d	-0.15994807
63	0xbd74563d	-0.059652556
64	0xbdaf5f27	-0.08563071
65	0xbed0a354	-0.4074961
66	0x3eed692c	0.46369302
67	0x3e255344	0.16145045
68	0x3d8cd9f4	0.06877509
69	0xbe0873c4	-0.13325411
70	0x3e4191e5	0.1890331
71	0xbd7202e7	-0.0590848
72	0x3eb1c848	0.34723115
73	0x3e32c26a	0.17456976
74	0xbea6c459	-0.32571676
75	0xbe907eea	-0.28221828
76	0x3d569936	0.052392207
77	0xbe2ce8a5	-0.16885622
78	0x3e46b457	0.19404732
79	0x3d93b2f0	0.07211864
80	0xbcc29e82	-0.023757223
81	0x3dca7fe0	0.098876715
82	0x3e02e7d8	0.12783754
83	0xbd3dbc5b	-0.046322208
84	0x3ecd3f36	0.4008729
85	0x3ddccb06	0.10780911
86	0xbbb1d3bf	-0.0054268534
87	0xbc82c54d	-0.015963221
88	0x3b819c8f	0.003955431
89	0xbdca9057	-0.09890812
90	0xbe888348	-0.2666266
91	0x3e9a82b5	0.30177847
92	0xbbe46f3d	-0.0069712684
93	0xbeed0a3c	-0.4629687
94	0x3b9ca8b8	0.004780855
95	0xbd231adf	-0.03982055
96	0xbe164085	-0.1467305
97	0x3dc1c4fb	0.09461399
98	0x3e88d332	0.2672363
99	0x3d575971	0.052575532
100	0x3e23c8be	0.15994546
101	0xbdfb5c22	-0.12273432
102	0xbde7879a	-0.11305161
103	0xbf1223ff	-0.57086176
104	0x3e5f89e5	0.21829946
105	0xbe19d127	-0.15021192
106	0x3dda00f3	0.10644712
107	0x3d322a2b	0.043497246
108	0xbe839314	-0.2569815
109	0xbdac0b0c	-0.084005445
110	0x3e701997	0.23447262
111	0x3dc94483	0.09827521
112	0xbdaaf260	-0.083470106
113	0xbe5d2b3d	-0.21598525
114	0x3e3ca403	0.1842194
115	0x3c17a27f	0.009255051
116	0x3d2937a0	0.041312814
117	0x3ebdba3b	0.37056145
118	0xbd5a654b	-0.053319257
119	0x3dfe4eb2	0.12417354
120	0x3e989675	0.2980229
121	0x3e344c9d	0.1760735
122	0x3d1daf12	0.03849704
123	0xbe09c9f9	-0.13455953
124	0xbed74bea	-0.42050105
125	0xbc5cbeab	-0.013473193
126	0x3e4a4995	0.19754632
127	0x3d9a2f51	0.07528556
128	0x3e5463fa	0.20741263
129	0x3c818ada	0.01581328
130	0xbc97b4c2	-0.01851881
131	0x3d9a9e9f	0.07549786
132	0xbe5f9966	-0.2183586
133	0xbde15202	-0.1100197
134	0xbe7df33a	-0.24799815
135	0xbd11b9c5	-0.035577554
136	0x3e572602	0.21010593
137	0x3d6072e4	0.05479707
138	0x3cc1ce82	0.02365804
139	0x3d703659	0.05864558
140	0xbc81626b	-0.015794
141	0x3d9839e4	0.07432917
142	0x3b4046f1	0.002933916
143	0xbd03a93c	-0.032143816
144	0xbc005a32	-0.007834004
145	0xbdc4130e	-0.09573947
146	0x3d6e2b3e	0.058146708
147	0xbea65b55	-0.32491556
148	0x3ebc09f3	0.3672634
149	0x3dd87a94	0.10570255
150	0x3d8a461b	0.06751653
151	0x3e3ce144	0.18445307
152	0xbd81f140	-0.06344843
153	0xbe1f20a5	-0.15539797
154	0x3d43216a	0.047639288
155	0x3cd7e5cc	0.026354693
156	0xbe8c27fc	-0.27374256
157	0x3e829ea4	0.25511658
158	0xbd9a89c0	-0.07545805
159	0xbe52c0f4	-0.20581418
160	0xbea63e45	-0.32469383
161	0xbea46540	-0.32108498
162	0xbe4131a1	-0.18866588
163	0x3e23a4de	0.1598086
164	0xbd9acfa6	-0.07559137
165	0x3de01431	0.10941351
166	0xbe0294be	-0.12752053
167	0x3d966a3b	0.073444806
168	0x3f0c01a2	0.5468999
169	0x3cef180f	0.029186277
170	0xbcc6584d	-0.024212027
171	0xbdcc3f4f	-0.09973013
172	0x3d7122eb	0.05887119
173	0xbef083a2	-0.46975428
174	0x3e2997eb	0.16561858
175	0xbce3e69e	-0.027819928
176	0xbcf3cdcb	-0.029761216
177	0xbd67a189	-0.056550536
178	0x3d5ccd1a	0.053906538
179	0xbdbe5f8d	-0.092955686
180	0x3d750130	0.059815586
181	0xbeb61396	-0.35561818
182	0xbe487408	-0.19575512
183	0xbea6c0fb	-0.32569107
184	0xbe5033ac	-0.20332211
185	0x3dbf7b40	0.0934968
186	0x3d937578	0.0720014
187	0xbca59cdd	-0.0202164
188	0xbdd7244c	-0.1050497
189	0x3cc266c0	0.023730636
190	0xbdacaeb0	-0.084317565
191	0x3d1f5285	0.038897056
192	0x3e1f7803	0.15573125
193	0x3c0f3aa1	0.008742006
194	0xbe65e78d	-0.22451611
195	0x3decb584	0.11558059
196	0xbd8b5126	-0.06802587
197	0x3d4fa96c	0.050698683
198	0xbe25b2e2	-0.1618152
199	0xbd52821a	-0.051393606
200	0x3d660fa9	0.05616728
201	0x3e432599	0.19057311
202	0x3d0462eb	0.032320898
203	0x3da65786	0.081221625
204	0x3e620b7a	0.2207469
205	0xbcec56ac	-0.028849922
206	0x3e179f25	0.14806803
207	0xbe545f84	-0.20739561
208	0x3e284608	0.16432965
209	0x3e70ea68	0.23526919
210	0xbd90bc94	-0.070672184
211	0x3dd0a6fc	0.101881
212	0x3e835f98	0.2565887
213	0xbe9cf13a	-0.3065279
214	0xbe5f79b6	-0.21823773
215	0x3e8ccfec	0.27502382
216	0xbddd040b	-0.10791787
217	0x3dc1f0a1	0.094697244
218	0xbe0d7d69	-0.13817371
219	0x3e900b5e	0.28133672
220	0xbe8d7c95	-0.2763411
221	0xbe0c9498	-0.13728559
222	0x3e419f9d	0.18908544
223	0xbefc7640	-0.49308968
224	0x3eb687e5	0.35650554
225	0x3e12ae71	0.14324357
226	0xbe197b3d	-0.14988418
227	0x3d010426	0.031498097
228	0x3eee211b	0.46509632
229	0x3a8195a0	0.0009886511
230	0xbe544c07	-0.20732127
231	0xbdaf036a	-0.08545573
232	0x3df4bb9d	0.11949847
233	0x3e66b7bd	0.22531028
234	0xbd7d5860	-0.06185186
235	0x3e37c34f	0.17945598
236	0xbe4adf0a	-0.19811645
237	0x3ce219d6	0.02760021
238	0x3dedc427	0.11609679
239	0x3cdbae33	0.026816463
240	0x3d5f636c	0.054538175
241	0x3cf706ef	0.030154673
242	0xbe3b869d	-0.1831307
243	0xbd2e7d97	-0.04260024
244	0xbe18dbd3	-0.14927606
245	0x3e2dc93c	0.16971296
246	0x3dfe36b4	0.124127775
247	0x3ca352ab	0.01993688
248	0xbda93d16	-0.08263604
249	0xbe9e120a	-0.30873138
250	0xbea22e79	-0.3167608
251	0x3d5622cb	0.052279275
252	0xbe9eead9	-0.3103855
253	0xbf0daeb4	-0.553447
254	0x3e387c95	0.18016274
255	0x3ab43f2e	0.0013751739
