checkpoint_critic.pth (torch_old, 533779 bytes, 13 tensors)

bn0.weight f4 [24]
00000000: 7bca ed3e 1b2d b53e 74f1 45bb cc82 3e3b
00000010: 02c8 1f3f 3bc9 333f bad1 023f a17a 033f
00000020: 8461 2a3a 217b a7ba 3964 ca3e 7c3d 353c
00000030: 8194 a4bb f596 e13a e059 243e c3b0 a63e
00000040: 5c48 053f bc19 923e 87b0 c73b 4622 62bb
00000050: c46b 633f bb98 3f3f a4ae fd3e 81d1 053f
0.46443543 0.35385975 -0.0030203732 0.002906966 0.6241456 0.7022893 0.5110127 0.5135899
0.00064995163 -0.0012777784 0.3952959 0.011062022 -0.005022586 0.0017211126 0.1604991 0.32556733
0.52063537 0.2853526 0.0060940417 -0.0034505292 0.8883631 0.74842423 0.49547303 0.522728

bn0.bias f4 [24]
00000000: 3a56 a038 82bd 65b8 e801 deb5 1c13 ff33
00000010: 4b17 1139 d7e8 cab8 dcb4 4d39 11de fcb8
00000020: a578 2a38 666c 9c37 2cb9 91b7 faa4 4db7
00000030: de7d 1cb7 90b8 2735 9ebd 6438 02b9 52b9
00000040: 6d1a b0b7 fa33 2f38 5618 2bb6 765f 2e36
00000050: 2015 a2b5 0056 4db8 a95e 0538 a298 0b38
7.6454555e-05 -5.4774348e-05 -1.6540844e-06 1.1877839e-07 0.00013836955 -9.6754804e-05 0.00019617699 -0.000120576595
4.0643517e-05 1.8647126e-05 -1.7371574e-05 -1.2257364e-05 -9.32763e-06 6.248092e-07 5.453603e-05 -0.00020096081
-2.099314e-05 4.177166e-05 -2.549515e-06 2.5983586e-06 -1.2076089e-06 -4.8955902e-05 3.179783e-05 3.3282333e-05

bn0.running_mean f4 [24]
00000000: 9dff fdc0 f18a 61be 6c23 9e3f a7ea 713e
00000010: e28d 40bd df26 7e40 6c23 9e3f a7ea 713e
00000020: b622 01c1 1381 63be 4faa c73f 1201 643e
00000030: 1f22 23bd 3f04 8140 4faa c73f 1201 643e
00000040: 85a2 03c1 c6ff 6abe 40fc b43f ed7f 253e
00000050: 508f 11bd b858 8240 40fc b43f ed7f 253e
-7.937453 -0.22025658 1.235456 0.23624669 -0.04701031 3.9711225 1.235456 0.23624669
-8.070974 -0.22217207 1.5598849 0.22266033 -0.039827462 4.0317683 1.5598849 0.22266033
-8.227178 -0.22949132 1.413948 0.16162081 -0.035537064 4.07333 1.413948 0.16162081

bn0.running_var f4 [24]
00000000: 2072 4341 cfe8 4d3f 3805 9e43 64f0 8241
00000010: 6d93 dc41 c366 2a40 3805 9e43 64f0 8241
00000020: 92fa 3141 3e7d 523f 31e4 a043 2336 8441
00000030: aee9 e441 22cf 1940 31e4 a043 2336 8441
00000040: 8c34 2341 6ad8 5a3f c9fb a543 e4d1 8641
00000050: 2a80 ee41 6e38 0c40 c9fb a543 e4d1 8641
12.215363 0.8043336 316.04077 16.367378 27.571985 2.662522 316.04077 16.367378
11.123674 0.82222354 321.78275 16.526434 28.614101 2.4032674 321.78275 16.526434
10.200329 0.8548647 331.96707 16.852486 29.81258 2.1909442 331.96707 16.852486

fcs1.weight f4 [400, 24]
00000000: 797c 843d abba 65be 3aa4 a43a d2b3 553a
00000010: f96c 463e 29f3 9d3c 363b 1a3d 5193 253e
00000020: 6a26 5d3b 841e acbb 4813 a9bc ba70 1c3d
00000030: afa2 71bb 753c 5f3c 1386 8cbc 006c 233e
00000040: eb62 58bc 433b 86bd b5b1 0d3c 45ed 06bc
00000050: 6f5b b83d 7f75 c03b d340 633d 1c51 043d
00000060: 5df1 f5bd eb63 84bd 2a23 3e3b a84c 3abb
00000070: 96b8 283c 6a0f b43d 2aba 383d 7a23 573d
00000080: 15da 6a39 0975 e237 6cbd 303e c751 153a
00000090: 85b9 fb3a 0192 363b 53bf bd3d c96b 273d
000000a0: 240a 8ab9 17ee 82bc dd0b c7ba 6415 e93a
000000b0: 102e 6a3d 9650 27bc 1f39 c5bd 1bca 853d
000000c0: 52d4 c23d 3f1d 6dbd 291d e63b 43f7 4b3a
000000d0: e7b7 25bd ae7a 15be 9ab9 74bd 2701 49be
000000e0: 94d5 6c3b f71a 42bc 9c58 673d 6c18 e63c
000000f0: 12e1 e93b 6062 03bc 443f 063d 08d5 b63d
00000100: 41c4 db3d f184 0dbe a0ec a3bb f3af 46bc
00000110: 34c6 133d f8eb 8ebd f0fb 393e e7b9 11be
00000120: 8681 56be d127 1fbe d3f3 5c3b fc4a 06bb
00000130: f2de 0b3d 9414 42be 5db1 523e 964c 173c
00000140: fb54 c6bb 341d 66bc e990 943d 9730 98bc
00000150: 6bbe d3bb b625 333c 5088 683d fb73 a3bd
00000160: ce15 d93d e3ed a23d 409b 3abc 203b bc3b
00000170: 3f22 6c3c c9fa e33d 28ea 823d c716 2e3d
00000180: 1043 de3d eb86 ae3d 5b8f b4bb 2070 83ba
00000190: 3b94 6bbd 02f8 0b3d e07e ae3b ecad 80bd
000001a0: a82a ef3b a8c9 c53c 9a5a 1abe 6405 cd3c
000001b0: b606 a8bb 6f96 c0bb 6c48 cdbd 4cdf ad3d
000001c0: 21d4 cbbd 359e 363e 861c a33c 6798 623c
000001d0: 0bc4 953d be1f 113e 932d 2ebe 2765 21be
000001e0: 4c81 9c3d 4724 e03d 72f9 adba c865 16bb
000001f0: 697d 883c c35d 90be a1c9 833d a192 ec3b
00000200: 26e4 ffb9 f41c df3b 00ec cfbc d93a c73c
00000210: a2f3 7a3b f111 a73b aaa0 d6bc ef9e 5b3d
00000220: 350a 373d a157 f03d 31e5 4dbc 3da6 293b
00000230: e601 81bc 9560 41be c22d 25bd c603 54bd
00000240: 7dd2 663d 6409 ecbd dc91 153c d552 43bb
00000250: d29b 0b3e 95c2 813d 1f74 5abd a176 1cbe
00000260: d33e a73b ba0d 07bb 7cda af3d 5e09 82bc
00000270: 3bcd f33a 8a00 8f3b de9f 7f3d f7bb 5abd
00000280: 0edc 943d 6ccc d4bc 7107 f7bc 990b 44bb
00000290: 18a7 d33d 7556 db3d 162e 12be dbc7 74bd
000002a0: 43a1 00be 5f61 463e d0c2 ce3b ace6 97bb
000002b0: 90fe ec3b 27ef 163d 0298 00bc 28ac 05be
000002c0: 538e 3ebb dafd 2d3c 56b1 c43c 2385 09bd
000002d0: 83cd 94ba 2b0e 6cbc dc91 283c 5f14 f4bd
000002e0: b54e 263c d0d8 e33d f287 02bd 8f82 dcbb
000002f0: 17ff 1fbe 6eb3 d43d f92c bc3c f861 643d
00000300: 0a0f 9a3d a548 513d 8a6c 3a3c 8f1c 183c
00000310: 2770 203d 1ad2 a03e c8ec c6b9 4b9d cb3c
00000320: 2b92 86bb 9bd4 85bb 9379 ca3c 846a 7bbb
00000330: ad20 973c 1e22 4f3b 170f 3d3c acf7 49bc
00000340: 7bbe 8abd 0818 05bd 0507 e03b ffef 84bc
00000350: 7922 ee3d 4dd8 34be 261a c73d 4a49 003e
00000360: 42d3 e0bd fd28 44bd 57d4 b43b acdb 85b8
00000370: 1717 f9bb 494f 2abe f615 2bbe 5c29 0abd
00000380: 8c8e 9e3a a1ac b2b9 930b 0cbe 9998 aa3b
00000390: 445d c2bb 6563 9f3b 1c0c babd caf0 793c
000003a0: 0c21 e0bc 71ef 4b3d 5a78 383b 8de8 0a3b
000003b0: d829 113d 6399 663d 80a6 eebd 0ee9 29bd
000003c0: 34f2 b73d 8b38 e23c 579d 113b 0253 b6ba
000003d0: 0f59 023e f752 6c3d d592 44be 644c 223d
000003e0: 4b88 f1b9 b69c 123b 120f d5bd 6d08 f3bb
000003f0: 0812 f2bb 157f 0a3b 9cd8 78bd a0c2 9ebd
0.06469054 -0.2243449 0.001256115 0.00081521005 0.19377507 0.019280987 0.037654124 0.16169478
0.003374482 -0.005252661 -0.020639077 0.038193442 -0.0036870649 0.013625254 -0.017153775 0.15959167
-0.013207178 -0.06554272 0.008648326 -0.00823528 0.090018146 0.0058733816 0.055481743 0.032303914
-0.12008927 -0.0646437 0.0029012659 -0.0028427038 0.010297915 0.087920025 0.045099415 0.052524067
0.00022397221 2.6995798e-05 0.17259759 0.00056960847 0.0019205069 0.0027858021 0.09265008 0.040874276
-0.00026328966 -0.01598267 -0.0015186031 0.0017782864 0.057172835 -0.010212084 -0.096300356 0.06532689
0.09513153 -0.05788922 0.007022519 0.00077806803 -0.040458586 -0.1459758 -0.059747316 -0.19629346
0.0036138045 -0.011847249 0.05648099 0.028087817 0.007137426 -0.00801906 0.03277518 0.08927351
0.10730792 -0.13820244 -0.005002573 -0.0121269105 0.036077693 -0.06978601 0.18162513 -0.14231072
-0.20947847 -0.15542533 0.0033714666 -0.0020491472 0.034148164 -0.18953162 0.20575471 0.009234568
-0.006052611 -0.0140450485 0.07254202 -0.018577857 -0.0064619086 0.010934284 0.056770623 -0.07981106
0.10599862 0.079555295 -0.011389554 0.005744353 0.014412462 0.11131818 0.06392318 0.04250219
0.10852635 0.08521827 -0.0055102534 -0.0010027923 -0.05751441 0.034172066 0.0053251833 -0.06283173
0.007298786 0.024144009 -0.15073624 0.025026985 -0.005127753 -0.005877308 -0.10023579 0.08489856
-0.0995257 0.17833789 0.019911062 0.013830281 0.07312783 0.14172265 -0.17009573 -0.15761243
0.07641849 0.10944419 -0.0013273193 -0.002294885 0.016661363 -0.28196535 0.06434942 0.007219628
-0.00048807374 0.0068088714 -0.025381088 0.024320053 0.003829219 0.0050985743 -0.026199657 0.053618368
0.04468747 0.11735464 -0.0125668505 0.002588644 -0.015747976 -0.188845 -0.04032684 -0.05176141
0.05635308 -0.115252286 0.009129014 -0.002980401 0.1363366 0.06335942 -0.053333398 -0.15279628
0.005103925 -0.0020607547 0.085865945 -0.015873607 0.0018600592 0.004364078 0.06240832 -0.053401913
0.072685346 -0.025976382 -0.030154916 -0.002991414 0.10334605 0.1070985 -0.14275393 -0.05976091
-0.12561516 0.19373082 0.0063098446 -0.0046356525 0.0072324947 0.036849167 -0.0078487415 -0.13053954
-0.002907653 0.010619605 0.024010342 -0.033574235 -0.0011352751 -0.014407675 0.010288682 -0.11917948
0.010150601 0.11125338 -0.03186793 -0.006729431 -0.15624653 0.10385786 0.022970663 0.055757493
0.075224 0.05109467 0.011378417 0.009284153 0.039169457 0.31410295 -0.0003794192 0.024855277
-0.00410678 -0.0040841824 0.024716174 -0.0038363049 0.018448198 0.0031606029 0.011539242 -0.012327116
-0.067746125 -0.03249362 0.0068367743 -0.01622772 0.11627669 -0.17660637 0.09721784 0.12527958
-0.10977794 -0.047890652 0.005518477 -6.382851e-05 -0.0076016295 -0.16631807 -0.16707596 -0.03373085
0.0012096926 -0.00034079424 -0.1367629 0.0052061793 -0.0059315283 0.0048641437 -0.09084341 0.0152551625
-0.027359508 0.049788896 0.0028147907 0.002119574 0.035440296 0.056298625 -0.11652851 -0.041482024
0.089817435 0.027614852 0.0022219026 -0.0013910236 0.12729286 0.05769631 -0.19196637 0.039623633
-0.00046068648 0.002237124 -0.10403265 -0.007416776 -0.0073874034 0.0021132876 -0.06075345 -0.077519655

fcs1.bias f4 [400]
00000000: a596 2138 22f9 17b7 2416 9ab8 be02 9037
00000010: 14cc b7b7 38df 7bb8 2633 b537 9941 0238
00000020: 2eb0 59b8 8922 65b8 8077 6838 44e3 7838
00000030: 6b7e 2337 4e9e 8cb7 28d3 f836 ce31 c8b8
00000040: b6cd 46b6 90c8 66b8 da91 6038 8a3f 04b9
00000050: 6058 54b8 f3e9 0ab8 2fd4 f437 9065 cc37
00000060: 200b 7638 68f9 5b36 d2b6 9cb8 68c3 55b7
00000070: 57a7 1138 3266 3d39 a4ed 6b38 b40c 2637
00000080: 3324 4f37 5d45 14b8 65b4 9937 d7b1 a037
00000090: 4202 99b7 ee2b 59b8 9dcc b3b8 93eb a837
000000a0: eafe 6737 0081 9eb7 eba1 3b02 6664 a538
000000b0: 387d 2c38 1234 9d02 c8d0 b0b7 20e0 d735
000000c0: d476 0837 b6af 4637 de2b 95b7 00e1 9cb8
000000d0: 5d7a 36b9 8c38 5481 aae7 9eb7 0a86 d638
000000e0: a84e 2301 b033 968b a9b4 8237 a056 d2b8
000000f0: b1ac 44b8 4e6d 03b9 7e28 47b7 18e2 21b9
00000100: 9881 75b7 92e4 9a81 6e59 1fb8 e745 8d38
00000110: fddc ae38 84de 75b9 b428 8181 6c5b 3b36
00000120: ddf2 ec36 28e5 3338 a89d b936 cff6 86b8
00000130: e197 a6b7 ec28 40b7 f8ee d9b6 3cf2 2c01
00000140: 2bd4 1011 a037 3138 f2c4 9bb7 c58b fe37
00000150: 2d19 84b7 9a66 08b8 508f a837 f379 a701
00000160: d4e5 9137 8837 1537 10f8 6db6 ca29 1db4
00000170: a867 8e37 8d17 4d02 ce8e 0eb8 2094 be38
00000180: 08a4 3137 90ec eb37 a2c6 eab8 acb9 5c01
00000190: 3e53 6a37 d0b6 f4b7 60d4 85b4 1fab 36b8
000001a0: a1a6 ccb0 14f0 b5b8 b5d0 88b7 3496 39b7
000001b0: 790e ab38 782f 71b8 c192 67b8 e4e5 9938
000001c0: 5e81 e837 b86b f3b7 459f f938 79e1 ca37
000001d0: 70b9 f481 6457 7a37 a227 a035 f415 9c37
000001e0: 50f6 1938 ee38 5a38 a946 8239 4e1f 2838
000001f0: 84dd a8b8 784a 1fb8 7aa6 9638 129c 83b9
00000200: 61ce 94b8 a097 4c81 429c a381 f095 5137
00000210: 6791 cd37 24e5 0236 ddff 0938 fa04 6138
00000220: 7fd1 d5b8 fe29 2938 4ecc dcb8 47c1 5238
00000230: 8121 19b9 3eca f337 81f9 ee36 3dac 3937
00000240: 57f6 38b8 00aa c8b2 4527 f2b8 1097 07b7
00000250: 3435 abb7 9a48 5238 1733 8538 850f 0338
00000260: cef0 f5b7 3227 5f2d 9022 f336 3822 7101
00000270: e470 55b6 83b3 ecb7 600c dab8 bf96 a7b7
00000280: 07e0 5538 ac80 d538 e2ee af37 4a1a 5f38
00000290: 7099 ae36 f4c5 3538 146f 12b8 6cbb 1837
000002a0: f015 0938 2435 0639 7825 0d38 008a 1537
000002b0: b882 bcb7 e8ab 85b7 1078 81b6 46d7 4eb8
000002c0: 4233 53b7 6642 46b8 5883 3836 5ebf 28b8
000002d0: b818 af35 f1cf a9b7 a5b6 77b8 7068 4f36
000002e0: 1073 b0b8 fc6b 7538 9019 e0b8 9e58 b4b8
000002f0: 60e5 94b7 aa07 b801 7434 90b5 1a0e ff38
00000300: 6846 2a37 9e5d 5138 20e9 b281 4bf6 8436
00000310: 80fd 39b7 a913 a538 7cc3 0837 84cb eab7
00000320: 1ad5 1eb8 3f2d 2b38 0405 04b8 67b1 bb37
00000330: d4f9 5239 92ae a738 6a5c 0e35 e75d 1eb9
00000340: a487 de37 a8d0 8636 e885 ca38 6453 19b7
00000350: 5e79 1cb6 6cf3 a638 e087 4bb8 5a36 44b8
00000360: 1045 03b9 50a4 9e36 301b 1438 4064 f5b3
00000370: 28fe 7ab7 00a4 bc80 806e dcb6 06e5 0337
00000380: 8021 efb6 d974 af37 28bb 4037 902e acb4
00000390: 5f71 ceb7 b87e f9b6 806f bf38 1092 8a37
000003a0: 00e9 7138 80c5 e538 38e6 a337 9a89 b2b8
000003b0: 3ff2 d437 dbe0 f537 1a9e e938 20d1 7cb5
000003c0: 5440 91b7 ec48 f7b6 3077 c337 ce3b 66b8
000003d0: f8cc 01b8 50d3 30b8 888e 91b8 3e80 a638
000003e0: 38cb ff36 7024 5937 da93 aa37 a050 8637
000003f0: 7c7f d1b8 1cd9 4739 6326 93b8 5078 6436
3.852569e-05 -9.058307e-06 -7.347416e-05 1.7167415e-05 -2.1910331e-05 -6.0050952e-05 2.16007e-05 3.1055508e-05
-5.190091e-05 -5.4630018e-05 5.5424403e-05 5.9339465e-05 9.744991e-06 -1.6763017e-05 7.415558e-06 -9.54602e-05
-2.9624039e-06 -5.502306e-05 5.3541597e-05 -0.00012612171 -5.0627044e-05 -3.3119646e-05 2.9185872e-05 2.4365989e-05
5.866133e-05 3.2778717e-06 -7.4727126e-05 -1.2741286e-05 3.472654e-05 0.00018062515 5.6249686e-05 9.897329e-06
1.234659e-05 -3.535055e-05 1.8323024e-05 1.91563e-05 -1.8240073e-05 -5.1777744e-05 -8.573497e-05 2.0136858e-05
1.3828025e-05 -1.8895138e-05 1.3785058e-37 7.886514e-05 4.1124615e-05 2.3098964e-37 -2.1078056e-05 1.6083977e-06
8.1338985e-06 1.1842631e-05 -1.7782611e-05 -7.480569e-05 -0.00017402456 -3.897882e-38 -1.8942945e-05 0.00010229282
2.9994805e-38 -5.785567e-32 1.5581334e-05 -0.000100297155 -4.6890873e-05 -0.00012533853 -1.1870752e-05 -0.00015438383
-1.4633311e-05 -5.689865e-38 -3.7991842e-05 6.736424e-05 8.338129e-05 -0.00023447914 -4.744552e-38 2.7918386e-06
7.061621e-06 4.2890344e-05 5.5317832e-06 -6.4355896e-05 -1.9859466e-05 -1.145362e-05 -6.4949236e-06 3.1765205e-38
1.1424976e-28 4.2251893e-05 -1.856915e-05 3.0344245e-05 -1.574735e-05 -3.2520482e-05 2.0093896e-05 6.15211e-38
1.7392369e-05 8.894021e-06 -3.5460143e-06 -1.4636967e-07 1.6975988e-05 1.506778e-37 -3.3988435e-05 9.0874964e-05
1.0588214e-05 2.8124341e-05 -0.00011194988 4.054083e-38 1.3966868e-05 -2.9172195e-05 -2.4927704e-07 -4.355155e-05
-1.4890312e-09 -8.6754706e-05 -1.630965e-05 -1.1061831e-05 8.156611e-05 -5.7503086e-05 -5.5211367e-05 7.338429e-05
2.7716796e-05 -2.9018018e-05 0.000119029115 2.418527e-05 -8.9897534e-38 1.4921508e-05 1.1932464e-06 1.8606872e-05
3.670744e-05 5.202827e-05 0.00024848178 4.0083476e-05 -8.052125e-05 -3.797791e-05 7.183566e-05 -0.00025102549
-7.095631e-05 -3.7577668e-38 -6.010096e-38 1.2492281e-05 2.4505613e-05 1.9504887e-06 3.2901637e-05 5.3648815e-05
-0.00010195653 4.0331848e-05 -0.00010528472 5.0247905e-05 -0.00014603698 2.9062034e-05 7.121999e-06 1.1066962e-05
-4.409844e-05 -2.3360371e-08 -0.00011546774 -8.081799e-06 -2.0409563e-05 5.0135517e-05 6.3514504e-05 3.1247288e-05
-2.931841e-05 1.26847855e-11 7.245988e-06 4.428926e-38 -3.1805184e-06 -2.8216984e-05 -0.00010397355 -1.9978148e-05
5.09918e-05 0.000101805985 2.0972864e-05 5.3191827e-05 5.2034666e-06 4.333812e-05 -3.4912562e-05 9.103544e-06
3.2683776e-05 0.00012799032 3.3651915e-05 8.913223e-06 -2.2472217e-05 -1.5934886e-05 -3.8584767e-06 -4.9314716e-05
-1.2588514e-05 -4.7268717e-05 2.7494589e-06 -4.0232546e-05 1.304571e-06 -2.02432e-05 -5.905949e-05 3.0906194e-06
-8.413766e-05 5.851312e-05 -0.00010685914 -8.599575e-05 -1.7749786e-05 6.760192e-38 -1.0744102e-06 0.00012161974
1.0149182e-05 4.991667e-05 -6.572139e-38 3.962579e-06 -1.1085882e-05 7.871475e-05 8.151746e-06 -2.7989743e-05
-3.78686e-05 4.0811716e-05 -3.1475924e-05 2.2374747e-05 0.00020120229 7.995697e-05 5.30336e-07 -0.00015103036
2.6527625e-05 4.017802e-06 9.6570526e-05 -9.1389265e-06 -2.3316456e-06 7.960838e-05 -4.8525515e-05 -4.678066e-05
-0.00012518861 4.7278954e-06 3.531127e-05 -1.1426937e-07 -1.4960337e-05 -1.7323905e-38 -6.569375e-06 7.861532e-06
-7.126655e-06 2.0916037e-05 1.14876675e-05 -3.2071375e-07 -2.4609906e-05 -7.4355303e-06 9.128358e-05 1.6518898e-05
5.7675876e-05 0.00010956358 1.9538318e-05 -8.513332e-05 2.5385174e-05 2.9310982e-05 0.000111397545 -9.418163e-07
-1.7315302e-05 -7.369663e-06 2.3301312e-05 -5.489197e-05 -3.094689e-05 -4.215847e-05 -6.940687e-05 7.939384e-05
7.62325e-06 1.2942692e-05 2.0334428e-05 1.6011589e-05 -9.9896424e-05 0.00019058998 -7.016656e-05 3.4044679e-06

bn1.weight f4 [400]
00000000: f30a c33e 4ebf 253e bba2 a93e ff83 ab3e
00000010: ee7d ee3e fea8 a93e a3dc c43e 1dc5 8b3e
00000020: f566 0a3f 3644 873e 150a 103e d47e a83e
00000030: 9456 633e 85e0 a53e acc9 d33e 7b24 8b3e
00000040: 6c61 663e 8783 9b3e cadb 5d3e f29a ca3e
00000050: 0a47 7e3e c3ad ae3e 76de 1d3e fffd 6a3e
00000060: db9a 9a3e 76bf 513e 6863 5f3e 8225 683e
00000070: 0e25 6c3e 856f cb3e cc93 e33e 8333 603e
00000080: c4f2 843e c793 963e 8d3e 7f3e 666a d43e
00000090: dbd7 7d3e 18cd 993e a83d e43e 5822 5b3e
000000a0: e748 0e3e e761 853e 5373 3200 69c8 aa3e
000000b0: 4f3c d23e 9782 ac3a e7da 733e 4604 4b3e
000000c0: f95d 593e 8ab2 aa3e 6003 9c3e cf29 a23e
000000d0: 76c4 d33e 9141 eb3a 4cb4 823f cf93 d33e
000000e0: 9eec 4280 9198 ce22 7e51 3d3e 3062 a53e
000000f0: f2b4 8c3e ae35 b83e 9c10 2a3e 0fb9 b83e
00000100: c3c7 ce3e b76a 3d37 c12d 583e 1e34 9f3e
00000110: 437d 763e 4fc0 ad3f dce4 4b80 89bf ad3d
00000120: a236 383e d7d8 8c3e 5f81 083e 4359 fc3e
00000130: 110d 2e3e 4c02 653e 6e10 f03d 7614 1600
00000140: 79f8 18bc ff5f 963e 1c7c b43e 7e03 753e
00000150: 98c8 453e 3e62 853e 82c1 ee3e 78c5 0f00
00000160: ecd3 0b3e a1b1 f43e ef66 b13e 1bcc 963c
00000170: 17a8 d33e 481f 9a3b bc30 183f 2651 5d3e
00000180: 2092 ad3e 542d e43d 58c3 9b3e f862 2a80
00000190: 0f8d 823e de69 013e 443b 873d f917 4f3e
000001a0: 0f48 8e3d f65c 623e bc16 6e3e 23e5 7a3e
000001b0: 76a1 773e a6fc a63e 6e3d c13e d24f b63e
000001c0: 99e2 1e3e 9b76 783e 3cc6 053f a0d7 3f3f
000001d0: 0bf4 0900 b2d6 8d3e 3525 353e 58e5 843e
000001e0: 9484 e83e 0544 593e 2739 3d3f 1666 8a3e
000001f0: e7dd e13e f90c 773e 03a4 673e ce5b 9a3e
00000200: 4696 9f3e 7ad9 7739 3173 a73b 9f4b d43e
00000210: 9083 ca3d 41b6 973d a77a ef3e fe15 743e
00000220: 69fa b33e 95a2 863e 8339 f63e a750 733e
00000230: 1179 843e 96e7 f43e d9bb 063e ecfb ff3e
00000240: f955 a93e 6d2d b83e 6e22 033f d7b3 2f3e
00000250: 5799 503e 2513 493e e109 dd3e 4785 b83e
00000260: c92c 463e 7285 883c 41bd 493e 7e04 0023
00000270: 8a69 8f3d 0bd1 823e 5be0 9b3e 6369 203e
00000280: cfd0 c33e c509 9d3e cf38 983e 30ce d43e
00000290: c7ed b83e db9b bf3e 9654 a73e 0ea3 5a3e
000002a0: 23dd da3e ed90 023f 5ef1 ad3e 50b8 883e
000002b0: 36da 8d3e 9629 e43e e476 773e 4521 9a3e
000002c0: 5488 ad3e a143 543e b17b 783e 6cb3 963e
000002d0: 7d01 5f3e 1809 5e3e c2b5 ff3e eab2 bd3e
000002e0: 4f42 aa3e dbd1 953e 6ba2 963e 93fa 7d3e
000002f0: 3f23 6a3e 0756 4200 e8f5 3c3e 1bd5 c03e
00000300: 22c3 4b3e 163f 3b3e 97fe 223a b858 833e
00000310: 18e4 993e abe4 233f 07aa 343e 4a0e f53e
00000320: 16fc 813e a9b0 7c3e 8e73 813e 80ab b33e
00000330: 310d fe3e 735b 743e 97c1 503d 5adc 993e
00000340: 82a0 cd3e 035c 093f e0dc b23e 19e1 433e
00000350: 60ea f13d 9b2a ad3e 019e 9f3e e440 cd3e
00000360: 2de7 9e3e 95a1 283e 45b0 183e a64c 4d3e
00000370: e127 f03e 99f5 8410 4a11 2f3e 523e 573e
00000380: 1e78 b43e 195e 6d3e 61e1 a13e 898e 9b3e
00000390: db7b a03e 7c33 ab3e 976e 2b3e 78bb 873e
000003a0: 6917 633e d490 8b3e 07bb cc3e b9d8 873e
000003b0: 8ad0 b83e 8424 713e e6bf 703e d8ee 5b3e
000003c0: ba07 dc3e 46b2 493e df96 5b3e 5d2e ab3e
000003d0: 2849 9e3e 4928 543e 3ee2 8c3e db6e 903e
000003e0: 09e0 473e 2636 733e a298 f53e b345 923e
000003f0: 39f7 973e c83e 8d3e 104f b33e d803 463e
0.3809429 0.16186258 0.33131966 0.33499143 0.46580452 0.33136743 0.38449582 0.27298823
0.5406335 0.26419228 0.14066346 0.32909262 0.22200996 0.32397857 0.413648 0.2717627
0.22498101 0.30373785 0.21665874 0.3957134 0.24831787 0.34116945 0.15416893 0.22948454
0.3019627 0.20483193 0.21815264 0.22670558 0.2306101 0.3973352 0.44448698 0.2189465
0.25966465 0.2940962 0.24926205 0.41487426 0.24789374 0.30039287 0.4457829 0.2139982
0.13894998 0.26051256 4.633145e-39 0.33356026 0.41061637 0.0013161477 0.23813973 0.19825849
0.21227254 0.3333934 0.30471325 0.31672522 0.41360825 0.0017948617 1.0211272 0.41323707
-6.146025e-39 5.5997948e-18 0.18488118 0.32301474 0.274818 0.35978454 0.16607898 0.36078689
0.4038678 1.1290124e-05 0.21111204 0.3109445 0.24071221 1.3574313 -6.969761e-39 0.08483798
0.17989591 0.27509186 0.13330601 0.4928685 0.16997172 0.22364157 0.11721884 2.027721e-39
-0.009336584 0.29370114 0.35250938 0.23927113 0.19314802 0.26051515 0.4663201 1.448371e-39
0.1365506 0.4779177 0.34648845 0.018407872 0.4133918 0.004703436 0.5944936 0.21612987
0.33900547 0.11141458 0.30422473 -3.892594e-39 0.25498244 0.12638041 0.06603101 0.20223989
0.06947338 0.22105774 0.2325086 0.24501471 0.24182686 0.3261463 0.3774218 0.35607773
0.15516128 0.24263994 0.52255607 0.7493839 9.14066e-40 0.27702862 0.17689975 0.25956225
0.4541365 0.21217354 0.7391533 0.2703101 0.4411461 0.24126042 0.2262116 0.30148166
0.31169337 0.00023636772 0.0051101674 0.41463944 0.09888375 0.07407809 0.46773264 0.23836514
0.35151985 0.26295915 0.48090753 0.23761235 0.25873616 0.47832936 0.13157596 0.4999689
0.33073404 0.35972157 0.5122441 0.17158447 0.20370995 0.1963621 0.431716 0.36039183
0.19353022 0.016665194 0.19701101 6.939845e-18 0.07002552 0.25550112 0.30444607 0.15665202
0.38245246 0.30671516 0.29730842 0.4156356 0.3611891 0.37423596 0.3268172 0.21351263
0.4274684 0.5100239 0.3397321 0.2670312 0.27705544 0.44562978 0.24166447 0.30103508
0.33893073 0.20728923 0.24265935 0.29433763 0.21777911 0.21683156 0.49943358 0.37050563
0.33253714 0.2926167 0.2942079 0.24802618 0.22865008 6.092004e-39 0.18453181 0.37662587
0.19898656 0.18285784 0.00062177464 0.25653625 0.30056834 0.64020795 0.17642985 0.47862464
0.2538764 0.24676766 0.25283474 0.35091782 0.4961944 0.2386301 0.05096587 0.30050927
0.4016152 0.53656024 0.3493414 0.19128837 0.118122816 0.33821568 0.31175235 0.4008857
0.31035748 0.16467889 0.14910991 0.2004877 0.46905425 5.244322e-29 0.17096439 0.21019867
0.35247892 0.23180427 0.31617263 0.30382183 0.31344494 0.33437717 0.16741405 0.26510215
0.22176899 0.27258933 0.3998644 0.26532534 0.36096603 0.23549086 0.23510703 0.2147783
0.42974645 0.19696912 0.21444272 0.3343381 0.3091519 0.20718493 0.2751636 0.28209576
0.19519056 0.23751125 0.47968012 0.285688 0.29680803 0.2758696 0.35021257 0.19337404

bn1.bias f4 [400]
00000000: 5c35 4b3c 60bc 25be 12b4 fcbd 84dd 02be
00000010: 1477 3cbb 711e b0be ec32 e8bd cd01 64be
00000020: 7975 97bd 2815 29be 4fb9 fdbd 5f26 2dbe
00000030: d7b1 62be 2984 25be ee46 51be da4f 93be
00000040: 6479 36be 5d1b fbbd b7df 4bbe c6b4 53be
00000050: e528 92be 7e09 32be c06b 58be a310 62bd
00000060: 4a52 03be 31e9 65be d32d 10be 2e04 97be
00000070: f9e3 43be 5438 31be 6f0d febd 3308 3dbe
00000080: 4a14 24be 6ac9 30be 77ea 62be a90d 33be
00000090: 30c4 81be 62c9 11be 65fd 04be 6216 9fbe
000000a0: b4a0 51be 06f1 5fbe 51de 059a 29db 4ebe
000000b0: 2f35 cbbd b0f0 2bbc 772b 1bbe 4826 79be
000000c0: 4aef 34be c1da bdbd 618a 7dbe 999d 5abe
000000d0: a362 31be d750 2abd 1b18 95bd b896 e1bd
000000e0: 316d 27b1 1eaa a1ac c7a1 cabd b2b2 08be
000000f0: fc90 6ebe f3cf 26be d358 12be 6bd8 4dbe
00000100: 7923 84bd 243e 91bb cb3c f5bd 4fb0 b5bd
00000110: 334b 81be a10d 02bc 90c3 749d 8729 a8bd
00000120: 9f08 a9bd c6c9 97be 5fb9 36be d5ac 4fbe
00000130: 52d1 17be 9d7c 16be c1af 96bd 0727 96ab
00000140: 7058 e0bc c03a 77be 7349 a9bd aaf4 82be
00000150: babe 26be 2089 813d e6af 81ba 5230 6bb2
00000160: dcc1 71be 5b92 813d ae53 643d 61e3 41bd
00000170: ea37 7dbe b363 dcba f6ab af3a a6df 94be
00000180: 77ff 92be f254 26be c07f 2fbe abb7 159c
00000190: 0c1f cabc cf9b f6bd 38b7 1dbd 9709 2ebe
000001a0: ebb5 1ebe 630c a1be 1937 3bbe 3436 0abe
000001b0: 4979 84be 00ed 43be 0e35 68bd 5eac dbbc
000001c0: 536b 30be 1b82 5ebe 4bd9 243d 0b5c 2fbe
000001d0: 084a 11b6 2e64 b4bc 2fda 2cbe 9a51 67be
000001e0: 1fa1 11be 6a43 92be 7c4a 153e 405b 33be
000001f0: f3c0 53bd 16fd 05bd 1504 6bbe 2bf2 c0be
00000200: b2d9 afbe de2c 4bbc 19f0 c6bc 4d6f 10bd
00000210: aab9 ebbd a13d 14be cabf 82bd be09 8dbe
00000220: ea78 9cbc 4f7a 3bbe 5943 1dbe 8294 2dbe
00000230: fb72 37be 2a74 1ebe 34dd 27be e280 0cbe
00000240: aa5e c4bd 018a 8fbe 05c0 8bbd 08ea a2be
00000250: d259 51be 6ab4 7abe a7a5 34be d45e b8bd
00000260: fac3 86be 698a 97bd 49dd 9ebe 83bb 15a0
00000270: 298e 04be b845 dfbd 363c 88be 4075 3bbe
00000280: 74e6 d6bd 3d84 68be 3bd3 03be 44ce ddbd
00000290: 1944 f1bd 310d eebd 40c5 79bd 6604 14bd
000002a0: 1f1e 42be 5e2f afbd f335 3fbe b854 82be
000002b0: f578 9abe c646 d5bd df8d a9bd ebad aabe
000002c0: c0f9 8cbd 96cd 00be 73bf 49be e29d abbe
000002d0: 87c7 11be 2f94 cdbd 3fba dd3d d764 28bd
000002e0: 3f0f 87bd 4486 0ebe d39e 6dbe 46f6 40be
000002f0: bba2 5fbe e575 089e 1fc2 0cbe d347 01be
00000300: 3277 82be e60d 62bc 1bb7 76b8 59af e7be
00000310: 7a55 43be 0ad8 393d 79fb 85be 9167 773c
00000320: 6c36 76be 1d54 56be 9667 b7bd 354f a2bd
00000330: 4116 80bd 883a 39be f93c 89bd a9b5 11be
00000340: 7770 21be 9b88 eabd 271b cbbc 5f79 40be
00000350: e96d bdbd baa8 babd 2e0a 73be dced 84be
00000360: 628f fcbd a7ba a8bd e9b9 53be 83cf 50be
00000370: b8cc 72be 480f ffbc dd73 8abe fa88 45be
00000380: 4df1 8fbe cf2c 3dbe 2794 56be 17a2 3cbe
00000390: 2550 c8bd 60cc 44be ed0e 31be d68d 42be
000003a0: 3ca5 8dbe 4dee 82bd 51b2 5abe bef4 50be
000003b0: 055a e9bd 3582 81be 8bd9 8dbe 5da4 87be
000003c0: ff2f 2cbe 4c3b 1ebe 08e8 12be 99bb 8abd
000003d0: efa0 acbd 35ae 68be 40ec 1dbe 058a 37be
000003e0: 8f69 91be 94ec 80be 2fe3 8abd 12ba 0abe
000003f0: d99f 20bd 3456 d3bd bcf3 7ebe 9960 61be
0.012402859 -0.1618514 -0.12339033 -0.12779814 -0.00287575 -0.34398225 -0.113378376 -0.22266312
-0.07395453 -0.16511977 -0.123888604 -0.16909169 -0.22138153 -0.16163696 -0.20437214 -0.2877186
-0.17819744 -0.122610785 -0.19909559 -0.20674428 -0.28546825 -0.17386433 -0.21134853 -0.055191647
-0.1282436 -0.22452237 -0.1407998 -0.29495376 -0.19129933 -0.17306644 -0.12404906 -0.18460159
-0.16023365 -0.17264333 -0.22159754 -0.1748568 -0.25344992 -0.14236978 -0.12987287 -0.31071764
-0.2047146 -0.21869287 -2.768334e-23 -0.2020079 -0.09922253 -0.010494396 -0.151533 -0.2433101
-0.17669407 -0.092702396 -0.24759819 -0.21349181 -0.17322783 -0.041581 -0.072799884 -0.110150754
-2.4363767e-09 -4.594782e-12 -0.09894138 -0.13349417 -0.23297495 -0.16290264 -0.14291696 -0.20102088
-0.06452078 -0.0044324566 -0.11974486 -0.08871519 -0.25252685 -0.00793782 -3.2394235e-21 -0.08211046
-0.082535975 -0.29646128 -0.17844151 -0.20280774 -0.14825943 -0.14695974 -0.07357741 -1.0668973e-12
-0.02738592 -0.24143505 -0.082659625 -0.2557729 -0.16283694 0.06324983 -0.0009894341 -1.3689787e-08
-0.23609108 0.06326743 0.055743866 -0.047335986 -0.24728361 -0.0016814381 0.0013402689 -0.2907688
-0.2871053 -0.16243342 -0.17138577 -4.953735e-22 -0.024673007 -0.12041437 -0.03850481 -0.16995846
-0.15499084 -0.31454763 -0.18282737 -0.1349724 -0.25873783 -0.19133377 -0.056691222 -0.02681559
-0.17228441 -0.21729319 0.04024629 -0.17124955 -2.1649776e-06 -0.022020426 -0.16880105 -0.22589722
-0.14221619 -0.28567058 0.14579195 -0.17515278 -0.051697683 -0.032712065 -0.22950776 -0.3768476
-0.34345776 -0.012400834 -0.02428441 -0.035262395 -0.11510022 -0.14476635 -0.06384237 -0.27546495
-0.019100625 -0.18308376 -0.15357722 -0.16951182 -0.17914955 -0.15474 -0.16392976 -0.1372104
-0.09588368 -0.28034976 -0.06823734 -0.31819177 -0.2044442 -0.24482885 -0.17641316 -0.09002462
-0.26321393 -0.073994465 -0.31028202 -1.2682833e-19 -0.12944855 -0.1090197 -0.26608437 -0.18306446
-0.10493174 -0.22706695 -0.12873547 -0.10830358 -0.11780567 -0.1162361 -0.060979128 -0.036137007
-0.18956803 -0.085539564 -0.18672924 -0.2545526 -0.30170408 -0.104138896 -0.08279013 -0.33335814
-0.068835735 -0.12578425 -0.19701938 -0.33518893 -0.1423627 -0.100380294 0.10826539 -0.041111793
-0.06594705 -0.13918406 -0.23205118 -0.18843946 -0.2183942 -7.22416e-21 -0.13745926 -0.12625055
-0.25481564 -0.013797259 -5.88215e-05 -0.45250967 -0.19075575 0.045372047 -0.2616842 0.015100376
-0.24044198 -0.20930524 -0.08955304 -0.07925264 -0.062542446 -0.18088734 -0.06701083 -0.14229454
-0.15765558 -0.11451837 -0.02479322 -0.187963 -0.09249479 -0.09114213 -0.23734352 -0.25962722
-0.123320356 -0.08238726 -0.20676388 -0.2039166 -0.23710907 -0.031135216 -0.27041522 -0.19290534
-0.28113785 -0.18474124 -0.20954953 -0.18421207 -0.09780911 -0.19218588 -0.1729085 -0.18999419
-0.27665126 -0.063931085 -0.21357085 -0.20405862 -0.11394123 -0.25294653 -0.27705035 -0.26492587
-0.16815184 -0.15452307 -0.14346325 -0.06774063 -0.08429133 -0.22722705 -0.15422153 -0.17923744
-0.28400847 -0.25180495 -0.06781613 -0.13547543 -0.039214943 -0.10319176 -0.24897665 -0.22009505

bn1.running_mean f4 [400]
00000000: ef2e 2537 2055 82b6 a7c6 6237 8a10 7236
00000010: 5f8a 4735 98f2 5237 982d 9e37 e9b0 32b7
00000020: f87f b9b6 7d7c 9d36 fc0f 6037 0959 fb36
00000030: e61d 6537 dc20 a037 b898 4637 f80e 8eb7
00000040: 5d15 a6b6 272e 1ab7 b646 0636 d838 b1b7
00000050: 8a06 2238 a73e 2ab7 1213 44b6 e4e6 7fb7
00000060: ca0d 55b6 08d0 7ab6 fa28 3fb8 f307 19b7
00000070: 00b2 17b7 b3a5 0938 ed12 a1b7 9ff0 f8b6
00000080: 3685 3936 96fd 0537 e33f 98b7 dcee 8cb6
00000090: e496 d5b7 1bcd 9eb6 f89e 85b7 807a 3ab7
000000a0: 3c4e bbb6 63a0 3a36 8f90 7080 d28f d137
000000b0: 3e51 50b8 8d1d f4ad 5db1 91b7 9813 ab37
000000c0: efb1 2337 ae75 b837 cadf fb36 870f d2b6
000000d0: 2d85 75b8 30f6 93b2 2683 07b8 bfba 2b38
000000e0: 3b66 f100 daf0 ac8d 0897 1936 0a19 d7b6
000000f0: fecc 06b6 6c63 c0b7 535b 4bb7 568f 9336
00000100: 8625 db37 2d53 29a8 d493 dbb5 c2a9 8136
00000110: 8e2f bc37 00e1 1738 bf46 0d00 3d6a 4836
00000120: 9327 0cb7 88a4 d137 9ac2 41b7 e071 10b7
00000130: f511 adb6 ff08 e0b5 3e51 5eb7 6cd8 5180
00000140: 8c55 17b6 25ae 1e38 6bb7 0a37 53db 8337
00000150: f54e afb6 a812 d434 1e51 0137 0a6c b280
00000160: 3a02 8c34 f5e9 21b8 f60b 9fb7 22a3 ba32
00000170: 44a3 ed35 1075 ecb0 62b0 94b7 348f d2b6
00000180: dfc1 d336 c156 8eb6 941a fdb6 1c7a 9d80
00000190: bf27 2cb7 6e2a f8b6 f74b 6235 90bc 50b7
000001a0: 7e42 47b6 3a50 68b5 660e 3c37 801f 13b7
000001b0: 506b 9137 2c0d 84b7 6e03 e835 2b83 8737
000001c0: 1254 beb6 d27f 6e37 0370 6935 e122 5ab6
000001d0: 748f 7280 2b38 99b7 bfb1 30b7 3e5a c3b7
000001e0: 8637 85b8 a3bf 3836 3026 6b38 70f9 94b7
000001f0: a70a eab6 fe38 8d36 2653 4836 8dc3 1cb9
00000200: 9abf 5337 2253 2b2b 5ea9 4e34 020f 5f38
00000210: f345 deb5 61cf 5db6 cef6 9637 4a1c 16b7
00000220: b0ea beb6 739f 70b7 15ec 9237 fde7 2ab6
00000230: 1704 04b8 8798 ca36 42c6 1d37 d7fd d737
00000240: 8697 5636 c8cb f935 1932 9937 77d3 1135
00000250: 6cd1 aeb6 f272 3eb7 d931 f637 de3c c9b6
00000260: 9712 9737 69c2 f135 4d32 6537 3415 3500
00000270: a257 12b6 f816 9fb7 840a 02b8 eeed 22b7
00000280: 286a c436 10a1 aeb6 e699 8b37 d576 8037
00000290: 8869 8337 1c18 5e37 cd38 2f38 6a91 87b6
000002a0: 1af1 8038 7d84 b3b5 f54e 9636 cbc1 8eb7
000002b0: a45c 35b7 6f42 0138 31b3 b737 8484 4d37
000002c0: 277d 2e37 d094 3fb7 12ba 7837 f491 1337
000002d0: 9a8c acb6 2af4 47b6 0285 0b38 299a d8b7
000002e0: 945e b7b7 2f75 0336 88b5 8e36 9c92 fbb7
000002f0: 1b3e 3436 f1d9 1100 04e3 fdb6 bff7 9837
00000300: a868 f233 bfdc 0a36 69d5 5cae 8464 4436
00000310: fa9b 9bb3 a70b 41b8 dfc0 3a34 5698 2138
00000320: 85b4 2fb6 edeb 0436 1219 8637 aae5 eb36
00000330: f046 2e38 a7d0 a1b7 611d d635 9adb d2b7
00000340: 27e5 95b6 5726 9d37 c087 1037 3a10 52b7
00000350: 32d7 3eb5 46a5 fdb5 0701 4d36 32d8 1137
00000360: a0f5 9837 aadb 6d37 1ba3 8b34 5ffd 92b6
00000370: 0644 9cb7 c028 ec02 cb5d aab5 bb1d 4237
00000380: 0721 80b7 7a4c 1837 6355 8bb6 23db 4e37
00000390: 4151 4836 5561 22b7 d1ca fb37 16e5 35b7
000003a0: 530d 1f36 ca27 f0b7 0e48 d937 f5e1 1eb7
000003b0: a2bb a0b6 bb34 4eb7 7986 c336 76fc 39b7
000003c0: fc1f 31b8 3781 5436 b985 e635 9261 06b6
000003d0: c531 83b8 a8d5 c3b7 94bb 50b7 3589 00b7
000003e0: a9f1 c1b7 2ae7 0935 2e69 6ab7 1c95 f036
000003f0: 2ecb 27b6 dc94 a536 b1c5 6136 42e7 2637
9.845694e-06 -3.8842118e-06 1.3516902e-05 3.6070437e-06 7.4334633e-07 1.2573459e-05 1.8856299e-05 -1.0650817e-05
-5.528327e-06 4.693457e-06 1.3355162e-05 7.490748e-06 1.3656425e-05 1.9088788e-05 1.1837277e-05 -1.693469e-05
-4.9496725e-06 -9.189861e-06 2.0008715e-06 -2.1126514e-05 3.86299e-05 -1.0147377e-05 -2.9217376e-06 -1.5252943e-05
-3.17475e-06 -3.7373993e-06 -4.557611e-05 -9.1213615e-06 -9.041745e-06 3.2817665e-05 -1.9201509e-05 -7.418988e-06
2.7644687e-06 7.98646e-06 -1.8149562e-05 -4.200132e-06 -2.5461843e-05 -4.7326444e-06 -1.5928861e-05 -1.1114986e-05
-5.582142e-06 2.7809517e-06 -1.0337433e-38 2.4981713e-05 -4.9666727e-05 -2.7752712e-11 -1.7367938e-05 2.0393913e-05
9.7569855e-06 2.1989308e-05 7.5064354e-06 -6.2602953e-06 -5.853658e-05 -1.7225005e-08 -3.230865e-05 4.0943498e-05
2.2169028e-38 -1.0658301e-30 2.2886688e-06 -6.4104142e-06 -2.0086877e-06 -2.293448e-05 -1.2121006e-05 4.397628e-06
2.6124308e-05 -9.3994204e-15 -1.6359795e-06 3.864262e-06 2.243349e-05 3.6210753e-05 1.21924e-39 2.9864161e-06
-8.353864e-06 2.4991357e-05 -1.1549006e-05 -8.609582e-06 -5.1578922e-06 -1.6691919e-06 -1.3251147e-05 -7.516313e-39
-2.2550548e-06 3.783232e-05 8.268146e-06 1.5718548e-05 -5.224598e-06 3.950165e-07 7.707886e-06 -1.6385475e-38
2.6078652e-07 -3.860328e-05 -1.8959847e-05 2.1727434e-08 1.7705393e-06 -1.7204531e-09 -1.772511e-05 -6.2751587e-06
6.3108596e-06 -4.2420293e-06 -7.5430817e-06 -1.4461977e-38 -1.0261253e-05 -7.3959154e-06 8.4302104e-07 -1.2441669e-05
-2.9692014e-06 -8.654348e-07 1.1209026e-05 -8.769217e-06 1.7335318e-05 -1.574176e-05 1.7286345e-06 1.6154334e-05
-5.6722283e-06 1.4215666e-05 8.696226e-07 -3.2504834e-06 -1.0520708e-38 -1.8265177e-05 -1.0531802e-05 -2.3287834e-05
-6.352276e-05 2.7529684e-06 5.606393e-05 -1.7759128e-05 -6.9749835e-06 4.208762e-06 2.9850721e-06 -0.00014950168
1.2621191e-05 6.0866774e-13 1.924686e-07 5.318132e-05 -1.6560647e-06 -3.3052277e-06 1.799632e-05 -8.947283e-06
-5.6897625e-06 -1.4342239e-05 1.751449e-05 -2.546701e-06 -3.147506e-05 6.0378256e-06 9.40409e-06 2.57482e-05
3.1976683e-06 1.8611254e-06 1.826235e-05 5.432443e-07 -5.209984e-06 -1.1351645e-05 2.9348697e-05 -5.9973527e-06
1.800926e-05 1.801248e-06 1.3661175e-05 4.874888e-39 -2.1806704e-06 -1.8964973e-05 -3.100421e-05 -9.71135e-06
5.8536134e-06 -5.2043542e-06 1.6641756e-05 1.5314125e-05 1.5665559e-05 1.32378445e-05 4.177615e-05 -4.040242e-06
6.148424e-05 -1.3375098e-06 4.47954e-06 -1.7017961e-05 -1.081001e-05 3.0817868e-05 2.1898742e-05 1.2249806e-05
1.04003475e-05 -1.1419135e-05 1.4825275e-05 8.795865e-06 -5.1423676e-06 -2.9795433e-06 3.3264056e-05 -2.5820993e-05
-2.1859341e-05 1.958873e-06 4.253063e-06 -2.9989802e-05 2.685824e-06 1.639386e-39 -7.5664157e-06 1.8235178e-05
1.128804e-07 2.0692094e-06 -5.0211755e-11 2.9264784e-06 -7.246122e-08 -4.6025638e-05 1.7392766e-07 3.8527265e-05
-2.6182108e-06 1.980686e-06 1.5985719e-05 7.030282e-06 4.15509e-05 -1.9289857e-05 1.5952793e-06 -2.513621e-05
-4.467223e-06 1.8733712e-05 8.614676e-06 -1.2520753e-05 -7.1093666e-07 -1.889807e-06 3.0547978e-06 8.69301e-06
1.823419e-05 1.4177445e-05 2.6009442e-07 -4.3806353e-06 -1.8628325e-05 3.4700473e-37 -1.2693284e-06 1.1570223e-05
-1.5274169e-05 9.077712e-06 -4.152463e-06 1.2329579e-05 2.9849618e-06 -9.678614e-06 3.0015975e-05 -1.0841779e-05
2.3700602e-06 -2.8628758e-05 2.5901969e-05 -9.470144e-06 -4.790215e-06 -1.2290834e-05 5.8271075e-06 -1.108564e-05
-4.2229876e-05 3.1665675e-06 1.7175254e-06 -2.002435e-06 -6.255837e-05 -2.3345303e-05 -1.244144e-05 -7.6613405e-06
-2.3119925e-05 5.1372865e-07 -1.3971976e-05 7.169916e-06 -2.5003205e-06 4.9347127e-06 3.3642684e-06 9.948215e-06

bn1.running_var f4 [400]
00000000: 69e5 843d 3e1b c23c 0a40 943d 8b6a 043d
00000010: 857d 5c3d e5a0 c43d 1604 813d 7cc7 1d3d
00000020: 35f7 5d3d 5efc d13c 3700 993c b7e4 943c
00000030: d7d0 153d de03 653d 7378 8d3d 444b 973d
00000040: c612 053d 93d5 633d 2d90 e33c c4c8 1f3d
00000050: af03 dc3d 77bc 533d 4a5a e43c 8645 303d
00000060: 9fde 4e3d bd4a 203d 7f76 e83c d77a c93c
00000070: d25c 6b3d d8ee 143d f2c7 553d 682e 1e3d
00000080: 780e d73c 68ef 2e3d 27d8 2c3d 60d2 8d3d
00000090: 1804 e93d 02ea 293d 44b2 a93d 644c 883d
000000a0: 3913 043d 380f 573d 0400 0000 4359 2a3d
000000b0: 583b ce3c dc69 a52d cba7 053d 89e6 143d
000000c0: 7ffc 103d 7f2c 523d 90a7 483d 6b00 283d
000000d0: 4f7a 393e 8e61 ec33 ae76 9c3d 2e8b 603d
000000e0: 0400 0000 0400 0000 fad5 183d bfd0 e63c
000000f0: 1582 8f3c 1f8c 473d 56d4 153d 639c d23c
00000100: 3f52 853d 22fe 2521 847b eb3c c101 6f3d
00000110: 8b84 f43c b41c 603f 0400 0000 6125 593c
00000120: abf5 fc3c dd27 1d3e 195e 033d a3c9 783d
00000130: a0cb e13c db11 dd3c 88a5 d13c 0400 0000
00000140: eefe 863b 7db6 9e3d 2e20 2a3d 76e0 003d
00000150: 1630 ff3c 32da 3b3d 3147 863d 0400 0000
00000160: dca8 513c 3ae6 8b3d bbef 373d 4a65 6239
00000170: faf6 393d c41d 5b32 c8e1 453d 12a9 393d
00000180: b5b6 843d 2276 723c f699 293d 0400 0000
00000190: fc31 0f3d 65c4 f23c 964d 133c 3afc fb3c
000001a0: 717b 033c e233 813c c7f0 003d ca9e e53c
000001b0: d758 b73d df44 323d 9cd7 4b3d b677 313d
000001c0: fa6b dc3c 9ff8 1b3d 92ae 663d a0d8 0d3d
000001d0: 0400 0000 690f 1d3d 48eb f03c dacb 1a3d
000001e0: a385 2a3d 2a3f 473d 5304 1e3c e081 6c3d
000001f0: f6e7 b53d f438 7d3d 09c6 233d 96e4 9a3d
00000200: c3ba bf3c 9e60 b825 c883 9d38 d6c4 ce3c
00000210: 9009 843c 91bb 313c f194 1d3d 1707 db3c
00000220: e9c9 013d 91fc 003d c087 2c3d 9125 d93c
00000230: 8a77 893d 5b79 173d a686 9a3c f9c0 663d
00000240: dce7 733d d033 4b3d f547 ee3d e2b4 4c3d
00000250: 00b2 3c3d 7bad b63d 5e7a 2e3d 8eea 533d
00000260: 740b b93c c03f 003b bb22 743d 0400 0000
00000270: a9f7 9d3b e018 733d ea94 373d 6da3 7f3c
00000280: 37ab 313d 0c78 543d 4a4b d63c a521 023d
00000290: 6f7a 353d 8ad4 463d dfe2 9a3d ffcd a03c
000002a0: 98cb 2f3d 1bf5 933d e651 753d ff08 b73d
000002b0: f56d e23d 5e72 653d d24b 3d3d 7078 863d
000002c0: a40c 3f3d ab21 103d 130b a03c 4a38 9c3d
000002d0: 2f3b 193d 4cd3 bf3c c134 d63c 8e21 963d
000002e0: 8082 843d 0ea8 543d e9c3 113d f718 393d
000002f0: df92 973d 0400 0000 b918 133d eb50 253d
00000300: b3d3 b23c 90c0 1c3d 4074 8b2d f751 4a3d
00000310: 77d4 4a3d 0dce 613d fc69 0d3d c97f 793d
00000320: 2a0e 183d b9dd f13c 8f37 ed3c 0e02 543d
00000330: a306 0a3d 1dae cf3c 2c57 873b 8877 f43c
00000340: 4efa 7c3d 1435 8c3d 9f05 6b3d dc9a 203d
00000350: 9e69 873c 58a2 ce3c e89a 233d d3bb 823d
00000360: 2dbb 103d 56ed e43c a756 653c d4fc c83c
00000370: 0e12 6b3d 0400 0000 d034 943c 3d93 db3c
00000380: 700a 383d 82c0 013d 6436 353d 6c70 1e3d
00000390: e877 3d3d d45c 4c3d 8005 0a3d 2fcc 333d
000003a0: de70 5e3d d11b 8f3d ad6a 2d3d c786 9c3c
000003b0: f552 303d 253e c23c 5ae1 3b3e e8cf 9d3d
000003c0: 2dd6 663d 1f96 163d 112a 043d c329 323d
000003d0: 620a e23c ac04 0f3d c5c4 3f3d 23eb c83c
000003e0: dd6c d83c 7625 3a3d 3e40 e33d 8b5b 483d
000003f0: 61af 303d 09e5 303d 901f 803d dee6 983c
0.06489069 0.02369463 0.07238777 0.03232817 0.053830642 0.09601001 0.062996075 0.03852032
0.054190833 0.025633033 0.01867686 0.018175466 0.03657612 0.05591189 0.069077395 0.07387403
0.032488607 0.055623602 0.02777871 0.039009824 0.1074289 0.051693406 0.027875084 0.043035053
0.050505277 0.039133776 0.028376816 0.024594707 0.057461567 0.03636059 0.052192636 0.038618475
0.026252016 0.042708784 0.042198326 0.069248915 0.11377734 0.041482933 0.082859546 0.06655195
0.032244895 0.052504748 6e-45 0.041589033 0.025174782 1.880534e-11 0.032630723 0.036352668
0.03539705 0.051311966 0.048987925 0.041016024 0.18113063 1.10073515e-07 0.07639824 0.054820232
6e-45 6e-45 0.03731344 0.02817571 0.017518083 0.048717614 0.036579452 0.025709337
0.06509828 5.6240516e-19 0.02874542 0.058351282 0.029848358 0.875438 6e-45 0.013253541
0.030878862 0.15347238 0.03207216 0.06073917 0.027562916 0.026986053 0.025591627 6e-45
0.0041197455 0.077496506 0.041534595 0.031464063 0.031150859 0.045862384 0.065565474 6e-45
0.012796607 0.068310216 0.04490636 0.00021590773 0.04540155 1.2754246e-08 0.048311025 0.045327254
0.06480161 0.014798673 0.041406594 6e-45 0.03495978 0.029634664 0.008990666 0.03075992
0.008025036 0.01577181 0.031479623 0.028029818 0.08952492 0.04352271 0.049766168 0.043327056
0.026906956 0.0380789 0.056318827 0.034630418 6e-45 0.038344774 0.029409066 0.037792064
0.041631352 0.048644222 0.009644586 0.057741046 0.08882134 0.061821893 0.039983783 0.075631306
0.023404485 3.1984382e-16 7.5108896e-05 0.025240343 0.016117841 0.010847942 0.03847212 0.02673678
0.031686697 0.031490866 0.04212165 0.02650717 0.067122534 0.036980968 0.018863034 0.056336377
0.05954729 0.04960996 0.116348185 0.04997719 0.04606819 0.089198075 0.042597167 0.05173736
0.02258847 0.0019569248 0.059603434 6e-45 0.004820783 0.059349895 0.04481975 0.015602929
0.043376174 0.051872298 0.026158947 0.031770367 0.044306215 0.048542537 0.075628035 0.019629477
0.04291877 0.072244845 0.059892558 0.08937263 0.11056129 0.056017272 0.046214886 0.065659404
0.046642914 0.03518836 0.01953653 0.07627924 0.037409957 0.023416184 0.026148202 0.07330619
0.064702034 0.051918082 0.035587225 0.045189824 0.0740106 6e-45 0.03591225 0.040360373
0.021829462 0.03826958 1.5854096e-11 0.049394574 0.04951903 0.055128146 0.034524903 0.06091288
0.037122883 0.02952467 0.028957156 0.051759772 0.033697736 0.025351578 0.0041302647 0.029842153
0.061762147 0.06846061 0.057378408 0.039210185 0.016529854 0.025223896 0.039942652 0.06383481
0.035334755 0.027945202 0.01399771 0.02453462 0.057390265 6e-45 0.01809159 0.026803607
0.04493183 0.03167773 0.044241324 0.038681433 0.04625693 0.049893215 0.03369665 0.043895897
0.054306857 0.069877274 0.042338062 0.019107236 0.043047864 0.023711273 0.18347684 0.077056706
0.056356598 0.03676426 0.03226668 0.04349686 0.027592842 0.034916565 0.046818513 0.024526184
0.026419098 0.04544588 0.110962376 0.048915427 0.043136004 0.043187175 0.0625602 0.018664774

fc2.weight f4 [300, 402]
00000000: 3c3c 20b1 f257 1d00 e9db f2b7 1f0e 1cb5
00000010: 32fa abb4 56ce 3805 e137 23b2 6bad c70d
00000020: 88d2 28b0 3c4d 610a 9b36 0a80 0705 1fae
00000030: 1e4d 8f28 bbc0 6e0a 95c7 2bac 48d0 0b95
00000040: 8c1e 519e 3ab5 14ae f86a 690e 2e5e 2ab0
00000050: d279 3780 65fa 9732 c6ca 0400 86c2 08a5
00000060: 8cf8 0622 3770 0c80 08bc 2f0e fb95 3100
00000070: 3119 14a6 3b57 1da7 3618 50b7 5a4d 27b5
00000080: 0c30 6da7 3d43 b7a1 c523 1695 c58d 93b9
00000090: b1d2 429e 0a9f 10a9 a688 fc9a 1f2f 2d00
000000a0: efbc 1480 b463 e0b4 1a3b 4b80 b1b2 8f9f
000000b0: a435 c1a5 ddb5 4880 5de0 daae 1002 1b00
000000c0: 0eab 15a3 ec23 07ad fb5c 02b6 91cb 34a8
000000d0: 3de4 b5b7 78e5 2f80 041b 72b9 2c8b 84b4
000000e0: 0e71 3e00 560d 1400 4167 2e80 eac4 fdae
000000f0: 214c 4caa 3d0d 1b9c 7e73 8a06 ccda d7b0
00000100: 7882 06b5 9e42 2600 6877 3fac 7afe c2b3
00000110: 3fe3 8e9f 4e0a e8b8 a4a7 1d00 4282 3700
00000120: 6249 0380 c82c 3180 1645 8603 9a70 26a7
00000130: c530 2300 0aa3 0880 ae27 459b 6c81 2580
00000140: 3639 1680 b5c8 93b1 ed23 d4b3 0589 3900
00000150: 8d83 0180 dc69 a4ae b304 4ab5 0459 3880
00000160: 2a93 4480 96d1 fcb9 8281 0433 d025 1180
00000170: c17e 5bab 9d6c 1180 8528 51b7 1873 2900
00000180: ad2f 82b7 63ba 2580 4c60 63b3 8bdf 0f80
00000190: 1c3c 0bb0 3c14 beb0 d7c1 988c b108 1100
000001a0: aa46 3900 1b05 3b90 ca52 112c d288 2380
000001b0: f976 1b80 3108 90a6 21dc de39 5067 9534
000001c0: b11e 4600 006b c528 7dfc beb7 e37d 0ab1
000001d0: e62a 0800 0b72 19b9 90a8 0000 f9a4 3600
000001e0: cb12 5aaf 790d 1900 c4be 0fbb 1533 f4a6
000001f0: 6a71 b3b3 470f 79b1 6700 0e80 d48d 17a3
00000200: e662 d9b4 7577 0a80 b14a 0f00 9574 d1b7
00000210: 82f1 3400 935d 1480 3afb 95b3 c6bd 44a3
00000220: f18d 32b8 84e9 a681 58d9 62aa 0ab9 cfb7
00000230: 3701 89b4 b286 94b7 267c 2c80 4124 fbb5
00000240: d260 55ac 90b4 f7b7 a1c6 da35 6f2a 1180
00000250: 3cce 8795 e555 0600 4af1 6c37 4b8c 5ead
00000260: f21d 8e23 0adc 3500 96f6 3c80 e03a 1000
00000270: f86f 2f80 20ba 66af 7524 209c c8cd 0b00
00000280: 34ba 3dae cd0a 3ea5 7c54 a4b1 47df 38b5
00000290: c0f0 9bb5 c4bd 6fb8 30c2 8e92 afa2 63b2
000002a0: 95f3 1ab4 0627 cfb7 51e4 e236 fecb c7a2
000002b0: 9af9 19a9 c5d8 e6a4 e007 0b00 8799 0999
000002c0: 323a a6b3 1dd2 1580 eb8a 8933 7273 17a7
000002d0: 2330 1780 36d7 8b32 f183 1cb9 43a0 d1ab
000002e0: 7491 3ea0 810a 1100 b793 d18a 1fc1 52b4
000002f0: 9c7e 258a 8082 2580 fa74 db89 ce4c 79b6
00000300: e5cf 0d06 22c1 3d00 d5d4 2700 2699 1c00
00000310: 4415 2280 5036 9db7 4dc0 0f00 699f a0a9
00000320: a9b1 e8a2 1163 90a2 47e8 bc94 8466 2ab6
00000330: 1e70 0cb4 4da0 4a80 3657 0980 28e9 69ad
00000340: 167f 83a6 15a7 bbb9 1151 22b3 110a 0a04
00000350: 0cba 1e00 fab2 65b9 9cb6 bb32 6a0e af9f
00000360: dfff bd9c c9bd f0a2 073e 2a80 66f6 0c00
00000370: b619 a2ae 0013 2a80 07d7 0980 c41a 1b80
00000380: 0907 f3a7 11e3 8da1 251d ecb0 c04c 4835
00000390: 2215 0db4 4810 0f35 031f de9a 7210 e70c
000003a0: d95e 678c 2b89 66a6 371f 4b35 4117 0900
000003b0: 71d8 25ac 19dd d69d 999e 2000 e10a 3680
000003c0: 0a6d 86b6 bd87 1987 cb35 98ae a438 eeb0
000003d0: 186a aeb3 7e4f 6294 e0d6 8a0e fafc b0b1
000003e0: 78b5 3700 37c4 b09c e206 5138 200d 4b00
000003f0: a7f2 1fb7 6a49 cbb4 5326 21b5 f3b7 5718
-2.3317304e-09 2.694778e-39 -2.8951052e-05 -5.813508e-07 -3.2033273e-07 8.689536e-36 -9.500554e-09 1.2306071e-30
-6.1417227e-10 1.0847882e-32 -9.37944e-40 -3.615688e-11 1.5909634e-14 1.1495532e-32 -2.4411352e-12 -2.823513e-26
-1.1070685e-20 -3.3812265e-11 2.877097e-30 -6.1979477e-10 -5.094653e-39 1.769258e-08 4.40083e-40 -1.1862027e-16
1.8291966e-18 -1.142281e-39 2.166095e-30 4.553742e-39 -5.1381956e-16 -2.1835415e-15 -1.2403403e-05 -6.232491e-07
-3.2916403e-15 -1.241836e-18 -3.0320476e-26 -0.0002814365 -1.03138444e-20 -3.2112368e-14 -1.04445525e-22 4.149501e-39
-1.904487e-39 -4.1795795e-07 -6.908864e-39 -6.0858476e-20 -3.3516511e-16 -6.677396e-39 -9.953347e-11 2.480298e-39
-8.1135284e-18 -7.681838e-12 -1.9425631e-06 -1.0036149e-14 -2.1683163e-05 -4.398586e-39 -0.00023088983 -2.4688177e-07
5.734357e-39 1.841494e-39 -4.261473e-39 -1.1540087e-10 -1.8145252e-13 -5.130231e-22 5.207953e-35 -1.5705495e-09
-5.0108747e-07 3.513647e-39 -2.7209016e-12 -9.080118e-08 -6.0515286e-20 -0.000110645415 2.723368e-39 5.09768e-39
-3.01831e-40 -4.516004e-39 7.8916735e-37 -2.309817e-15 3.231738e-39 -7.93171e-40 -1.6308279e-22 -3.444341e-39
-2.040904e-39 -4.301081e-09 -9.878554e-08 5.283777e-39 -1.39027e-40 -7.476661e-11 -7.52577e-07 -5.17472e-39
-6.297606e-39 -0.0004822134 3.085143e-08 -1.574768e-39 -7.7980336e-13 -1.600167e-39 -1.2466805e-05 3.806543e-39
-1.5519408e-05 -3.464776e-39 -5.2940138e-08 -1.457725e-39 -5.0653326e-10 -1.383007e-09 -2.3535971e-31 1.564321e-39
5.259973e-39 -3.688318e-29 2.0651696e-12 -3.263324e-39 -2.522238e-39 -9.994228e-16 0.00042507148 2.7828582e-07
6.439495e-39 2.1917797e-14 -2.2767339e-05 -2.0153201e-09 7.50073e-40 -0.00014633701 6.0469e-41 5.018298e-39
-1.9833661e-10 2.30072e-39 -0.0021933774 -1.6944747e-15 -8.355967e-08 -3.6242953e-09 -1.285841e-39 -8.21576e-18
-4.0491358e-07 -9.61208e-40 1.404327e-39 -2.496903e-05 4.862082e-39 -1.870278e-39 -6.984051e-08 -1.0665367e-17
-4.25707e-05 -6.131385e-38 -2.0148239e-13 -2.4762488e-05 -2.5519122e-07 -1.7705697e-05 -4.085298e-39 -1.8711509e-06
-3.0322867e-12 -2.9528775e-05 1.6300074e-06 -1.576426e-39 -5.4851446e-26 5.81826e-40 1.4122876e-05 -1.265039e-11
1.5408353e-17 4.946216e-39 -5.598588e-39 1.490488e-39 -4.356435e-39 -2.0984503e-10 -5.298668e-22 1.084011e-39
-4.3139006e-11 -1.6483532e-16 -4.782633e-09 -6.887025e-07 -1.1618467e-06 -5.7158773e-05 -9.009331e-28 -1.3250129e-08
-1.4430982e-07 -2.4694495e-05 6.7619044e-06 -5.4155043e-18 -3.418932e-14 -1.0011382e-16 1.013015e-39 -7.1137386e-24
-7.740563e-08 -2.00392e-39 6.404829e-08 -2.1018043e-15 -2.129485e-39 1.6279596e-08 -0.00014926471 -1.4894825e-12
-1.6141752e-19 1.564972e-39 -2.0181532e-32 -1.9628031e-07 -7.9682736e-33 -3.444728e-39 -5.2832336e-33 -3.7148598e-06
2.667189e-35 5.671248e-39 3.657934e-39 2.626333e-39 -3.130036e-39 -1.874115e-05 1.446517e-39 -7.1330806e-14
-6.307183e-18 -3.913617e-18 -1.9074766e-26 -2.5391646e-06 -1.3079304e-07 -6.853332e-39 -8.57805e-40 -1.3296288e-11
-9.124398e-16 -0.00035791905 -3.7792294e-08 1.6226444e-36 2.821806e-39 -0.00021905816 2.1852706e-08 -7.413923e-20
-1.2573112e-21 -6.5253073e-18 -3.879342e-39 1.190417e-39 -7.371474e-11 -3.863907e-39 -9.03657e-40 -2.48916e-39
-6.7453676e-15 -9.614636e-19 -1.7179543e-09 7.461749e-07 -1.3139336e-07 5.3295344e-07 -9.186715e-23 3.5601083e-31
-1.7824135e-31 -7.9983177e-16 7.5668817e-07 8.34861e-40 -2.356806e-12 -5.6873938e-21 2.99563e-39 -4.96302e-39
-4.006205e-06 -1.1550331e-34 -6.921715e-11 -1.7332877e-09 -8.121805e-08 -1.1425761e-26 3.4226544e-30 -5.1510343e-09
5.116051e-39 -1.1697423e-21 4.9835893e-05 6.89237e-39 -9.533635e-06 -3.7865112e-07 -6.0032943e-07 2.788097e-24
