checkpoint_actor.pth (torch_old, 537958 bytes, 18 tensors)

bn0.weight f4 [24]
0	0x3f0dfc5f	0.5546321
1	0x3ede2e73	0.43394813
2	0x3e6e9bf3	0.23301677
3	0x3cc0e898	0.02354841
4	0x3f113893	0.5672695
5	0x3f50fcc7	0.8163571
6	0x3f1c77bc	0.611202
7	0x3f56ab15	0.838548
8	0x3e6b1c84	0.22960097
9	0x3e63a31e	0.22230193
10	0x3ec3dd05	0.38254562
11	0x3e80f832	0.25189358
12	0x3b79fb3e	0.0038144137
13	0xb81a6438	-3.6809797e-05
14	0x3ead91ef	0.339004
15	0x3eb9c8b3	0.36285934
16	0x3f362ac9	0.71159035
17	0x3ed65410	0.4186101
18	0x3e93ba3a	0.28853017
19	0x3d3a8724	0.045539036
20	0x3f48baa8	0.78409815
21	0x3f779f42	0.96727383
22	0x3f019213	0.50613517
23	0x3f439133	0.7639343

bn0.bias f4 [24]
0	0x39347d6f	0.00017212865
1	0xb86dda3b	-5.6708446e-05
2	0xba37983e	-0.0007003582
3	0xba3370bb	-0.0006845106
4	0xba85d8ac	-0.0010211668
5	0xb96ab599	-0.0002238363
6	0xb9c8ee39	-0.00038324462
7	0xba38da99	-0.00070516166
8	0x3993855d	0.00028137388
9	0x3992d021	0.00028002358
10	0xb768d5fa	-1.3878098e-05
11	0x392a3f47	0.00016236036
12	0xb92b2083	-0.00016319942
13	0x3a3b5ce6	0.0007147327
14	0xba1e56d3	-0.00060401595
15	0xb9611a30	-0.00021467428
16	0xba0d8ea7	-0.000539998
17	0x39b2fa60	0.0003413735
18	0x38298130	4.0413055e-05
19	0x38c8ed07	9.580893e-05
20	0xb98fa91b	-0.0002740108
21	0xb993a460	-0.00028160494
22	0xba7bfbc0	-0.0009612404
23	0x38167162	3.5868383e-05

bn0.running_mean f4 [24]
0	0xc101d540	-8.114563
1	0xbe37b00f	-0.17938255
2	0x3fd4d509	1.6627513
3	0x3e55f81a	0.20895424
4	0x3c01018c	0.007873904
5	0x407cd476	3.9504676
6	0x3fd4d509	1.6627513
7	0x3e55f81a	0.20895424
8	0xc104a9d9	-8.291467
9	0xbe373457	-0.1789106
10	0x3fb8ccf1	1.4437543
11	0x3e4fea32	0.20304182
12	0xba8f747e	-0.0010944752
13	0x4080b330	4.0218735
14	0x3fb8ccf1	1.4437543
15	0x3e4fea32	0.20304182
16	0xc1071c83	-8.444461
17	0xbe373006	-0.17889413
18	0x3fd9ffdc	1.7031207
19	0x3e4b573c	0.19857496
20	0x3be06332	0.0068477625
21	0x40821428	4.0649605
22	0x3fd9ffdc	1.7031207
23	0x3e4b573c	0.19857496

bn0.running_var f4 [24]
0	0x41457215	12.340352
1	0x3f43c6e1	0.7647534
2	0x43a70a71	334.08157
3	0x418709ab	16.87972
4	0x41dc59ec	27.543907
5	0x40239f31	2.5565913
6	0x43a70a71	334.08157
7	0x418709ab	16.87972
8	0x41313f24	11.077915
9	0x3f481aba	0.7816578
10	0x43a86140	336.75977
11	0x41880572	17.002659
12	0x41e50d6d	28.631556
13	0x40100b6d	2.2506974
14	0x43a86140	336.75977
15	0x41880572	17.002659
16	0x411e7d52	9.905596
17	0x3f4d11c5	0.8010524
18	0x43ac1115	344.13345
19	0x4189e991	17.239046
20	0x41eeda51	29.8566
21	0x40018587	2.0237749
22	0x43ac1115	344.13345
23	0x4189e991	17.239046

fc1.weight f4 [400, 24]
0	0xbd4de5c5	-0.050267953
1	0x3ebc0936	0.36725777
2	0xbdee4bd3	-0.11635556
3	0x3e0dc5ba	0.13844958
4	0xbce72088	-0.028213754
5	0x3e963482	0.29336935
6	0xbda1bdd6	-0.078975365
7	0x3da6523b	0.08121153
8	0xbcf16885	-0.029468784
9	0x3eb7b5de	0.3588094
10	0xbd197d4c	-0.037473008
11	0xbc4eeb50	-0.012629345
12	0xbd862321	-0.06549669
13	0x3e677903	0.22604756
14	0xbd314739	-0.043280814
15	0xbbf3fccb	-0.0074459068
16	0x3d9f4aca	0.07777937
17	0x3e998153	0.2998148
18	0x3d5432be	0.051806204
19	0xba905e6b	-0.0011014467
20	0xbcca9b34	-0.02473221
21	0x3eaf9696	0.34294575
22	0x3cd15eb6	0.025557857
23	0xbd90f9d4	-0.07078901
24	0xbdae26bd	-0.085034825
25	0xbde13140	-0.10995722
26	0x3d3b1d38	0.045682162
27	0xbe340158	-0.17578638
28	0x3db0da93	0.0863544
29	0x3dfac6b8	0.12244934
30	0x3d74f334	0.05980225
31	0xbe1ef039	-0.15521325
32	0xbe37b8c6	-0.17941579
33	0xbe3de9ff	-0.18546294
34	0x3c7f7d71	0.015593872
35	0xbdb19da9	-0.086726494
36	0x3c92b05e	0.017906364
37	0x3dabbeb0	0.0838598
38	0x3db0b905	0.0862904
39	0xbd5d7f17	-0.05407628
40	0xbeb39fb1	-0.35082772
41	0xbe21e6a9	-0.15810646
42	0xbea9a1c8	-0.33131242
43	0x3dc36591	0.09540857
44	0x3cb46456	0.0220205
45	0x3d94be7d	0.07262895
46	0xbe99d7dc	-0.300475
47	0x3dbacea4	0.09121445
48	0x3c5008ae	0.012697382
49	0xbe492622	-0.19643453
50	0xbdf7f4b2	-0.12107219
51	0x3d91bc3d	0.07115982
52	0x3b49e697	0.0030807608
53	0xbd9a5d19	-0.07537288
54	0xbe357e7c	-0.17724031
55	0x3e2e0b0f	0.16996406
56	0xbdb87468	-0.09006578
57	0xbe3891f1	-0.18024422
58	0x3c9a08db	0.01880305
59	0x3d330857	0.043709125
60	0xbd03a60e	-0.032140784
61	0xbd04bb9a	-0.032405473
62	0xbbf1ab34	-0.0073751453
63	0x3d8bd437	0.06827586
64	0x3d3a2b93	0.045451712
65	0xbd7803e0	-0.06055057
66	0x3e8bc0b9	0.27295473
67	0x3e856cb3	0.26059493
68	0x3e2045ca	0.15651622
69	0x3d888055	0.066651024
70	0x3e8fa814	0.2805792
71	0x3e826798	0.2546966
72	0xbe88cb22	-0.26717478
73	0xbb1e9842	-0.002419964
74	0xbe127966	-0.14304122
75	0xbcf9bca5	-0.03048546
76	0xbe258185	-0.16162689
77	0x3e9800c0	0.29688072
78	0xbe2cdc0a	-0.16880813
79	0xbd0efa2e	-0.03490656
80	0xbdd72194	-0.105044514
81	0xbd8c2c26	-0.06844358
82	0x3dd49658	0.10380238
83	0xbd1e5cf5	-0.03866287
84	0x3db92fe0	0.090423346
85	0x3de53271	0.111912616
86	0x3cfc080b	0.030765554
87	0x3ce491a8	0.027901486
88	0x3cd93cd7	0.026518269
89	0xbe39997a	-0.18124953
90	0x3e9264c6	0.2859251
91	0x3c4b3a7a	0.012404079
92	0xbe29c53c	-0.16579145
93	0xbdc6596f	-0.09685027
94	0x3e7e7b2b	0.24851672
95	0x3c52d5af	0.012868329
96	0x3d471301	0.048602108
97	0xbe2505b4	-0.16115457
98	0xbdc6ce78	-0.097073495
99	0xbcaadf8a	-0.020858545
100	0x3d0aa916	0.03385266
101	0x3e261308	0.16218197
102	0xbd807ef4	-0.062742144
103	0x3d5a76e9	0.053336058
104	0x3c49882c	0.012300532
105	0xbe36dcb6	-0.17857632
106	0x3d3cb2db	0.046069007
107	0x3e0349d1	0.12821127
108	0xbd2ac63c	-0.041692957
109	0xbce43f04	-0.02786208
110	0x3da85a44	0.08220342
111	0x3da3e8e1	0.080034025
112	0x3e6e9257	0.23298012
113	0xbe4a9821	-0.19784595
114	0x3e364327	0.17799054
115	0xbe20333b	-0.15644543
116	0x3c712eb6	0.014720609
117	0xbe86e158	-0.263438
118	0x3e197a88	0.14988148
119	0xbe51177b	-0.20419113
120	0x3cb598fc	0.022167675
121	0x3e03e2d9	0.12879504
122	0xbe0977e2	-0.13424638
123	0x3dba3a34	0.090931326
124	0xbd8c47bb	-0.06849619
125	0x3cb648d0	0.022251517
126	0xbe33af77	-0.17547403
127	0x3d6893b4	0.056781486
128	0xbe2c75b3	-0.16841774
129	0x3de59fb7	0.11212104
130	0xbe5e55b2	-0.21712378
131	0x3d93601b	0.07196065
132	0x3b5155de	0.003194205
133	0x3d4c8b93	0.049937796
134	0xbe945dad	-0.2897772
135	0x3e09f24e	0.13471338
136	0xbe6d99ee	-0.23203251
137	0x3db1c3da	0.08679934
138	0xbd1e1718	-0.038596243
139	0x3da2f09e	0.0795605
140	0xbec8ee8f	-0.39244506
141	0x3d8121e2	0.06305291
142	0xba4c8501	-0.00078018015
143	0x3db96a29	0.090534516
144	0x3dc1c637	0.094616346
145	0xbcf35967	-0.029705716
146	0xbdb8f214	-0.09030548
147	0x3d849bfd	0.06475065
148	0xbe3c78e2	-0.18405488
149	0x3e113d9d	0.1418366
150	0xbe0059b5	-0.1253422
151	0x3cabb346	0.020959508
152	0xba4f85e4	-0.00079163746
153	0xbdae6fb5	-0.085174
154	0xbe4cc67e	-0.19997594
155	0xbdaa75f7	-0.08323281
156	0xbd293d7b	-0.041318398
157	0x3dc86637	0.09785121
158	0xbe337fea	-0.17529264
159	0xbde8d78c	-0.11369237
160	0xbe150350	-0.14552045
161	0xbe174525	-0.1477247
162	0xbeb3d329	-0.3512204
163	0xbd893355	-0.06699244
164	0x3d831dde	0.06402181
165	0x3d8d657f	0.069041245
166	0xbec630c4	-0.3870908
167	0xbe0cb00d	-0.13739033
168	0x3e01f7bd	0.12692161
169	0x3e840c05	0.2579042
170	0xbe4f2843	-0.20230202
171	0xbdc15524	-0.094400674
172	0x3e310afd	0.17289348
173	0x3d9f65bd	0.07783077
174	0xbe50f23f	-0.2040491
175	0xbe11ddfa	-0.14244834
176	0x3de34598	0.11097258
177	0x3e8a72e7	0.2704079
178	0xbca82ee7	-0.020530177
179	0x3ca16d62	0.019705478
180	0xbdfff383	-0.12497618
181	0xbc9b5faa	-0.018966515
182	0x3c9f7b16	0.019467872
183	0xbc5fd46d	-0.013661486
184	0xbe0dee4c	-0.13860434
185	0x3ea9d3d3	0.33169422
186	0xbe6611bb	-0.22467701
187	0x3cedf66e	0.02904817
188	0x3d25bce7	0.040463354
189	0x3c8279bc	0.015927188
190	0xbe6272fe	-0.22114179
191	0x3d29e198	0.04147491
192	0xbb6fb487	-0.0036576109
193	0x3d5a25ec	0.05325882
194	0xbe8f144c	-0.27945173
195	0xbd9b8d32	-0.0759529
196	0xbe507849	-0.20358385
197	0x3d0e2018	0.034698576
198	0xbe556560	-0.20839453
199	0xbd8db882	-0.06919958
200	0xbdae2fe9	-0.08505232
201	0x3d4d98e3	0.050194632
202	0xbe234c80	-0.15947151
203	0x3dc19bc4	0.09453538
204	0xbd2d51a0	-0.04231417
205	0x3d92b124	0.07162693
206	0xbe236307	-0.15955745
207	0x3d498f31	0.049208824
208	0xbdc92b01	-0.098226555
209	0xbdc88a87	-0.09792047
210	0x3dfd2518	0.12360591
211	0xbe4fd561	-0.20296241
212	0xbd21d820	-0.039512753
213	0x3d354e56	0.04426416
214	0x3df6a516	0.120432064
215	0xbea7bdf2	-0.32762104
216	0xbe1ddf09	-0.15417112
217	0xbd62437b	-0.055240136
218	0xbddfafb2	-0.10922183
219	0x3d56450c	0.052311942
220	0x3dc5b015	0.096527256
221	0x3d03b893	0.032158446
222	0xbe2ab76b	-0.16671531
223	0xbb879949	-0.004138146
224	0xbe37d5a8	-0.17952597
225	0xbd7b236f	-0.06131309
226	0xbd2e5037	-0.042556968
227	0xbe4b1b36	-0.19834599
228	0x3c683531	0.014172838
229	0x3d748583	0.05969764
230	0xbd9f012c	-0.077638954
231	0xbe2c9f25	-0.16857584
232	0x3b3e8919	0.0029073416
233	0xbdeb044f	-0.11475431
234	0x3e873c8b	0.26413378
235	0xbcae983b	-0.021312824
236	0x3ec590d4	0.38587058
237	0x3a7a58bf	0.00095499674
238	0x3e8c023e	0.2734546
239	0xbd801e66	-0.06255798
240	0xbe25ae65	-0.16179807
241	0x3ea5c65f	0.32377908
242	0x3daf83fe	0.085700974
243	0x3d547212	0.0518666
244	0xbe13ad55	-0.1442159
245	0xbd0dafab	-0.03459136
246	0x3dc0e517	0.094186954
247	0x3d5fe1a9	0.054658566
248	0xbe064889	-0.13113607
249	0x3ea06317	0.313256
250	0x3cd1e24b	0.0256206
251	0xbdaf0533	-0.085459135
252	0xbcaf5f3f	-0.021407722
253	0x3b0c3973	0.0021396547
254	0x3d19569c	0.037436113
255	0xbdc82225	-0.097721376

fc1.bias f4 [400]
0	0xbe4a9d0a	-0.19786468
1	0xbe4647ca	-0.19363323
2	0xbd8ec2e2	-0.06970765
3	0x3e070584	0.13185698
4	0x3d267d8b	0.04064707
5	0xbe193826	-0.14962825
6	0x3e3073d3	0.17231683
7	0x3e2b4ec4	0.16729265
8	0x3dae2ddc	0.08504841
9	0x3e4c9bf7	0.19981371
10	0x3e0b9f3b	0.1363496
11	0x3cedb4dd	0.029016906
12	0x3e1077e0	0.14108229
13	0xbdee0836	-0.1162266
14	0xbcd79c02	-0.026319508
15	0xbdda70a1	-0.106660135
16	0xbd1118db	-0.035424095
17	0xbe25ce7f	-0.16192053
18	0x3e0e2b49	0.138837
19	0xbda4efd0	-0.08053553
20	0x3d8099eb	0.062793575
21	0x3e3fc7e8	0.18728602
22	0x3d8cf674	0.06882945
23	0x3c3065de	0.0107664745
24	0x3e4f86c8	0.20266259
25	0xbe4ed2c2	-0.20197585
26	0x3e421237	0.18952261
27	0xbe3536a3	-0.17696624
28	0x3e4f588b	0.2024862
29	0x3c895be1	0.016767444
30	0xbe00354c	-0.12520331
31	0xbd8eca33	-0.0697216
32	0xbdd6744d	-0.10471401
33	0x3dfadbf5	0.12248985
34	0x3e339d63	0.17540507
35	0x3dfc525b	0.123203956
36	0x3e193148	0.14960206
37	0x3e4a1f89	0.19738592
38	0xbe386b04	-0.18009573
39	0x3dafd0ff	0.08584785
40	0x3c883fb2	0.016631935
41	0x3dfba3a1	0.12287069
42	0x3d6bf260	0.057604194
43	0x3bb38da8	0.005479533
44	0x3e0b1435	0.13581927
45	0xbda912f6	-0.0825557
46	0xbe1f4b8d	-0.15556164
47	0xbe15ea5a	-0.1464018
48	0x3e15e77e	0.14639089
49	0x3b8e7fae	0.0043487167
50	0xbe29c6be	-0.1657972
51	0x3d908bb1	0.07057894
52	0xbbd23c05	-0.0064158463
53	0xbdf7a255	-0.12091509
54	0x3e374c31	0.17900158
55	0x3df352e1	0.11881042
56	0x3e30fd90	0.17284226
57	0xbd0936c8	-0.03349951
58	0xbe017677	-0.12642847
59	0xbe30c20c	-0.17261523
60	0x3cc35630	0.023844808
61	0xbe124fde	-0.1428828
62	0x3df9bde8	0.12194425
63	0xbe3dc71e	-0.18532988
64	0xbe15afe4	-0.14617878
65	0x3cf2b9e6	0.029629659
66	0x3d4cbf17	0.049986925
67	0xbcdb7881	-0.02679086
68	0xbd2e4106	-0.04254248
69	0xbdd4b319	-0.10385723
70	0xbd71c43b	-0.05902503
71	0x3cd99ddd	0.026564533
72	0xbe3b4d15	-0.18291123
73	0xbd0eb724	-0.034842625
74	0xbd046986	-0.032327197
75	0x3b8d71c5	0.004316541
76	0x3e1b0c80	0.15141487
77	0xbe2f3b90	-0.17112565
78	0x3d8efe99	0.069821544
79	0x3d9afb3c	0.075674504
80	0x3d681690	0.056662142
81	0xbd6fbb39	-0.05852816
82	0x3df1be98	0.11803931
83	0xbe13e9d0	-0.14444661
84	0xbda88f25	-0.08230428
85	0xbbb6a0de	-0.005573376
86	0xbcf47fe5	-0.029846141
87	0xbe4edc58	-0.20201242
88	0x3de0a141	0.10968257
89	0x3df6d20c	0.12051782
90	0xbe39b61e	-0.18135878
91	0x39ac26da	0.00032835343
92	0xbe303a7d	-0.17209812
93	0xbd169698	-0.03676471
94	0x3cc518f1	0.024059745
95	0x3e35cf4b	0.17754857
96	0x3e12e55f	0.1434531
97	0x3dd7abfe	0.10530852
98	0x3cdaccbc	0.026708953
99	0xbe411600	-0.18856049
100	0xbd85ac9c	-0.06527063
101	0x3e3a09c1	0.18167783
102	0x3c8b94f7	0.017038805
103	0xbd3d5838	-0.04622671
104	0xbd9012c5	-0.0703483
105	0x3dc9e099	0.09857292
106	0x3e03ac15	0.12858613
107	0xbc90d163	-0.017677968
108	0x3d74a146	0.059724115
109	0x3e1a0662	0.15041497
110	0x3e0ba6a5	0.13637789
111	0x3dd8e77d	0.10591028
112	0x3e0e5b0d	0.1390192
113	0x3d984b88	0.074362814
114	0x3d63f2c9	0.05565146
115	0xbe4db2e2	-0.2008777
116	0xbd28c8df	-0.04120719
117	0xbd7ae432	-0.06125278
118	0x3d3a8c98	0.045544237
119	0xbd6fbf8d	-0.058532286
120	0xbe3f1e25	-0.18663843
121	0x3e2f01e8	0.17090571
122	0xbdb54305	-0.088506736
123	0xbe4687fc	-0.19387811
124	0xbdae46d8	-0.08509606
125	0x3d2e9efa	0.04263208
126	0xbd8e0703	-0.06934931
127	0xbe50a009	-0.20373549
128	0x3d8b4e99	0.06802101
129	0x3da12794	0.07868877
130	0x3e42b3a8	0.19013846
131	0xbe4e8c1a	-0.20170632
132	0xbd1def65	-0.038558383
133	0xbd9f75c3	-0.07786133
134	0xbd90b8a4	-0.070664674
135	0x3b8a5db0	0.004222594
136	0x3e43837a	0.19093123
137	0xbca7ad25	-0.020468304
138	0x3e32f6b3	0.17476921
139	0x3ce76920	0.02824837
140	0xbdd901b1	-0.10596026
141	0xbca1995f	-0.019726453
142	0x3dd70db9	0.10500664
143	0x3df740d4	0.12072912
144	0xbd8924f8	-0.06696504
145	0xbccf89d3	-0.025334274
146	0xbe2e77ec	-0.17037934
147	0xbe0519df	-0.1299815
148	0xbd5d9ffc	-0.05410765
149	0x3df90d4d	0.1216074
150	0x3c4df704	0.0125711
151	0x3ddd151d	0.10795043
152	0xbe2e3f4e	-0.17016336
153	0x3d2b718f	0.041856345
154	0xbe28fc4c	-0.16502494
155	0xbd768d2f	-0.060193237
156	0x3e2aa765	0.16665418
157	0x3c07b325	0.0082824575
158	0xbe1c73dd	-0.15278573
159	0xbe4e6502	-0.20155719
160	0xbd7ccbc6	-0.06171777
161	0xbda4bd38	-0.08043903
162	0xbe422cff	-0.18962477
163	0x3de4c8bd	0.111711
164	0x3b6a867b	0.0035785723
165	0xbd0048aa	-0.031319298
166	0x3e210634	0.15725023
167	0xbe461583	-0.19344144
168	0x3d85241d	0.06501029
169	0x3e1aea32	0.15128401
170	0x3d3209e7	0.043466475
171	0x3de021ad	0.10943923
172	0xbd942494	-0.07233539
173	0xbe454e4e	-0.19268152
174	0x3e435b3a	0.19077769
175	0xbe4f7581	-0.20259668
176	0xbdaace68	-0.0834015
177	0x3e3d4393	0.18482809
178	0xbdc88265	-0.09790496
179	0xbd25de75	-0.040495355
180	0xbdd655b4	-0.10465565
181	0x3d2b9314	0.04188831
182	0xbd96948a	-0.0735255
183	0x3d9beba7	0.076133065
184	0x3e4bd3ce	0.19905016
185	0xbe1cd1f8	-0.15314472
186	0x3e091506	0.13386926
187	0xbd52d8e1	-0.051476363
188	0xbe512dcc	-0.20427626
189	0x3db5c241	0.088749416
190	0xbe0bdf39	-0.13659371
191	0x3df68abe	0.12038182
192	0xbd11dcae	-0.035610847
193	0xbdfc32b8	-0.12314361
194	0xbe363858	-0.17794931
195	0x3d34154b	0.04396562
196	0xbe493f38	-0.19653022
197	0x3de54185	0.111941375
198	0x3d9fc7bc	0.07801768
199	0xbe311423	-0.17292838
200	0x3dda7da8	0.10668498
201	0xbe24ba8c	-0.16086787
202	0x3cabe1f4	0.020981766
203	0xbd70ee64	-0.058821097
204	0x3e0bd94b	0.1365711
205	0xbe30c592	-0.17262867
206	0xbd8362ec	-0.06415352
207	0xbd9413cb	-0.07230338
208	0xbc9221ad	-0.017838323
209	0x3caa330c	0.020776294
210	0xbe02e987	-0.12784396
211	0x3ce68fd5	0.028144756
212	0x3c185cae	0.00929944
213	0xbdd428ca	-0.103593424
214	0x3d46a8fa	0.048500992
215	0x3e195e15	0.14977296
216	0x3dd7f958	0.105456054
217	0x3d87332c	0.06601557
218	0xbdb81fb1	-0.0899042
219	0xbe177908	-0.14792264
220	0x3df9f749	0.12205369
221	0x3d00f2a2	0.031481393
222	0x3c829945	0.015942225
223	0x3dd486f9	0.103773065
224	0xbdc0df35	-0.09417573
225	0xbe501002	-0.20318606
226	0xbe0fb72f	-0.14034723
227	0xbe425564	-0.18977886
228	0x3e025482	0.1272755
229	0x3dfd75b5	0.123759665
230	0xbdc103ef	-0.094245784
231	0xbd3aeaaa	-0.04563395
232	0xbd2eed9e	-0.04270708
233	0xbdaa3d7a	-0.08312507
234	0xbe0f1bc9	-0.13975443
235	0x3d83557f	0.064127915
236	0xbd942255	-0.07233111
237	0xbe07f94e	-0.13278696
238	0x3d1ce920	0.038308263
239	0xbda81313	-0.08206763
240	0x3d25b508	0.040455848
241	0xbbf97485	-0.007612767
242	0x3d87f5ad	0.06638656
243	0x3e098e1c	0.13433117
244	0xbe380ed1	-0.17974402
245	0xbdc68727	-0.09693747
246	0x3e4d3d56	0.20042929
247	0x3c169bcf	0.009192421
248	0xbd0aa6c7	-0.033850458
249	0x3e2554af	0.16145585
250	0x3e36415a	0.17798367
251	0x3d93afb9	0.07211251
252	0xbe2495bb	-0.16072743
253	0x3e474fe4	0.1946407
254	0xbe3d8e58	-0.18511331
255	0xbe4f98a3	-0.2027307

bn1.weight f4 [400]
0	0x3e67682b	0.2259833
1	0x3ee39624	0.44450486
2	0x3f6170c6	0.88062704
3	0x3eebff40	0.46093178
4	0x3f1b34b9	0.60627323
5	0x3edb85a8	0.4287541
6	0x3ede2ba9	0.43392685
7	0x3e5335bc	0.20625967
8	0x3eaaa310	0.33327532
9	0x3eef3512	0.46720177
10	0x3ef01f5c	0.46898925
11	0x3e9a8ac9	0.3018401
12	0x3ebe8c79	0.37216547
13	0x3ef34a8e	0.47517818
14	0x3ead2b9c	0.33822334
15	0x3f01a91e	0.5064868
16	0x3edbe051	0.42944577
17	0x3efa1ba5	0.48849216
18	0x3dff7bf4	0.12474814
19	0x3f581074	0.84400105
20	0x3e8f34c4	0.27969944
21	0x3f1a7cfd	0.60346967
22	0x3e66963b	0.22518246
23	0x3f0068ef	0.50160116
24	0x3eaed863	0.34149465
25	0x3db12caa	0.08651097
26	0x3f180251	0.59378535
27	0x3e8727b0	0.26397467
28	0x3edd63ea	0.4324029
29	0x3f216b0f	0.63053983
30	0x3ee73531	0.4515777
31	0x3ec6d0e7	0.38831255
32	0x3e862b5a	0.2620495
33	0x3ed503c3	0.41604432
34	0x3dfd3401	0.123634346
35	0x3f25eb17	0.64811844
36	0x3eaf9f77	0.3430135
37	0x3f255d05	0.6459506
38	0x3f3b5adb	0.7318551
39	0x3d9cd75a	0.076582626
40	0x3e6a34f4	0.22871763
41	0x3f17f153	0.59352607
42	0x3b4737ad	0.0030398176
43	0x3ef564f9	0.479286
44	0x3ee32c46	0.44369715
45	0x3cb3170c	0.021861576
46	0x3ec087f8	0.37603736
47	0x3e91b9db	0.2846211
48	0x3f069c39	0.52582127
49	0x3f0c1943	0.54726046
50	0x3f2a89a7	0.6661629
51	0xbc32a33e	-0.010903178
52	0x3f01b6f2	0.5066978
53	0x3e943116	0.289437
54	0x3f341d61	0.7035733
55	0x3f34ca94	0.7062161
56	0x3e8b0dc7	0.2715895
57	0x3e868b5d	0.262782
58	0x3e2aaa32	0.16666487
59	0x3ea72506	0.32645434
60	0x3f40f105	0.75367767
61	0x3e6d14c5	0.23152454
62	0x3eee8808	0.4658816
63	0x3edd679f	0.4324312
64	0x3f58e906	0.84730566
65	0x3e59e067	0.21277009
66	0x3eaa0610	0.3320775
67	0x3edc4d61	0.43027785
68	0x3e6f6e7c	0.2338199
69	0x3f3e3d35	0.74312145
70	0x3e22d7b9	0.15902604
71	0x3ec9a55b	0.3938397
72	0x3f01b348	0.50664186
73	0x3ebfaeef	0.3743815
74	0x3e532fca	0.20623699
75	0x3f0e7f98	0.5566344
76	0x3e9145f8	0.28373694
77	0x3e9b3375	0.30312696
78	0x3ea226a3	0.31670102
79	0x3cda04ea	0.026613671
80	0xba80bcfb	-0.0009821946
81	0x3f155981	0.583397
82	0x3f416765	0.7554839
83	0x3e69a543	0.22816949
84	0x3ed9029b	0.423848
85	0x3f1285c3	0.57235354
86	0x3f31b430	0.6941557
87	0x3e74d33f	0.23908709
88	0x3eacd681	0.33757403
89	0x3f4b260d	0.79354936
90	0x3f3276be	0.69712436
91	0x3e77a6fd	0.24184795
92	0x3eeaf5bd	0.45890608
93	0x3e8da15d	0.27662173
94	0x3e08bc75	0.1335314
95	0x3e4fe05c	0.2030043
96	0x3f1fe757	0.6246237
97	0x3eb85ea7	0.36009714
98	0x3f026235	0.509311
99	0x3e530690	0.20607972
100	0x3ecb68a3	0.3972827
101	0x3f27c1e0	0.65530205
102	0x3ec30f75	0.3809773
103	0x3e8ca99b	0.2747315
104	0x3e8c3425	0.27383533
105	0x3e89c4d8	0.26907992
106	0x3ef04706	0.46929187
107	0x3e46636c	0.19373864
108	0x3e524cff	0.20537184
109	0x3f688a08	0.9083562
110	0x3f33b8ca	0.7020384
111	0x3e7f8118	0.24951589
112	0x3ecc7559	0.3993328
113	0x3ee283bb	0.44241127
114	0x3f307869	0.6893373
115	0x3ea4cb56	0.32186383
116	0x3ea31936	0.31855172
117	0x3f19b1a7	0.600367
118	0x3e901d6e	0.28147453
119	0x3ea33d17	0.31882545
120	0x3f43ffee	0.7656239
121	0x3f0917e0	0.53552055
122	0x3e91febb	0.28514656
123	0x3f45e849	0.77307564
124	0x3f2361f5	0.63821346
125	0x3ed6f035	0.41980138
126	0x3e8e964a	0.27849036
127	0x3efea6ca	0.49736625
128	0x3f083aaa	0.53214514
129	0x3b4735b4	0.0030397
130	0x3e722104	0.23645407
131	0x3e8e5a87	0.27803442
132	0x3e91669c	0.28398597
133	0x3e088c70	0.13334823
134	0x3f196d9a	0.59932864
135	0x3ee544dc	0.44779098
136	0x3f27fe9a	0.65622866
137	0x3f1ba487	0.60797924
138	0x3f405525	0.7512992
139	0x3f0c7a6a	0.5487429
140	0x3eface9b	0.48985752
141	0x3f5599fa	0.83438075
142	0x3ecefaba	0.40425664
143	0x3f4c9277	0.7991099
144	0x3ecdbdcf	0.40183875
145	0x3f3fbe30	0.7489958
146	0x3ea01c68	0.31271672
147	0x3e759f06	0.23986444
148	0x3f157c38	0.5839267
149	0x3e896609	0.2683566
150	0x3edd3287	0.43202612
151	0x3f6f9e0a	0.93600523
152	0x3f1e9131	0.61940295
153	0x3e2e0f54	0.16998035
154	0x3e86c864	0.2632476
155	0x3e4ceaa9	0.20011391
156	0x3e5c5dfc	0.21520227
157	0x3f1a6c98	0.6032195
158	0x3f078edb	0.52952355
159	0x3f02bc09	0.5106817
160	0x3effa299	0.4992874
161	0x3f2d6895	0.67737705
162	0x3ecfcbec	0.40585268
163	0x3f2f3905	0.6844638
164	0x3f009bca	0.50237715
165	0x3f0df2f9	0.5544887
166	0x3f09ff92	0.53905594
167	0x3e8176e1	0.2528601
168	0x3f55c155	0.83498126
169	0x3f578b8f	0.84197325
170	0x3f57e67f	0.84336084
171	0x3ec98f43	0.39367113
172	0x3e7044aa	0.23463693
173	0x3f19bda2	0.6005498
174	0x3eac6b1a	0.33675462
175	0x3f2218ca	0.63319075
176	0x3e0a7509	0.13521208
177	0x3eca2140	0.39478493
178	0x3ea6defd	0.32592002
179	0x3f1557ab	0.58336896
180	0x3e810dd0	0.2520585
181	0x3ee83374	0.45351756
182	0x3f192bae	0.59832275
183	0x3ecab559	0.39591482
184	0x3f281909	0.656632
185	0x3e915b32	0.2838989
186	0x3e94b0c8	0.29041123
187	0x3efe6d63	0.4969283
188	0x3f1e8b08	0.61930895
189	0x3e6c2f04	0.2306481
190	0x3e657e80	0.22411537
191	0x3f2402b3	0.6406662
192	0x3e66b59c	0.22530216
193	0x3ea2fb2c	0.31832254
194	0x3ecd05ed	0.40043584
195	0x3e3d11db	0.18463843
196	0x3e6df9a8	0.23239768
197	0x3f3dc659	0.7413078
198	0xbbae19c4	-0.00531313
199	0x3f500624	0.8125937
200	0x3e5541e1	0.20825912
201	0x3ece196c	0.4025377
202	0x3ed470d4	0.4149233
203	0x3f45a181	0.7719956
204	0x3e59959f	0.21248482
205	0x3e552288	0.20813954
206	0x3e28c9ef	0.16483282
207	0x3e922ad1	0.2854829
208	0x3f26c136	0.65138566
209	0x3f3f6d2d	0.74775964
210	0x3f25e5f8	0.6480403
211	0x3ed73c23	0.42038068
212	0x3eaa6fa8	0.33288312
213	0x3f210b4f	0.6290788
214	0x3f379d82	0.7172471
215	0x3f668ae5	0.90055686
216	0x3f33b32e	0.7019528
217	0x3f02f8e9	0.51161057
218	0xb9a5aaa4	-0.0003159839
219	0x3ea03ec4	0.31297886
220	0x3efb1475	0.49039045
221	0xbb9ace46	-0.0047242967
222	0x3e731fa6	0.23742542
223	0x3e8cb5db	0.27482495
224	0x3ece6e65	0.403186
225	0x3f09990f	0.53749174
226	0x3f1e3b66	0.61809385
227	0x3f3be8c8	0.7340207
228	0x3ec494d8	0.3839481
229	0x3f00d335	0.50322276
230	0x3ec13682	0.377369
231	0x3e81ce8f	0.25352904
232	0x3ed15052	0.40881592
233	0x3e771c50	0.24131894
234	0x3f5f1a13	0.8714916
235	0x3ed113f5	0.40835539
236	0x3ef55b1a	0.47921067
237	0x3ede59ca	0.4342788
238	0x3eb6d491	0.3570905
239	0x3ea6dc46	0.3258993
240	0x3f0f4ada	0.5597359
241	0x3e8c9fb2	0.27465588
242	0x3eef0bbc	0.4668864
243	0x3ea98dcd	0.33115998
244	0x3f0a86d0	0.5411196
245	0x3eb0f523	0.34562024
246	0x3eb7a1a6	0.35865515
247	0x3ec58123	0.38575086
248	0x3ec85601	0.39128116
249	0x3ec2d96d	0.38056508
250	0x3f11c18f	0.5693597
251	0x3ec3f6b4	0.38274157
252	0x3f302503	0.68806475
253	0x3ee32cd5	0.44370142
254	0x3f007662	0.5018064
255	0x3efd9bd0	0.49532938

bn1.bias f4 [400]
0	0xbec5fd20	-0.38669682
1	0xbe33ce1f	-0.17559098
2	0xbedfbddf	-0.43699548
3	0xbeeb57ab	-0.45965323
4	0xbeb5985a	-0.35467798
5	0xbee9ecb6	-0.4568841
6	0xbeb5ec38	-0.35531783
7	0xbdb9b38a	-0.090674475
8	0xbe934c17	-0.2876899
9	0xbe3b1974	-0.18271428
10	0xbe01ca95	-0.12674935
11	0xbe30efbb	-0.1727895
12	0xbe921b80	-0.28536606
13	0xbea449d8	-0.32087588
14	0xbe9499c9	-0.2902358
15	0xbeab0a35	-0.33406225
16	0xbe668667	-0.22512208
17	0xbe3bc90c	-0.18338412
18	0xbe1030c5	-0.14081104
19	0xbf02dd82	-0.51119244
20	0xbeb935dd	-0.36173907
21	0xbee03806	-0.43792742
22	0xbd72413b	-0.05914424
23	0xbea74831	-0.32672265
24	0xbee7e580	-0.45292282
25	0xbea4c97f	-0.3218498
26	0xbed9bf81	-0.42528918
27	0xbe73391d	-0.23752256
28	0xbefb0578	-0.4902761
29	0xbef180ea	-0.47168666
30	0xbe8b9af5	-0.2726666
31	0xbebb223c	-0.36549556
32	0xbeb97a5d	-0.36226168
33	0xbe0310df	-0.12799405
34	0xbe840b5a	-0.2578991
35	0xbe715319	-0.23566855
36	0xbeb67dfd	-0.35642996
37	0xbcd3bc26	-0.025846552
38	0xbee010a4	-0.43762696
39	0xbe7ba797	-0.24575649
40	0xbee39a2f	-0.4445357
41	0xbeda79da	-0.4267109
42	0xbcbff0a3	-0.023430174
43	0xbe6f60ec	-0.23376817
44	0xbec1674b	-0.3777412
45	0xbd95767b	-0.07297989
46	0xbeda1508	-0.4259417
47	0xbe204476	-0.15651116
48	0xbe56d2c2	-0.20978835
49	0xbf12af2c	-0.5729854
50	0xbe9bb332	-0.30410153
51	0x3da3dda8	0.08001262
52	0xbee68678	-0.45024467
53	0xbe6f879b	-0.23391573
54	0xbec6be7f	-0.38817212
55	0xbed6031d	-0.4179925
56	0xbe6aaf46	-0.22918424
57	0xbe652a39	-0.22379388
58	0xbe521c96	-0.20518717
59	0xbebacf90	-0.36486483
60	0xbecd4e86	-0.4009897
61	0xbe9933a6	-0.29922217
62	0xbe612a38	-0.21988761
63	0xbe80994b	-0.25116953
64	0xbec5de8c	-0.38646352
65	0xbe5f9d4c	-0.21837348
66	0xbdb70b9c	-0.08937761
67	0xbea91a09	-0.33027676
68	0xbe652371	-0.22376801
69	0xbeee9d97	-0.46604607
70	0xbe28f7e3	-0.16500811
71	0xbed19c13	-0.40939388
72	0xbe4e84cc	-0.20167845
73	0xbe7591c3	-0.23981385
74	0xbec9d71a	-0.39421922
75	0xbefe6432	-0.49685818
76	0xbea56c12	-0.32309014
77	0xbecc8f37	-0.39953014
78	0xbe93392d	-0.2875456
79	0xbda424ea	-0.08014853
80	0xbc1230ef	-0.0089227995
81	0xbec9b6e8	-0.3939736
82	0xbf080c82	-0.53144085
83	0xbe854ec4	-0.26036656
84	0xbe703293	-0.23456793
85	0xbedcd0b2	-0.43127972
86	0xbec6ac10	-0.38803148
87	0xbe8df29c	-0.2772416
88	0xbe8f2b99	-0.2796295
89	0xbefaa765	-0.48955837
90	0xbe31e719	-0.17373313
91	0xbe7ead08	-0.24870694
92	0xbec442dc	-0.3833226
93	0xbeb6e00a	-0.35717803
94	0xbdfaa10b	-0.12237748
95	0xbe93e3e3	-0.288848
96	0xbeaad013	-0.33361873
97	0xbe98cd69	-0.29844216
98	0xbef362c3	-0.47536287
99	0xbe914db5	-0.28379598
100	0xbe9583c3	-0.2920209
101	0xbe4eb0e6	-0.20184669
102	0xbece7f8b	-0.40331683
103	0xbece2e26	-0.40269583
104	0xbeb8f019	-0.3612068
105	0xbe6ac516	-0.22926745
106	0xbea4b9de	-0.32173055
107	0xbe999dd3	-0.30003223
108	0xbec30e05	-0.38096634
109	0xbe91ac5c	-0.28451812
110	0xbe8e899b	-0.2783936
111	0xbe801388	-0.250149
112	0xbe70e94c	-0.23526496
113	0xbe249a2b	-0.16074435
114	0xbea2fb0d	-0.31832162
115	0xbdec48b0	-0.115373015
116	0xbe01b39c	-0.12666172
117	0xbf0415e3	-0.51595896
118	0xbe1feb1b	-0.1561703
119	0xbecaf4b0	-0.39639807
120	0xbee272dd	-0.4422826
121	0xbf06d567	-0.52669376
122	0xbe988e56	-0.29796094
123	0xbe8c8747	-0.27446958
124	0xbec4a9ab	-0.38410696
125	0xbebaf8d0	-0.36517954
126	0xbd670797	-0.056403723
127	0xbec756ba	-0.38933355
128	0xbeae413e	-0.3403415
129	0xbc347dbb	-0.011016305
130	0xbdfe1f3b	-0.124083005
131	0xbdb7d0e3	-0.08975389
132	0xbe182ded	-0.1486127
133	0xbed6a12c	-0.4191984
134	0xbf090c17	-0.5353407
135	0xbe9eb2dd	-0.30995837
136	0xbeec5512	-0.46158653
137	0xbeea0869	-0.4570954
138	0xbf033e9b	-0.51267403
139	0xbe92baa0	-0.2865801
140	0xbe7649d7	-0.24051605
141	0xbe5d3dcf	-0.2160561
142	0xbe3c6321	-0.1839719
143	0xbee0fef0	-0.43944502
144	0xbeb2e23f	-0.34938237
145	0xbe8cdc6b	-0.27511916
146	0xbe9c3d2e	-0.30515426
147	0xbe9da70c	-0.3079151
148	0xbeb8a9fc	-0.36067188
149	0xbe1dcf8b	-0.15411203
150	0xbeaf80d8	-0.34277987
151	0xbeb075d5	-0.344649
152	0xbe580a74	-0.21097738
153	0xbe9b8738	-0.303766
154	0xbe8c9edc	-0.2746495
155	0xbd930f4d	-0.07180653
156	0xbe7f4fb4	-0.24932748
157	0xbe91c826	-0.28473014
158	0xbe991947	-0.29902098
159	0xbe93cace	-0.28865665
160	0xbf2c7904	-0.67372155
161	0xbdbe52e8	-0.09293157
162	0xbda03a3b	-0.078236066
163	0xbef8bcee	-0.48581642
164	0xbe1e0211	-0.15430476
165	0xbe775130	-0.24152064
166	0xbef233d4	-0.47305167
167	0xbe6eebcb	-0.23332135
168	0xbeaf3527	-0.3422024
169	0xbeaac766	-0.33355254
170	0xbf02c3ab	-0.51079816
171	0xbe692ef6	-0.2277182
172	0xbe14ced8	-0.1453203
173	0xbef7d35d	-0.48403445
174	0xbe84cc35	-0.25937048
175	0xbe8e0c4a	-0.2774375
176	0xbddabf5b	-0.106810294
177	0xbe986c38	-0.29770064
178	0xbe801552	-0.25016266
179	0xbe9714d9	-0.29508093
180	0xbebdf98c	-0.37104452
181	0xbe2546c3	-0.16140275
182	0xbf076837	-0.52893394
183	0xbe5d2c4c	-0.21598929
184	0xbe44935c	-0.19196838
185	0xbeb43980	-0.3520012
186	0xbe12194a	-0.1426746
187	0xbf036445	-0.51324874
188	0xbf051cc8	-0.5199704
189	0xbe6cd595	-0.2312835
190	0xbe970a4b	-0.2950004
191	0xbeb9d896	-0.36298054
192	0xbe848faa	-0.25890857
193	0xbe970a97	-0.29500267
194	0xbe5fe855	-0.21865971
195	0xbe921e55	-0.28538767
196	0xbe7eed4a	-0.24895206
197	0xbe82f9e4	-0.25581276
198	0x3df6347f	0.120217316
199	0xbf018a9e	-0.5060214
200	0xbe3ba467	-0.18324433
201	0xbe76b6f4	-0.24093229
202	0x3ba49b55	0.0050234
203	0xbeb040ef	-0.3442454
204	0xbe847119	-0.25867537
205	0xbec3ef5e	-0.3826856
206	0xbe81063a	-0.25200063
207	0xbeb392fa	-0.35073072
208	0xbc8df591	-0.01732901
209	0xbec4d634	-0.38444674
210	0xbd6086da	-0.054816104
211	0xbeb67716	-0.3563773
212	0xbe958f2e	-0.292108
213	0xbec5492d	-0.3853239
214	0xbec00b47	-0.37508604
215	0xbed1003c	-0.4082049
216	0xbf2d8e9c	-0.6779573
217	0xbea5cef0	-0.32384443
218	0xbba47c02	-0.0050196657
219	0xbeaa5aae	-0.33272308
220	0xbef8f539	-0.4862459
221	0x3dba77eb	0.09104904
222	0xbe94f84d	-0.29095688
223	0xbeb29f86	-0.34887332
224	0xbed991fd	-0.42494193
225	0xbeae771c	-0.34075248
226	0xbeb69dc4	-0.3566724
227	0xbf146e75	-0.57981044
228	0xbe591722	-0.2120023
229	0xbefd178b	-0.49432024
230	0xbe94d79c	-0.29070747
231	0xbe8470fe	-0.25867456
232	0xbe7298a1	-0.23691036
233	0xbe2dedf0	-0.16985297
234	0xbf0349c5	-0.5128444
235	0xbdaf398b	-0.08555897
236	0xbdfbc3be	-0.12293194
237	0xbeb3bf7a	-0.35107023
238	0xbea76c7e	-0.3269996
239	0xbe624fad	-0.22100706
240	0xbee5210c	-0.44751775
241	0xbe426e42	-0.18987373
242	0xbe8e0291	-0.27736333
243	0xbed3bd1d	-0.4135522
244	0xbe9c1a78	-0.30488944
245	0xbe92d36c	-0.28676927
246	0xbe6e4163	-0.2326713
247	0xbe42da01	-0.19028474
248	0xbf009da9	-0.5024057
249	0xbefbbe71	-0.49168733
250	0xbcff71c8	-0.031182185
251	0xbeb53f75	-0.35399976
252	0xbeb7847e	-0.3584327
253	0xbf14823f	-0.5801124
254	0xbe8b84ae	-0.27249664
255	0xbe35d6f7	-0.17757784

bn1.running_mean f4 [400]
0	0xbe4a7b26	-0.1977354
1	0xbe45ec28	-0.19328368
2	0xbd8fa31a	-0.07013531
3	0x3e070b8f	0.13188003
4	0x3d250363	0.040286433
5	0xbe18a685	-0.14907272
6	0x3e313518	0.1730541
7	0x3e2bff10	0.16796517
8	0x3daf682d	0.08564792
9	0x3e4c301e	0.1994023
10	0x3e0c0ad5	0.13676007
11	0x3ce744f0	0.028231114
12	0x3e1028af	0.1407802
13	0xbdef5648	-0.11686379
14	0xbcd7c351	-0.026338251
15	0xbdd9df13	-0.10638251
16	0xbd134140	-0.0359509
17	0xbe25c433	-0.16188125
18	0x3e0d830a	0.13819519
19	0xbda4d143	-0.08047726
20	0x3d8143ee	0.06311785
21	0x3e3ffc47	0.1874858
22	0x3d8d4c2a	0.06899293
23	0x3c30dfbd	0.010795531
24	0x3e4f90a6	0.20270023
25	0xbe4f5dd3	-0.20250635
26	0x3e41f11e	0.18939635
27	0xbe35b335	-0.17744143
28	0x3e4f57ac	0.20248288
29	0x3c8fafa2	0.017539803
30	0xbe000763	-0.12502818
31	0xbd8dd70a	-0.06925781
32	0xbdd7a514	-0.10529533
33	0x3dfb6aa3	0.12276199
34	0x3e33e5c5	0.17568119
35	0x3dfbf17d	0.123019196
36	0x3e18eac0	0.149333
37	0x3e4a31b5	0.19745524
38	0xbe3820fe	-0.17981336
39	0x3daf2493	0.08551898
40	0x3c85a797	0.016315265
41	0x3dfadfcc	0.12249717
42	0x3d6c2219	0.057649706
43	0x3bb286a1	0.005448178
44	0x3e0ab677	0.13546167
45	0xbda903d1	-0.08252681
46	0xbe1e9bb5	-0.15489085
47	0xbe15e9bf	-0.14639948
48	0x3e15aa02	0.14615634
49	0x3b93db1a	0.004512203
50	0xbe298ccb	-0.16557615
51	0x3d907a51	0.0705458
52	0xbbdfa804	-0.006825449
53	0xbdf84996	-0.121234104
54	0x3e368377	0.17823587
55	0x3df25964	0.11833456
56	0x3e30be71	0.17260148
57	0xbd0692d8	-0.032854885
58	0xbe015e03	-0.12633519
59	0xbe3110ec	-0.17291611
60	0x3cc3d856	0.023906868
61	0xbe12699a	-0.14298096
62	0x3dfa9128	0.122347176
63	0xbe3e2071	-0.18567063
64	0xbe156a54	-0.14591342
65	0x3cf3f165	0.029778192
66	0x3d4e960a	0.050436057
67	0xbcde13a2	-0.027108971
68	0xbd2e8c38	-0.04261419
69	0xbdd4e6b6	-0.10395567
70	0xbd72bb17	-0.059260454
71	0x3cd7c2e6	0.026338052
72	0xbe3b4b56	-0.18290457
73	0xbd12dd98	-0.03585586
74	0xbd00ae4e	-0.03141623
75	0x3b87b0d5	0.004140953
76	0x3e1a8013	0.15087919
77	0xbe2f4a63	-0.1711822
78	0x3d8de2f2	0.06928052
79	0x3d9b1c30	0.07573736
80	0x3d683d2e	0.05669897
81	0xbd736072	-0.05941815
82	0x3df1b5a1	0.11802221
83	0xbe138906	-0.14407739
84	0xbda6f02e	-0.081512794
85	0xbbba54ab	-0.0056863627
86	0xbcf6fa46	-0.030148637
87	0xbe4ed450	-0.20198178
88	0x3de10384	0.10986999
89	0x3df68835	0.12037698
90	0xbe39e87a	-0.18155089
91	0x3a920848	0.0011141384
92	0xbe30da66	-0.17270812
93	0xbd15fb12	-0.036616392
94	0x3cc208ce	0.023685839
95	0x3e35defd	0.17760845
96	0x3e12fe3a	0.14354792
97	0x3dd709c4	0.104999095
98	0x3cd78d7a	0.026312578
99	0xbe40d1e0	-0.18830061
100	0xbd85aa38	-0.06526607
101	0x3e39a818	0.18130529
102	0x3c8f8dd5	0.017523685
103	0xbd3c6d20	-0.046002507
104	0xbd91342e	-0.070900306
105	0x3dca942a	0.09891541
106	0x3e045c44	0.12925822
107	0xbc8f51e3	-0.017495101
108	0x3d72ebec	0.059307024
109	0x3e197c43	0.14988808
110	0x3e0b5dd5	0.13610013
111	0x3dd9b1af	0.106295936
112	0x3e0e2b74	0.13883764
113	0x3d97ac76	0.07405941
114	0x3d613cfb	0.054989796
115	0xbe4e93b1	-0.20173527
116	0xbd2adefc	-0.04171656
117	0xbd7d4a24	-0.061838284
118	0x3d3dde83	0.04635478
119	0xbd72bf35	-0.05926438
120	0xbe3faf4a	-0.18719211
121	0x3e2efc83	0.17088513
122	0xbdb4bb2e	-0.08824764
123	0xbe465bf6	-0.19371018
124	0xbdae0c15	-0.08498398
125	0x3d2ba574	0.041905835
126	0xbd8e6db7	-0.0695452
127	0xbe5090f4	-0.20367795
128	0x3d8b69f8	0.06807321
129	0x3da11681	0.078656204
130	0x3e42b271	0.19013382
131	0xbe4eff7d	-0.20214649
132	0xbd2072ef	-0.03917211
133	0xbd9f7fb1	-0.07788027
134	0xbd9047e3	-0.07044961
135	0x3b713ced	0.0036809996
136	0x3e430a50	0.19046903
137	0xbca745a9	-0.020418959
138	0x3e3289d5	0.17435391
139	0x3ce7f910	0.028317004
140	0xbdd91444	-0.105995685
141	0xbca6b988	-0.02035214
142	0x3dd73cc9	0.10509641
143	0x3df8a3f9	0.1214065
144	0xbd89f477	-0.06736081
145	0xbcd13b14	-0.025540866
146	0xbe2f504e	-0.17120478
147	0xbe05c626	-0.13063869
148	0xbd5e4681	-0.054266457
149	0x3df989a1	0.12184454
150	0x3c463683	0.012097958
151	0x3dde0022	0.10839869
152	0xbe2eb189	-0.17059912
153	0x3d2dcde5	0.042432684
154	0xbe2943dc	-0.16529793
155	0xbd78d335	-0.060748298
156	0x3e2a81f9	0.16651143
157	0x3bf87a4c	0.0075829383
158	0xbe1cd3e0	-0.15315199
159	0xbe4de9c6	-0.20108709
160	0xbd7de2c0	-0.061983824
161	0xbda47668	-0.08030397
162	0xbe41605e	-0.18884417
163	0x3de5580a	0.11198433
164	0x3b558c12	0.003258471
165	0xbd027fcf	-0.03186017
166	0x3e212fda	0.1574091
167	0xbe463816	-0.19357333
168	0x3d864542	0.06556179
169	0x3e1a72d4	0.15082866
170	0x3d339fa3	0.043853413
171	0x3de0a003	0.1096802
172	0xbd94465a	-0.07239981
173	0xbe458a02	-0.19290927
174	0x3e438b83	0.19096188
175	0xbe4fc92c	-0.20291585
176	0xbdaacf4a	-0.083403185
177	0x3e3d7ea9	0.18505348
178	0xbdc97ffc	-0.09838864
179	0xbd27884a	-0.04090146
180	0xbdd67360	-0.10471225
181	0x3d296a94	0.041361406
182	0xbd963130	-0.073336005
183	0x3d9c20b2	0.07623424
184	0x3e4b4776	0.19851479
185	0xbe1c81b3	-0.15283851
186	0x3e08f94d	0.1337635
187	0xbd526df8	-0.051374406
188	0xbe5190df	-0.2046542
189	0x3db6b987	0.08922105
190	0xbe0bedff	-0.13665007
191	0x3df6ed75	0.1205701
192	0xbd1228a6	-0.035683297
193	0xbdfc95ea	-0.12333281
194	0xbe35aea4	-0.17742401
195	0x3d330bd6	0.04371246
196	0xbe4901f5	-0.19629653
197	0x3de680d2	0.11255039
198	0x3da03da6	0.078242585
199	0xbe3112f5	-0.17292388
200	0x3dda4d05	0.106592216
201	0xbe246d1a	-0.16057244
202	0x3caeaf03	0.021323686
203	0xbd71cee9	-0.059035216
204	0x3e0b1e6d	0.13585825
205	0xbe30dced	-0.17271776
206	0xbd84d2de	-0.06485532
207	0xbd945ffb	-0.07244869
208	0xbc9468c1	-0.018116357
209	0x3cabe73d	0.020984286
210	0xbe02bc97	-0.12767254
211	0x3ceb94d2	0.028757486
212	0x3c155863	0.009115311
213	0xbdd47e4c	-0.10375652
214	0x3d42e59b	0.04758225
215	0x3e1966f0	0.14980674
216	0x3dd85173	0.1056241
217	0x3d85d66e	0.0653504
218	0xbdb80ba7	-0.089865975
219	0xbe182eae	-0.14861557
220	0x3dfbdf79	0.122984834
221	0x3d00185b	0.031273227
222	0x3c81bea9	0.015837984
223	0x3dd48b6f	0.10378157
224	0xbdc041fb	-0.09387585
225	0xbe50d228	-0.20392668
226	0xbe0f7fee	-0.14013645
227	0xbe4267f3	-0.18984966
228	0x3e02ea02	0.1278458
229	0x3dfdea4b	0.123982035
230	0xbdc05760	-0.093916655
231	0xbd3b96f4	-0.045798257
232	0xbd2e08bf	-0.04248881
233	0xbda98697	-0.08277624
234	0xbe0eb080	-0.13934517
235	0x3d837a8e	0.0641986
236	0xbd93879a	-0.07203598
237	0xbe07c01d	-0.13256879
238	0x3d1af922	0.037835248
239	0xbda987aa	-0.08277829
240	0x3d26128d	0.040545035
241	0xbbf574c8	-0.007490728
242	0x3d870da7	0.06594401
243	0x3e09f628	0.13472807
244	0xbe3765b4	-0.1790989
245	0xbdc70a15	-0.0971872
246	0x3e4cac6a	0.19987646
247	0x3c15b928	0.009138383
248	0xbd0968e0	-0.033547282
249	0x3e259656	0.1617063
250	0x3e35e863	0.1776443
251	0x3d931c40	0.07183123
252	0xbe2448aa	-0.16043344
253	0x3e46df11	0.1942103
254	0xbe3e0cb1	-0.18559529
255	0xbe4f38c6	-0.20236501

bn1.running_var f4 [400]
0	0x3ecd474f	0.40093467
1	0x3e8ee603	0.2790986
2	0x3e3fee15	0.18743165
3	0x3e6f7a89	0.23386587
4	0x3e1753d6	0.14778075
5	0x3e9133c0	0.28359795
6	0x3e560bb4	0.20902902
7	0x3e3f936a	0.18708578
8	0x3e2881d5	0.16455777
9	0x3e818397	0.25295708
10	0x3e853557	0.26017258
11	0x3e055b7f	0.13023184
12	0x3e4ef237	0.20209585
13	0x3e8bed61	0.27329543
14	0x3eae1515	0.3400046
15	0x3e70dd18	0.2352184
16	0x3e6cc48d	0.23121853
17	0x3e39988d	0.181246
18	0x3df21ae8	0.11821538
19	0x3e5556c8	0.20833886
20	0x3e507424	0.20356804
21	0x3e56b96b	0.20969169
22	0x3e93fa1a	0.2890175
23	0x3e2e910c	0.17047518
24	0x3e60de3c	0.21959776
25	0x3e0a06aa	0.13479105
26	0x3e44c603	0.1921616
27	0x3df6b0e5	0.12045459
28	0x3e82293e	0.2542209
29	0x3e1d6d97	0.15373836
30	0x3e8e98ff	0.27851102
31	0x3df59b45	0.11992506
32	0x3e6466ef	0.22304891
33	0x3e6d1b52	0.23154953
34	0x3e5cc783	0.21560483
35	0x3e77d6f2	0.24203089
36	0x3e767010	0.24066186
37	0x3e3abd75	0.18236335
38	0x3e8c1406	0.27359027
39	0x3dfc58da	0.123216346
40	0x3ea56238	0.32301497
41	0x3e716cb1	0.23576619
42	0x3b85056d	0.0040594847
43	0x3e0ee9d8	0.13956392
44	0x3dbafcd2	0.09130253
45	0x3d864510	0.065561414
46	0x3ea1b50d	0.31583443
47	0x3eb8c333	0.36086425
48	0x3e3feafe	0.18741986
49	0x3eac5470	0.3365817
50	0x3e64cdfa	0.22344199
51	0x3daaec90	0.08345902
52	0x3e3ac450	0.1823895
53	0x3e848532	0.2588287
54	0x3e3ca69e	0.18422934
55	0x3e52c3b3	0.20582466
56	0x3e6bbd53	0.2302144
57	0x3e59e80c	0.21279925
58	0x3e3f1aae	0.18662521
59	0x3e6995c2	0.22811034
60	0x3e293c60	0.16526937
61	0x3e9489cc	0.2901138
62	0x3e0690bc	0.1314115
63	0x3e6fbbd3	0.23411493
64	0x3e0d3693	0.1379035
65	0x3e9400fe	0.28907007
66	0x3ea7bd27	0.327615
67	0x3e8f3577	0.27970478
68	0x3e7cbbf0	0.24681067
69	0x3e2e27f1	0.17007424
70	0x3e3a08f4	0.18167478
71	0x3e714acb	0.23563688
72	0x3e9bb351	0.30410245
73	0x3e871b38	0.26387954
74	0x3e3ac4a9	0.18239082
75	0x3e410012	0.18847683
76	0x3e5bda2b	0.21469943
77	0x3e50ee7a	0.20403472
78	0x3e8b0910	0.27155352
79	0x3cdb222e	0.026749697
80	0x3b0daa08	0.002161624
81	0x3e66774c	0.22506446
82	0x3e4d5ebf	0.20055674
83	0x3e1958e6	0.14975318
84	0x3e1aa500	0.15102005
85	0x3e6fe98a	0.23428932
86	0x3e2907dc	0.16506904
87	0x3e5ee44b	0.21766774
88	0x3e52b1f4	0.20575696
89	0x3e952534	0.29129946
90	0x3e0e783e	0.13913056
91	0x3e3d3074	0.18475515
92	0x3deef590	0.11667931
93	0x3e65bffe	0.2243652
94	0x3e4747e1	0.19461013
95	0x3e76d0f2	0.24103144
96	0x3e533bd6	0.20628294
97	0x3e804566	0.25052947
98	0x3e342b83	0.17594723
99	0x3e24488b	0.16043298
100	0x3e562f8d	0.20916577
101	0x3e611f64	0.21984631
102	0x3e46b64c	0.19405478
103	0x3e6dbee0	0.23217344
104	0x3e13309e	0.14374015
105	0x3e4d6d6d	0.20061274
106	0x3eb31d85	0.3498346
107	0x3e5b7a30	0.2143333
108	0x3e77abe3	0.24186663
109	0x3e2b04f1	0.16701104
110	0x3e25eaba	0.16202822
111	0x3e1bb806	0.15206918
112	0x3e5a4be2	0.2131801
113	0x3e7974bc	0.24360937
114	0x3e7f9f1e	0.24963042
115	0x3e729ad7	0.23691879
116	0x3e46578f	0.19369338
117	0x3e051290	0.12995362
118	0x3e1dd36c	0.15412682
119	0x3e4273ff	0.18989561
120	0x3e4625ec	0.19350404
121	0x3e717983	0.2358151
122	0x3e33a6e4	0.17544132
123	0x3e9334b2	0.2875114
124	0x3e383ff2	0.17993143
125	0x3e196cbd	0.14982887
126	0x3e8cc21a	0.27491838
127	0x3e700991	0.2344115
128	0x3e85011d	0.25977412
129	0x3bd74e6a	0.006570627
130	0x3ebccf33	0.3687683
131	0x3e5a4871	0.21316697
132	0x3e49ac03	0.19694524
133	0x3e259a86	0.16172227
134	0x3e123fcf	0.14282154
135	0x3e535dde	0.20641276
136	0x3e52d3cb	0.20588605
137	0x3dec1b7a	0.11528678
138	0x3e148822	0.14505056
139	0x3e0e8523	0.13917975
140	0x3e7a45e0	0.24440718
141	0x3eb5371e	0.35393614
142	0x3e88f0af	0.26746127
143	0x3eb87f38	0.3603456
144	0x3e19c41a	0.15016213
145	0x3e4e3b7a	0.20139876
146	0x3e6bad0e	0.23015234
147	0x3e6f9968	0.23398364
148	0x3ed73731	0.42034295
149	0x3e80cf4a	0.2515815
150	0x3e568f6d	0.2095315
151	0x3e620c87	0.22075091
152	0x3e273509	0.16328825
153	0x3e3cd5e8	0.18440974
154	0x3e856093	0.26050243
155	0x3e49ccbe	0.19707009
156	0x3e66fb9b	0.22556917
157	0x3deb3487	0.11484628
158	0x3e571a74	0.21006185
159	0x3e6efbe8	0.23338282
160	0x3e72ca31	0.23709942
161	0x3ebd863a	0.3701647
162	0x3e203b3a	0.15647593
163	0x3e4243c4	0.18971163
164	0x3e342718	0.17593038
165	0x3e6e7d8c	0.2329008
166	0x3e165492	0.14680699
167	0x3e333290	0.17499757
168	0x3e5adf27	0.21374188
169	0x3e2b923b	0.16755001
170	0x3e917848	0.2841208
171	0x3e0f45dc	0.13991493
172	0x3e5c936c	0.21540612
173	0x3e3ea54d	0.18617745
174	0x3e66b6b3	0.22530632
175	0x3e9ec34e	0.3100838
176	0x3e314550	0.17311597
177	0x3e357cd4	0.177234
178	0x3e5206bf	0.20510386
179	0x3e858081	0.26074603
180	0x3e7e311d	0.24823423
181	0x3e51532d	0.20441885
182	0x3e3bbe53	0.18334322
183	0x3e217372	0.15766695
184	0x3e1f4215	0.15552552
185	0x3e537707	0.20650874
186	0x3e88d9d4	0.2672869
187	0x3e75f9c3	0.24021058
188	0x3e7634c3	0.24043564
189	0x3e38bdf4	0.18041211
190	0x3e2cebd9	0.16886844
191	0x3e1f3285	0.15546615
192	0x3e2d431c	0.16920131
193	0x3e476fcd	0.19476242
194	0x3e35ed7e	0.17766377
195	0x3e972f3a	0.29528219
196	0x3e9ea1fd	0.30982962
197	0x3e4a53bc	0.19758505
198	0x3df1348b	0.117776
199	0x3e7637f6	0.24044785
200	0x3e490ec4	0.19634539
201	0x3e3a0c52	0.18168762
202	0x3ea93175	0.33045545
203	0x3ec71b34	0.38887942
204	0x3e970055	0.2949244
205	0x3e2c9758	0.16854608
206	0x3e546858	0.20742929
207	0x3ea1af4e	0.3157906
208	0x3ec2a6a2	0.38017756
209	0x3e1c4fdc	0.15264839
210	0x3e744a7a	0.23856536
211	0x3e2e60b5	0.17029078
212	0x3e626989	0.22110571
213	0x3e6dc0d3	0.23218088
214	0x3e0fdf7e	0.14050099
215	0x3e0a1aa1	0.1348672
216	0x3e8bc664	0.27299798
217	0x3e1044be	0.14088723
218	0x3c402e97	0.011729858
219	0x3e13c788	0.14431584
220	0x3e70cd4f	0.23515819
221	0x3dfdd670	0.12394416
222	0x3eaddd6e	0.33958
223	0x3e55a262	0.20862725
224	0x3e4d0608	0.20021832
225	0x3e0fa4dd	0.14027734
226	0x3e70a755	0.23501332
227	0x3ebd39d9	0.36958197
228	0x3e73bbd1	0.23802115
229	0x3e625506	0.22102746
230	0x3e8f75c8	0.28019547
231	0x3e40f9d7	0.18845306
232	0x3e37dad6	0.17954573
233	0x3e0f8e41	0.1401911
234	0x3e7676fe	0.2406883
235	0x3e539c90	0.20665193
236	0x3cbe733f	0.023248313
237	0x3e1def52	0.15423325
238	0x3e6029ee	0.21890995
239	0x3e55c8db	0.20877402
240	0x3e2d69e2	0.16934922
241	0x3e92f1c5	0.2870008
242	0x3e43a242	0.19104865
243	0x3e677460	0.22602987
244	0x3e481bc4	0.19541842
245	0x3e85b996	0.26118153
246	0x3e478aec	0.19486588
247	0x3e9dfa5e	0.30855078
248	0x3e3c01c8	0.18360054
249	0x3e1337cb	0.14376752
250	0x3e117a33	0.14206772
251	0x3e9a96ef	0.30193278
252	0x3e4865a9	0.1957003
253	0x3e8002d6	0.25002164
254	0x3e8ed3f9	0.27896097
255	0x3d105a84	0.035242572

fc2.weight f4 [300, 400]
0	0xbe8a7509	-0.27042416
1	0x3e40749d	0.18794484
2	0xbe1c794b	-0.15280645
3	0xbd2b9d09	-0.041897807
4	0xbe6289a9	-0.22122826
5	0xbe2750d7	-0.16339432
6	0x3e68c60a	0.22731796
7	0x3d3b8f16	0.045790754
8	0xbd56174b	-0.052268308
9	0x3d3ed6dc	0.046591625
10	0x3b49fecf	0.0030822044
11	0xbdb35e1e	-0.08758186
12	0x3e39100c	0.18072528
13	0x3ea8dbbc	0.32980144
14	0xbcc805b7	-0.024416788
15	0xbe126007	-0.14294444
16	0x3daa86e0	0.083265066
17	0xbe32b982	-0.17453578
18	0x3d55309f	0.05204832
19	0xbdbc97bc	-0.092086285
20	0x3ed3ae03	0.41343698
21	0xbda0e363	-0.078558706
22	0xbb72d0b1	-0.003705066
23	0x3e673170	0.22577453
24	0xbdfb2563	-0.1226299
25	0xbdf6f715	-0.12058846
26	0xbdc3aad5	-0.09554068
27	0xbd2a428d	-0.041567374
28	0xbd06bf7c	-0.032897457
29	0xbe5e5f30	-0.21715999
30	0xbda4a29e	-0.08038829
31	0xbcdeb4db	-0.027185848
32	0x3e890577	0.26761982
33	0x3db7e904	0.08979991
34	0x3e2debbf	0.16984461
35	0xbd57261e	-0.052526586
36	0xbd15465e	-0.03644406
37	0x3df19373	0.11795702
38	0xbe46fc0e	-0.19432089
39	0xbdb12aa5	-0.08650712
40	0x3d778200	0.060426712
41	0x3dc4027d	0.09570787
42	0xbd1af5ea	-0.03783218
43	0xbd86178e	-0.065474615
44	0xbd08a7d6	-0.033363186
45	0x3d580ee8	0.05274859
46	0x3e362c77	0.177904
47	0x3d0f22d6	0.03494533
48	0xbd983af3	-0.07433119
49	0x3e2b2a7a	0.16715422
50	0xbdcf5082	-0.101227775
51	0x3d2c2eba	0.04203675
52	0xbcb7eb26	-0.022450995
53	0x3e581944	0.21103388
54	0xbdd79022	-0.10525538
55	0x3e040971	0.12894227
56	0xbe063ffd	-0.13110347
57	0x3c228112	0.009918468
58	0xbdc3659d	-0.095408656
59	0x3e05d651	0.13070036
60	0x3d5da3b4	0.054111198
61	0x3e884822	0.26617533
62	0x3d1b8227	0.03796592
63	0x3dade379	0.084906526
64	0xbe7a9a8f	-0.24473022
65	0xbd87097a	-0.065936044
66	0xbd9c75ac	-0.07639632
67	0x3d154c65	0.03644981
68	0xbcf38750	-0.029727608
69	0x3e725d51	0.2366841
70	0x3c547b60	0.012968868
71	0xbd9210c7	-0.07132106
72	0xbe477cd9	-0.1948122
73	0xbe0203dc	-0.12696785
74	0x3d7a25ce	0.06107121
75	0xbe51a0d8	-0.20471513
76	0xbe8373e5	-0.25674358
77	0xbccf4ef3	-0.0253062
78	0xbdd04707	-0.101697974
79	0x3d8ee675	0.0697755
80	0xbcc28ea5	-0.023749659
81	0x3e4c40a3	0.19946532
82	0xbcb0e999	-0.021595763
83	0x3dff9878	0.12480253
84	0x3e92796c	0.28608263
85	0x3d9780e8	0.07397634
86	0x3dea0b60	0.11427951
87	0x3d569016	0.052383505
88	0xbe8954eb	-0.268226
89	0xbddc450c	-0.10755357
90	0xbc3690e0	-0.011142939
91	0x3e76e45c	0.2411055
92	0x3daa8e72	0.083279505
93	0x3eb6d9f2	0.35713154
94	0xbe508316	-0.20362505
95	0x3dc08ab5	0.09401456
96	0xbe090fb0	-0.1338489
97	0xbe327fb2	-0.17431524
98	0xbdf18441	-0.117928036
99	0x3e7bf0f8	0.24603641
100	0x3d793175	0.06083818
101	0xbe37b52f	-0.1794021
102	0x3e946f81	0.2899132
103	0xbdc3ffb8	-0.09570259
104	0xbc13d420	-0.0090227425
105	0xbe0f9752	-0.14022568
106	0x3ce535ba	0.02797972
107	0xbe815f0e	-0.25267833
108	0xbe18e426	-0.14930782
109	0xbe6e5c7b	-0.23277466
110	0xbdff2212	-0.1245767
111	0xbd978e6f	-0.07400214
112	0xbeb270f9	-0.34851816
113	0x3dbad328	0.09122306
114	0x3e181eb1	0.14855458
115	0x3e583f70	0.2111795
116	0xbe93760c	-0.28801
117	0xbdc30dd2	-0.095241204
118	0x3e253d37	0.16136633
119	0x3e90445e	0.2817716
120	0x3e244f2e	0.1604583
121	0x3e77c47e	0.2419605
122	0xbf3b3d80	-0.73140717
123	0xbd34bf83	-0.044127952
124	0xbe2251c7	-0.15851508
125	0x3c2c98ad	0.010534448
126	0x3e3872b4	0.18012506
127	0x3d34cb72	0.044139333
128	0xbd038b0a	-0.03211502
129	0x3c81ce0a	0.015845317
130	0xbded2ce2	-0.11580826
131	0x3e0dbb5c	0.13841003
132	0x3e92806e	0.2861361
133	0xbd3687a9	-0.04456297
134	0xbc1c9ed2	-0.00955935
135	0xbe345146	-0.17609128
136	0xbd1f4dfb	-0.038892727
137	0xbd7650c7	-0.06013563
138	0xbc75bab5	-0.014998128
139	0xbe79cd3d	-0.24394698
140	0x3c3ceba6	0.011530792
141	0xbc4958ba	-0.0122892205
142	0xbd0a76fd	-0.033804882
143	0x3e372166	0.17883834
144	0xbe27b098	-0.16375959
145	0x3bf41665	0.0074489587
146	0x3e6e39b8	0.23264205
147	0xbde2f9b5	-0.11082784
148	0xbd87ff1e	-0.066404566
149	0x3dd1adb2	0.10238208
150	0xbd1e34a0	-0.038624406
151	0x3de900bc	0.11377093
152	0x3e5cf635	0.21578296
153	0xbccef802	-0.025264744
154	0xbec01365	-0.37514797
155	0xbe029df2	-0.12755564
156	0xbda25dbf	-0.07928037
157	0xbe71490a	-0.23563018
158	0x3d0d7019	0.034530733
159	0xbe2d0ec8	-0.1690017
160	0x3d1c39ca	0.03814105
161	0x3d2e5e14	0.04257019
162	0x3c85e33b	0.016343703
163	0x3e031e4b	0.12804525
164	0xbe7ebd2f	-0.24876855
165	0x3dbbab19	0.09163494
166	0x3d32c892	0.04364831
167	0x3dad5fdf	0.084655516
168	0x3e8dc6b5	0.27690664
169	0x3d4483a5	0.04797711
170	0xbe0a8936	-0.13528904
171	0x3d01d450	0.031696618
172	0x3d0346e3	0.032050025
173	0xbd97129b	-0.073765956
174	0xbd705141	-0.05867124
175	0x3e44d8f8	0.19223392
176	0x3d623f1a	0.05523596
177	0xbc9a471c	-0.018832736
178	0x3cc749a7	0.024327112
179	0x3e5e432a	0.21705309
180	0xbe39f1e0	-0.18158674
181	0x3e329706	0.17440423
182	0x3e2513a3	0.16120772
183	0x3d813221	0.063083895
184	0xbe862e16	-0.26207036
185	0xbc98534f	-0.018594412
186	0x3e0d3103	0.13788228
187	0x3daad413	0.08341231
188	0x3b56d842	0.0032782708
189	0x3ea8f415	0.3299872
190	0x3e023ec6	0.12719259
191	0xbe6cda35	-0.23130114
192	0xbe2148c8	-0.1575042
193	0x3e307476	0.17231926
194	0xbe469f21	-0.1939664
195	0x3e831845	0.25604454
196	0x3e7401bc	0.23828787
197	0x3e225b27	0.15855084
198	0xbd278560	-0.04089868
199	0x3cfbc64b	0.030734202
200	0x3d4a679e	0.049415223
201	0xbdc45335	-0.09586183
202	0xbeb54530	-0.35404348
203	0xbd743b41	-0.05962682
204	0xbe895aa7	-0.26826975
205	0xbe8158a5	-0.25262943
206	0x3e01bb64	0.1266914
207	0xbe298601	-0.16555025
208	0x3df82993	0.12117305
209	0x3d3a70c5	0.0455177
210	0xbd9a6e0d	-0.07540522
211	0xbd5c25b2	-0.053746887
212	0xbe189193	-0.14899282
213	0xbdf8317d	-0.12118814
214	0xbda97cd7	-0.082757644
215	0x3dcaeae6	0.099080846
216	0x3c8a0cae	0.01685175
217	0x3e5b6f7f	0.21429251
218	0xbb4b427f	-0.0031014977
219	0xbe028076	-0.12744316
220	0x3d588721	0.052863244
221	0xbdcd3ef5	-0.10021774
222	0xbba41a10	-0.0050079897
223	0x3dd774e5	0.10520343
224	0xbbc30804	-0.0059518833
225	0x3da48e97	0.08035009
226	0x3d44242b	0.047886055
227	0xbdc3e37c	-0.095648736
228	0xbdbf3e64	-0.09338072
229	0x3cf43a78	0.029813036
230	0x3dc63003	0.09677126
231	0x3dc5792c	0.09642252
232	0xbcbee9e5	-0.023304889
233	0x3d505059	0.050857875
234	0x3e213f4a	0.15746799
235	0xbe44097f	-0.19144247
236	0x3d21363d	0.039358366
237	0x3e53b9a5	0.20676287
238	0xbda6c9dc	-0.0814397
239	0xbdb36d1c	-0.08761045
240	0xbbc4c717	-0.0060051787
241	0x3d17ef29	0.037093315
242	0xbd92a8e3	-0.07161119
243	0x3e539052	0.20660523
244	0x3d45de0a	0.048307456
245	0xbd03e70e	-0.032202773
246	0x3e3ef111	0.18646647
247	0xbd8ca00f	-0.06866466
248	0xbe441ffd	-0.19152828
249	0x3d959d68	0.073054135
250	0xbee51180	-0.44739914
251	0x3e0c1aab	0.13682048
252	0x3d71d095	0.05903681
253	0xbe2aeb37	-0.1669129
254	0x3cf4c657	0.029879732
255	0x3caae431	0.020860763
