checkpoint_critic.pth (torch_old, 533779 bytes, 13 tensors)

bn0.weight f4 [24]
0	0x3edf3f09	0.4360278
1	0x3ea6eb39	0.32601336
2	0x3b313a43	0.0027042783
3	0x3a660882	0.00087750715
4	0x3f2c8e8f	0.6740503
5	0x3f167726	0.58775556
6	0x3ed6ca1d	0.41951075
7	0x3ed47401	0.41494754
8	0x3d65d0f3	0.056107473
9	0x3a515bd3	0.00079864
10	0x3ea3c274	0.31984293
11	0x3d958f88	0.07302767
12	0x3ba9235b	0.0051616854
13	0x3a2d5459	0.0006611995
14	0x3ddfc0d4	0.10925451
15	0x3e592b41	0.21207906
16	0x3eefd836	0.46844643
17	0x3e5a0b7e	0.21293446
18	0x3b0127ce	0.0019707563
19	0xbb0cf779	-0.002150981
20	0x3f6be356	0.9214376
21	0x3f2ce076	0.6753
22	0x3ecb6705	0.39727035
23	0x3ee817be	0.45330614

bn0.bias f4 [24]
0	0xb7e79120	-2.7604925e-05
1	0xb86dd6a8	-5.6705117e-05
2	0xb6dce174	-6.582757e-06
3	0xb59a83ca	-1.151225e-06
4	0x38aa096c	8.107987e-05
5	0x372e8de8	1.0404248e-05
6	0x36c6a758	5.920341e-06
7	0x36f8c095	7.4133955e-06
8	0x35ad1da8	1.2898136e-06
9	0xb64f0ba6	-3.0852184e-06
10	0x380908f8	3.2671698e-05
11	0x383f4b38	4.5608e-05
12	0x358ea55e	1.0627953e-06
13	0xb4ded230	-4.1503654e-07
14	0x378ca402	1.6765673e-05
15	0x3883dcdc	6.287705e-05
16	0x382c4898	4.1075604e-05
17	0x37c2f52e	2.3240773e-05
18	0x3654eba1	3.1727616e-06
19	0x3631b51c	2.6480475e-06
20	0x38838054	6.27047e-05
21	0x3802897e	3.1122465e-05
22	0x378e62d2	1.6973736e-05
23	0xb70194c0	-7.723633e-06

bn0.running_mean f4 [24]
0	0xc10181e8	-8.094215
1	0xbe38b3c3	-0.18037324
2	0x3fe6c821	1.8029824
3	0x3e509f15	0.20373185
4	0x3d01602f	0.03158587
5	0x407c7189	3.9444296
6	0x3fe6c821	1.8029824
7	0x3e509f15	0.20373185
8	0xc1048422	-8.282259
9	0xbe3912f2	-0.18073633
10	0x3fb5d0c4	1.4204335
11	0x3e5b358c	0.21407145
12	0x3c9ad860	0.018902004
13	0x4080bfcd	4.023413
14	0x3fb5d0c4	1.4204335
15	0x3e5b358c	0.21407145
16	0xc107045a	-8.438562
17	0xbe3724fd	-0.17885204
18	0x3fd5b821	1.6696817
19	0x3e6400a4	0.2226587
20	0x3cff8c65	0.031194875
21	0x408217c7	4.0654025
22	0x3fd5b821	1.6696817
23	0x3e6400a4	0.2226587

bn0.running_var f4 [24]
0	0x41475898	12.459129
1	0x3f446bb8	0.76726866
2	0x43a7e7b7	335.81027
3	0x4187719a	16.93047
4	0x41dbc801	27.472658
5	0x4023ca6d	2.55923
6	0x43a7e7b7	335.81027
7	0x4187719a	16.93047
8	0x4132178e	11.130751
9	0x3f4910f6	0.78541505
10	0x43a7bc81	335.4727
11	0x4187bd6a	16.967487
12	0x41e498e9	28.574663
13	0x400f35a1	2.2376482
14	0x43a7bc81	335.4727
15	0x4187bd6a	16.967487
16	0x411f12ba	9.942072
17	0x3f4df2e4	0.80448747
18	0x43ad3c4e	346.47113
19	0x41893e71	17.155489
20	0x41ee4e63	29.788275
21	0x400115ce	2.0169559
22	0x43ad3c4e	346.47113
23	0x41893e71	17.155489

fcs1.weight f4 [400, 24]
0	0xbc5da6de	-0.013528554
1	0xbc030717	-0.007997296
2	0x3aed977c	0.0018126811
3	0xba08c466	-0.0005217254
4	0x3d2da1a0	0.042390466
5	0xbd240a63	-0.040048968
6	0x3d200292	0.03906495
7	0xbbb84602	-0.00562358
8	0x3b561d2c	0.0032671196
9	0xba172de7	-0.0005767033
10	0x3ce3014f	0.027710585
11	0xbc48c0ff	-0.012253045
12	0xba748dfd	-0.0009329019
13	0x391e4a8c	0.00015095825
14	0x3c1bec2f	0.00951676
15	0xbcb50e64	-0.022101589
16	0xbcc6460c	-0.024203323
17	0xbce01cac	-0.027357422
18	0xb69c555c	-4.6590994e-06
19	0x3a859a02	0.0010192993
20	0x3d43af17	0.0477744
21	0x3d54a7cf	0.051917847
22	0x3ac30b3a	0.0014880665
23	0xbc915b6e	-0.017743792
24	0xbd355b68	-0.044276625
25	0x3c11c120	0.008896142
26	0x395f2c53	0.0002128345
27	0xb9b93882	-0.0003532805
28	0x3c79b6ca	0.015241334
29	0x3ddfbe00	0.109249115
30	0x3bf7e964	0.007565664
31	0x3cccae5a	0.024985481
32	0xbac1bfc5	-0.0014781883
33	0xb911bcc7	-0.00013898603
34	0x3b379dd9	0.0028017669
35	0x3bcdfe78	0.0062864386
36	0x38e18e00	0.000107552856
37	0xb9d8c46c	-0.00041345076
38	0xbae66fba	-0.0017580905
39	0x3c8f0e47	0.017462863
40	0xbad257bd	-0.0016047877
41	0x3c88eaf7	0.016713602
42	0xba7185c3	-0.00092133525
43	0x3a96c364	0.0011502323
44	0x3cf21a4a	0.029553551
45	0xbd3c5f63	-0.045989405
46	0x3c6aa55a	0.014321649
47	0x3a43d678	0.0007470618
48	0x3dc46364	0.0958927
49	0x3ca7f0b5	0.02050052
50	0xba2fdc2f	-0.000670853
51	0x3a6d4324	0.0009050837
52	0xbd9bca05	-0.076068915
53	0xbd881aae	-0.06645714
54	0xbe31a01e	-0.17346236
55	0x3cd6a44d	0.026201392
56	0x3d01c1f6	0.031679116
57	0xb995b565	-0.00028554644
58	0x3decedce	0.11568795
59	0x3d0345e5	0.03204908
60	0xba3d8375	-0.00072293665
61	0xbb939963	-0.004504369
62	0x3d98f7bb	0.07469126
63	0x3d47ec62	0.048809417
64	0x3c2bccdd	0.010485855
65	0x3cf3eb5a	0.02977531
66	0xbb611a92	-0.0034348113
67	0xbaab90f4	-0.0013089464
68	0xbc7b683b	-0.015344675
69	0x3bbf329a	0.0058348896
70	0x3e839e5b	0.25706753
71	0xbd10c4ab	-0.035343807
72	0xbdab1da6	-0.08355264
73	0xbc7f35de	-0.015576808
74	0x3c0455c4	0.008077089
75	0x3acb4f3e	0.0015511287
76	0x3de83dcc	0.11339912
77	0xbd9b2338	-0.07575077
78	0x3e2e1a0f	0.17002128
79	0xbd50d8c1	-0.050987963
80	0xbd267244	-0.040636316
81	0xbb90f4d6	-0.004423718
82	0x3cf3facb	0.029782673
83	0xb998b99d	-0.00029129992
84	0xbc2cf583	-0.010556581
85	0xbb15204d	-0.0022754848
86	0x3cc6a625	0.024249146
87	0xbca72cd2	-0.020407114
88	0x3d797ff5	0.060913045
89	0x3da8a464	0.0823448
90	0x3be64b57	0.007028024
91	0xbb505fac	-0.0031795306
92	0xbdb1ff3b	-0.086912595
93	0xbdf1c150	-0.118044496
94	0x3e042e5a	0.12908307
95	0xbd1e9b8a	-0.038722552
96	0x3ca9f8be	0.020748492
97	0x3dc69142	0.096956745
98	0xbb8be1a4	-0.004268842
99	0x3b5ecf27	0.0033997984
100	0x3d632559	0.05545554
101	0x3e4cc7dc	0.19998115
102	0x3d17face	0.03710442
103	0xbd3e244e	-0.04642134
104	0x3d58e4f3	0.052952718
105	0x3c14b2fe	0.009075878
106	0x3d3694eb	0.044575613
107	0x3cd6763b	0.026179424
108	0xbc69f8b3	-0.014280486
109	0xbab8e721	-0.0014106968
110	0x3d3fd506	0.046834014
111	0x3d54fc58	0.051998466
112	0xbde24f34	-0.11050263
113	0x3d9fc6eb	0.078016125
114	0xbace0672	-0.0015718474
115	0xbc2c0824	-0.010499988
116	0xbc59ec1c	-0.013300922
117	0x3c37a02c	0.011207622
118	0xbe152288	-0.14563954
119	0xbe17b7ab	-0.14816158
120	0x3d8919a4	0.06694344
121	0xba06152f	-0.0005114851
122	0x3b9abead	0.0047224374
123	0x3a9c339a	0.0011917234
124	0x3de60204	0.11230853
125	0xbd81544f	-0.06314909
126	0x3c0767a0	0.008264452
127	0x3da94676	0.082653925
128	0x3cace076	0.021103125
129	0xbaac7084	-0.0013156091
130	0x3d618a07	0.055063274
131	0xbd0e5cf0	-0.0347566
132	0x3b12e8f1	0.0022416676
133	0xbb07e3d0	-0.0020735152
134	0x3d0e30a2	0.03471435
135	0xbd9dd1cf	-0.077060334
136	0x3d5d8543	0.054082166
137	0x3b8d9c03	0.0043215766
138	0x3baff979	0.0053703156
139	0x3bac690f	0.0052615474
140	0xbd8ad3d0	-0.06778681
141	0xbe634820	-0.22195482
142	0xbde3058a	-0.11085041
143	0x3d4377ff	0.04772186
144	0x3e234773	0.15945224
145	0x3da0619f	0.0783112
146	0xbc8d7833	-0.01726923
147	0xbbbc2e56	-0.0057428284
148	0x3e2617c9	0.16220011
149	0x3d8d3593	0.06894984
150	0xbd0667b2	-0.032813735
151	0xbd063534	-0.032765582
152	0x3d5b4677	0.053533997
153	0xbb64e906	-0.0034928932
154	0x3d599269	0.053118143
155	0x3d29bb2d	0.04143827
156	0xbb627e48	-0.0034560133
157	0x3b3f7105	0.0029211652
158	0x3d5331a2	0.051561005
159	0x3d912ab0	0.0708822
160	0xbd34bcb8	-0.04412529
161	0x3d124840	0.035713434
162	0xbad5ac87	-0.0016302028
163	0x3c0499fe	0.008093355
164	0xbc6a7d03	-0.014312032
165	0xbd8bad44	-0.06820157
166	0xbe756f11	-0.2396815
167	0xbb43ba4b	-0.0029865678
168	0xbdba7019	-0.09103412
169	0x3de0afbb	0.10971018
170	0x3b2b8d77	0.002617685
171	0xbb19a192	-0.002344225
172	0x3d78a51a	0.060704328
173	0xbc3e7225	-0.011623894
174	0x3c654f58	0.013995968
175	0xbd9e3ad8	-0.07726067
176	0x3a926410	0.0011168737
177	0x3985e96b	0.00025541647
178	0x3cb977b6	0.02264009
179	0x3d02639b	0.031833272
180	0x3ad7da2c	0.0016468219
181	0x3a13182a	0.00056112057
182	0x3c161234	0.009159613
183	0x3d99d485	0.07511238
184	0x3cea329a	0.028588582
185	0x3cd07531	0.025446506
186	0x3a1aef14	0.0005910259
187	0xba9ab3af	-0.0011802817
188	0xbd916369	-0.07099039
189	0x3d57d631	0.052694503
190	0x3c982031	0.018570038
191	0x3d0d3ef1	0.034483854
192	0xbd558bda	-0.052135326
193	0xbbce8407	-0.00630236
194	0x3ba8886c	0.005143216
195	0xbaa17e0d	-0.0012320891
196	0x3cdcb6d4	0.026942648
197	0x3d00f09b	0.03147946
198	0xbc597d0b	-0.0132744415
199	0x3dd9685e	0.106156096
200	0x3b8927f7	0.0041856724
201	0xba7de396	-0.0009685097
202	0x3cebb41c	0.028772406
203	0x3c50cf9b	0.0127448095
204	0x3bd0dab9	0.00637373
205	0xbadbcf0a	-0.0016770076
206	0x3c328cde	0.010897843
207	0x3cf090ba	0.029365886
208	0x3d71ca8b	0.05903105
209	0x3cf9e50f	0.030504731
210	0xbbd5e363	-0.0065273507
211	0x3a6a88b7	0.00089467637
212	0x3de44838	0.11146587
213	0xbd4a6ba5	-0.049419064
214	0x3db34fab	0.0875543
215	0x3e02e3e0	0.1278224
216	0x3c6e827e	0.014557479
217	0xbd9e81ed	-0.07739625
218	0x3c80eff4	0.015739419
219	0xbb7c7652	-0.0038522673
220	0x3dc2acb0	0.09505594
221	0x3d5e57a5	0.054282803
222	0x3d6c08c4	0.057625547
223	0xbe3dee4e	-0.18547937
224	0xbc00de1f	-0.007865458
225	0x3b9145aa	0.0044333534
226	0x3d27c79e	0.040961854
227	0xbcd2d437	-0.025735958
228	0xbc4cfe11	-0.012511746
229	0x3af64aab	0.0018790563
230	0x3ce200e3	0.027588313
231	0xbd1f8e68	-0.03895417
232	0x3d3f3a65	0.04668655
233	0x3ce31fff	0.027725218
234	0x3c3edd45	0.011649434
235	0xbc147c37	-0.009062818
236	0x3d7fdba6	0.062465332
237	0x3e37aaf8	0.17936313
238	0x3cb5f453	0.02221123
239	0xbd7b7dff	-0.061399456
240	0xbd0df9ae	-0.03466194
241	0xbcd1288c	-0.02553203
242	0x3a8225fa	0.0009929531
243	0x3abf3f21	0.0014590957
244	0x3deebb13	0.11656775
245	0x3e0d4dc6	0.137992
246	0xbd13f18a	-0.03611902
247	0xbd949bdc	-0.0725629
248	0xbc15e1ed	-0.009148103
249	0xbb69c640	-0.0035671145
250	0xbd4a73eb	-0.049426954
251	0x3da38a2b	0.07985338
252	0x3bde3097	0.0067806947
253	0xbab69c62	-0.0013932104
254	0xbce1bb4a	-0.027555127
255	0x3e09e5a6	0.1346651

fcs1.bias f4 [400]
0	0xb694640e	-4.4223916e-06
1	0x347c2d20	2.3485745e-07
2	0xb7dc1e63	-2.6240194e-05
3	0x38132984	3.5086196e-05
4	0xb72f4c00	-1.0448508e-05
5	0xb7898063	-1.6391457e-05
6	0xb7f6ccfe	-2.9420942e-05
7	0xb78e250a	-1.6944967e-05
8	0xb70ba780	-8.324045e-06
9	0x375c6b98	1.3138073e-05
10	0xb7c3bd72	-2.3334029e-05
11	0xb7e3726e	-2.7113794e-05
12	0x36d7b5f8	6.4286833e-06
13	0x331c2380	3.6353867e-08
14	0xb5f8fd60	-1.8551182e-06
15	0x33dfc300	1.0419717e-07
16	0xb57c9783	-9.4097794e-07
17	0xb83595c8	-4.3293257e-05
18	0x013a4a34	3.4216043e-38
19	0x384367eb	4.6588404e-05
20	0x37c643ba	2.3634977e-05
21	0xb85982e7	-5.1858744e-05
22	0x81fbbe86	-9.2476226e-38
23	0xb84966f6	-4.8018024e-05
24	0xb5401d80	-7.15685e-07
25	0xb616a0e3	-2.244539e-06
26	0x36cb0ba8	6.0512284e-06
27	0xb662db40	-3.3804245e-06
28	0x38179555	3.614028e-05
29	0x37224708	9.672491e-06
30	0x371117fe	8.64826e-06
31	0xb640bc4e	-2.8719837e-06
32	0x35b29f00	1.3308309e-06
33	0x37ee7aa7	2.8428925e-05
34	0x01fb1cfa	9.224442e-38
35	0xb7cc57ad	-2.4359522e-05
36	0x368cd8a0	4.1975436e-06
37	0x37006af8	7.6543e-06
38	0xb769f26c	-1.39443255e-05
39	0x000a8520	9.66111e-40
40	0x37d40542	2.5274818e-05
41	0x37b8811a	2.1994627e-05
42	0x801a47cc	-2.413479e-39
43	0x37b32dab	2.1359729e-05
44	0xb613589c	-2.1956284e-06
45	0x00057470	5.00947e-40
46	0xb77b230d	-1.4968927e-05
47	0x00a18f40	1.4836903e-38
48	0x3826c6de	3.9762694e-05
49	0xb8aa0ce4	-8.108633e-05
50	0x36e9c130	6.966431e-06
51	0x369cb425	4.670134e-06
52	0xb73f6fe8	-1.1410542e-05
53	0x82457e41	-1.4509507e-37
54	0x37cb0c3e	2.4205186e-05
55	0xb8525e10	-5.0155504e-05
56	0x002ba764	4.008975e-39
57	0x9b13b88e	-1.2219188e-22
58	0x819e4b84	-5.8148393e-38
59	0x3714a5f5	8.860127e-06
60	0xb7f5a624	-2.9283641e-05
61	0x247a4bef	5.4274427e-17
62	0xb68cf9fc	-4.201427e-06
63	0x33ab96ea	7.990259e-08
64	0xb8530c24	-5.0317627e-05
65	0x01ded066	8.184896e-38
66	0xb79ccdfb	-1.8692566e-05
67	0x371b1350	9.2432165e-06
68	0x362408dc	2.4443061e-06
69	0xb9a911be	-0.0003224741
70	0x81b8f9e5	-6.7949506e-38
71	0xb6877434	-4.0368413e-06
72	0x36629b32	3.376696e-06
73	0xb737c79a	-1.0954123e-05
74	0x36ef8b2c	7.138957e-06
75	0xb7c2603e	-2.3171418e-05
76	0x001ac588	2.458584e-39
77	0x3527a4b8	6.2452045e-07
78	0x379a736a	1.8411974e-05
79	0x814e9784	-3.7944932e-38
80	0x81b99324	-6.8169404e-38
81	0x383b043f	4.458823e-05
82	0x374eebb8	1.2333439e-05
83	0x379dced5	1.8812172e-05
84	0x380cedde	3.3600132e-05
85	0xb7e7d140	-2.7634786e-05
86	0x38048d1c	3.160267e-05
87	0x80424bee	-6.088381e-39
88	0xb489817a	-2.5612445e-07
89	0x373c6a66	1.1230446e-05
90	0x38ad28d2	8.256886e-05
91	0x8161727c	-4.1408112e-38
92	0x3829e172	4.0502702e-05
93	0x021d29f8	1.1546583e-37
94	0x81e1241c	-8.270376e-38
95	0x373b0fb6	1.1149727e-05
96	0xb831fb7f	-4.2434312e-05
97	0xb7a8e89e	-2.0135481e-05
98	0xb6578520	-3.2114986e-06
99	0x000e3332	1.304062e-39
100	0xb50c964e	-5.2372786e-07
101	0xb3475c00	-4.641697e-08
102	0xb7cdc998	-2.4531779e-05
103	0x35c2b817	1.4507704e-06
104	0x33580ce6	5.030315e-08
105	0x33106257	3.3617052e-08
106	0x37e50f76	2.7306127e-05
107	0x819bce60	-5.723414e-38
108	0x8213e204	-1.0864718e-37
109	0xb80628c1	-3.1986045e-05
110	0xb6ba5adc	-5.5538094e-06
111	0xb58c83f0	-1.0469212e-06
112	0xb711acb2	-8.682882e-06
113	0x37899fd8	1.6406106e-05
114	0x38314a4d	4.2269286e-05
115	0x8185f70e	-4.921099e-38
116	0x81b1f790	-6.5374766e-38
117	0xb81506b6	-3.553062e-05
118	0xb694f700	-4.4394983e-06
119	0x370a2986	8.235109e-06
120	0x38153265	3.5571302e-05
121	0xb7f7e106	-2.954948e-05
122	0x38094569	3.272799e-05
123	0x37c232a6	2.3150187e-05
124	0x38ad874a	8.2744824e-05
125	0xb7e48590	-2.7241913e-05
126	0x82521345	-1.5433893e-37
127	0x384921ef	4.7953738e-05
128	0x3761a65c	1.3449779e-05
129	0x011d9e30	2.894984e-38
130	0x81916a45	-5.3417077e-38
131	0xb7a04bbf	-1.9108758e-05
132	0x004532a0	6.35481e-39
133	0x34b5caca	3.3861426e-07
134	0x38876094	6.455291e-05
135	0x37382824	1.0976601e-05
136	0xb7e152bb	-2.6860615e-05
137	0x37845d3a	1.5779038e-05
138	0xb729a514	-1.011162e-05
139	0xb79359c6	-1.756557e-05
140	0xb6618a30	-3.3608048e-06
141	0xb892c59b	-6.9986294e-05
142	0xb517b679	-5.6517416e-07
143	0xb8a86337	-8.0293445e-05
144	0xb7373c1d	-1.0921646e-05
145	0x3680e2c0	3.8410944e-06
146	0xb6a46a89	-4.899983e-06
147	0xb71bdbdc	-9.28991e-06
148	0xb83b8793	-4.4710538e-05
149	0x35368210	6.798955e-07
150	0x364e8628	3.0774481e-06
151	0xb7ba7fcc	-2.2232438e-05
152	0x36954292	4.448296e-06
153	0x3603a336	1.9615522e-06
154	0xb71f5bb3	-9.498489e-06
155	0xb6948382	-4.4260532e-06
156	0xb5be2b10	-1.4168636e-06
157	0xb73da9d2	-1.1304817e-05
158	0x362219cc	2.4154897e-06
159	0xb803fac1	-3.1466367e-05
160	0xb8743d1f	-5.8231057e-05
161	0xb6cb6ad4	-6.062308e-06
162	0x3707245c	8.055093e-06
163	0xb72212e2	-9.660349e-06
164	0x360a16d0	2.057688e-06
165	0x38093105	3.2709e-05
166	0xb80c0b2f	-3.3389017e-05
167	0xb6c60f13	-5.9026147e-06
168	0x3880190e	6.1081824e-05
169	0xb8a6bd9b	-7.9508136e-05
170	0x3716e6a7	8.9944e-06
171	0x3794a369	1.7719069e-05
172	0x3746a2be	1.1839611e-05
173	0x3822a508	3.8777507e-05
174	0xb7ddef99	-2.6456824e-05
175	0x36d51eaa	6.3514644e-06
176	0x38156f89	3.5628243e-05
177	0xb6f25de8	-7.223094e-06
178	0xb7bccdb3	-2.2507133e-05
179	0xb5f90b00	-1.8555147e-06
180	0xb5e038ae	-1.6705796e-06
181	0x36ba4750	5.551534e-06
182	0x381890f4	3.6374622e-05
183	0x370feb00	8.578179e-06
184	0xb79ad9bf	-1.8459627e-05
185	0x80311039	-4.505759e-39
186	0x3797b1ef	1.808346e-05
187	0xb7f7570d	-2.948523e-05
188	0x36a73bd4	4.9839527e-06
189	0x01a484a3	6.043441e-38
190	0xb60d3ae6	-2.104492e-06
191	0xb7dbab22	-2.6186524e-05
192	0xb62078df	-2.3912214e-06
193	0xb7c012c6	-2.2896926e-05
194	0xb7329862	-1.0645106e-05
195	0x023f161d	1.403881e-37
196	0x31641da0	3.3195207e-09
197	0x35a09bb8	1.1966249e-06
198	0x01d3fa78	7.7868564e-38
199	0xb81b4eda	-3.7028316e-05
200	0x0180beee	4.7293745e-38
201	0xb798fdd9	-1.8238019e-05
202	0x81b0d102	-6.49521e-38
203	0x374df929	1.2276964e-05
204	0x02065312	9.868605e-38
205	0xb60fd840	-2.1434535e-06
206	0x003feeec	5.871345e-39
207	0xb7b24367	-2.125064e-05
208	0x37815274	1.5416394e-05
209	0xb6987df0	-4.544614e-06
210	0xb7c2ced3	-2.3222912e-05
211	0x3535cefc	6.7728956e-07
212	0xb6b067e6	-5.257304e-06
213	0xb8768ae4	-5.8780322e-05
214	0x37d44dc2	2.5308578e-05
215	0xb7a1c42b	-1.9284043e-05
216	0xb78e175a	-1.6938593e-05
217	0x37d2c41f	2.5125277e-05
218	0x81410e28	-3.5458658e-38
219	0x36522b34	3.1317586e-06
220	0x37243002	9.786339e-06
221	0xb5b4bdf8	-1.3466333e-06
222	0x821ba331	-1.1434435e-37
223	0x3740f942	1.1502127e-05
224	0xb7837b54	-1.5673846e-05
225	0x37862d78	1.5995218e-05
226	0x35e78b98	1.7251468e-06
227	0xb793d084	-1.7620863e-05
228	0x37d8dbc6	2.5851547e-05
229	0xb6f561cc	-7.312954e-06
230	0xb6e42dbe	-6.8002546e-06
231	0x8212ad97	-1.0776204e-37
232	0x36195570	2.2848508e-06
233	0x335c3ae4	5.1276302e-08
234	0xb8093458	-3.2712094e-05
235	0x35b48a84	1.3451358e-06
236	0x37b077af	2.1036567e-05
237	0x3842194b	4.627676e-05
238	0x35e4e738	1.7054617e-06
239	0x3744533b	1.1701889e-05
240	0xb7acaf52	-2.0585638e-05
241	0x00d29e38	1.9342212e-38
242	0xb752d727	-1.25670695e-05
243	0xb54a9c70	-7.547851e-07
244	0xb8333b10	-4.2731932e-05
245	0xb855ab40	-5.0942646e-05
246	0xb81f4d7c	-3.7980717e-05
247	0xb4987810	-2.8399563e-07
248	0x36ee3b53	7.099859e-06
249	0xb861d918	-5.3846365e-05
250	0x39060437	0.00012780806
251	0x35c0547c	1.4329703e-06
252	0x37bf5812	2.2809985e-05
253	0xb5b2c3c0	-1.3319004e-06
254	0x382decd4	4.1466978e-05
255	0xb63dc028	-2.8275044e-06

bn1.weight f4 [400]
0	0x3dc977f6	0.09837334
1	0x3de5c5f0	0.11219394
2	0x3e88d0f0	0.26721907
3	0x3e774559	0.24147548
4	0x3e89e39f	0.26931474
5	0x3e8d47ce	0.27593845
6	0x3eb5a2fc	0.3547591
7	0x3dd644e0	0.104623556
8	0x3e64289c	0.22281116
9	0x3eb92b13	0.36165676
10	0x3e51b24d	0.20478173
11	0x3eac8049	0.33691624
12	0x3e629527	0.2212721
13	0x3e3632ef	0.17792867
14	0x3ddb93ec	0.10721573
15	0x3e1bf9d6	0.15232024
16	0x3e150766	0.14553604
17	0x3e4b424f	0.19849513
18	0x8030f728	-4.496767e-39
19	0x3e94da22	0.29072672
20	0x3de8ad6f	0.11361205
21	0x3e87313b	0.26404747
22	0x002681f4	3.536367e-39
23	0x3e4d85e6	0.2007061
24	0x3e56748d	0.20942898
25	0x3d9220a0	0.07135129
26	0x3e8549f3	0.2603298
27	0x3e68e866	0.22744903
28	0x3e424563	0.18971781
29	0x3e94903e	0.29016298
30	0x3e6dcb4f	0.23222087
31	0x3e82182b	0.25409064
32	0x3e565873	0.20932178
33	0x3e998599	0.2998474
34	0x3ada8acd	0.0016673446
35	0x3ead3595	0.33829942
36	0x3da998b4	0.08281079
37	0x3e3a622b	0.1820151
38	0x3e85ed20	0.26157475
39	0x002d230c	4.14517e-39
40	0x3e429cf6	0.19005188
41	0x3e248e7f	0.16069983
42	0x0003c554	3.46294e-40
43	0x3e8f4012	0.2797857
44	0x3dfe8640	0.1242795
45	0x8013a7fa	-1.805133e-39
46	0x3e067bb2	0.13133124
47	0x39071ed7	0.00012886092
48	0x3e9d21da	0.3068989
49	0x3eb31a50	0.34981012
50	0x3ec9b39b	0.3939484
51	0x3e2a58e1	0.16635467
52	0x3ecaaffd	0.39587393
53	0x000fed46	1.46265e-39
54	0x3ea49de7	0.3215172
55	0x3e9e5b33	0.30928954
56	0x8d63d2c5	-7.020348e-31
57	0xa5438de3	-1.6961627e-16
58	0x000cde8c	1.181861e-39
59	0x3e634d4d	0.22197457
60	0x3e5ee0db	0.21765463
61	0x3c21f2c4	0.00988454
62	0x3e2b7d52	0.16747025
63	0x3d345d18	0.044034094
64	0x3e8c796f	0.27436396
65	0xaf47145e	-1.810618e-10
66	0x3e4c5f62	0.1995826
67	0x3ea145b7	0.314985
68	0x3e125205	0.142891
69	0x3fccb8c0	1.5993881
70	0x8046f20c	-6.515315e-39
71	0x3e38d684	0.18050581
72	0x3df37687	0.11887842
73	0x3e112e13	0.14177732
74	0x3e1ba972	0.15201357
75	0x3ee6ebc5	0.45101753
76	0x80216bac	-3.069197e-39
77	0x3c6b5d2d	0.014365477
78	0x3df60969	0.120135136
79	0x80019eee	-1.48849e-40
80	0x8130eb0a	-3.2494727e-38
81	0x3e97197c	0.2951163
82	0x3ecd9f9f	0.40160844
83	0x3e41c55d	0.18922944
84	0x3e73a758	0.23794305
85	0x3e770edc	0.24126762
86	0x3eedeeda	0.46471292
87	0x001a16cd	2.395902e-39
88	0x3d4889b6	0.048959456
89	0x3e9de2b2	0.30837017
90	0x3e92e0fc	0.28687274
91	0x002f6dd7	4.355671e-39
92	0x3e4dddf0	0.20104194
93	0x8030f5b9	-4.496252e-39
94	0x3b2b25a6	0.002611497
95	0x3ded1cf1	0.11577786
96	0x3edfbd0b	0.43698916
97	0x3e321739	0.17391671
98	0x3eefcaf8	0.4683454
99	0x8023369d	-3.233834e-39
100	0x3de5fd5f	0.11229967
101	0x3e59a8ca	0.21255794
102	0x3de97a89	0.11400325
103	0x3da32aee	0.079671726
104	0x3ca66d3a	0.020315755
105	0x3d07ba3e	0.0331366
106	0x3e3e57bf	0.1858816
107	0x23c1250c	2.0940792e-17
108	0x0011ff00	1.65268e-39
109	0x3eaf9b5d	0.3429822
110	0x3f041ae8	0.51603556
111	0x3e4517a9	0.19247307
112	0x3e4b22f0	0.19837546
113	0x3e547967	0.20749436
114	0x3e92989d	0.2863206
115	0x800e0be0	-1.289957e-39
116	0x001218bb	1.66191e-39
117	0x3eb31504	0.3497697
118	0x3e763820	0.24044847
119	0x3e1bd64d	0.15218468
120	0x3e8e485f	0.2778959
121	0x3e847f82	0.2587853
122	0x3f395239	0.72391087
123	0x3e996dfa	0.29966718
124	0x3eb4dcfe	0.35324854
125	0x3e937ffa	0.28808576
126	0xad0ceeef	-8.0111326e-12
127	0x3e946943	0.28986558
128	0x3e83d64c	0.25749433
129	0x3b3f968c	0.002923402
130	0x804841f6	-6.635818e-39
131	0x3e87d5b2	0.26530224
132	0x800bd95c	-1.088164e-39
133	0x3d5032ca	0.050829686
134	0x3ea763c6	0.3269331
135	0x3e8453cb	0.2584518
136	0x3ebb07af	0.365293
137	0x3e6f2169	0.23352589
138	0x3f014eb6	0.5051073
139	0x3e91334d	0.28359452
140	0x3e6289fa	0.22122946
141	0x3ec56038	0.38549972
142	0x3d80dee2	0.062925115
143	0x3ed7f24b	0.42177042
144	0x3e8ea2f0	0.27858686
145	0x3eaad870	0.33368254
146	0x3e682785	0.22671326
147	0x3ddaee43	0.10689976
148	0x3e697ed4	0.22802287
149	0x3e0d9cfc	0.13829416
150	0x3e78c443	0.24293618
151	0x3eab7db6	0.33494347
152	0x3e90939c	0.28237617
153	0x3ddb8973	0.10719576
154	0x3e292f75	0.1652201
155	0x3df4450b	0.119272314
156	0x3e8e385c	0.27777374
157	0x3e9ff71a	0.3124321
158	0x3e0b5e3c	0.13610166
159	0x3e60b62a	0.2194449
160	0x3e4082dd	0.1879992
161	0x3ea797ea	0.3273309
162	0x3e8abe57	0.27098343
163	0x3e6d0046	0.23144636
164	0x3e5659ff	0.20932768
165	0x3e957aa6	0.29195136
166	0x3e93bbad	0.28854123
167	0x3e4f543a	0.20246974
168	0x3e99b2f1	0.30019334
169	0x3ec601cf	0.38673255
170	0x3e545f4d	0.2073948
171	0x3e686c2e	0.22697517
172	0x3e31bb8e	0.17356703
173	0x3e960215	0.29298463
174	0x3e82a0d7	0.25513336
175	0x3de2a1aa	0.11065991
176	0x3e3e23f4	0.18568403
177	0x3dfaf1e9	0.12253172
178	0x3e34f6a9	0.17672218
179	0x3e5c3bf0	0.2150724
180	0x3e8a4295	0.27003923
181	0x3dcb41a9	0.09924633
182	0x3e9a2c1f	0.30111787
183	0x3e92ec23	0.28695783
184	0x3e59da00	0.21274567
185	0x00098c14	8.7677e-40
186	0x3e7f2d5d	0.24919648
187	0x3e87b437	0.2650468
188	0x3e872960	0.26398754
189	0x000226bc	1.97566e-40
190	0x3d514fcc	0.05110149
191	0x3e6a30c0	0.22870159
192	0x3de034fd	0.10947607
193	0x3e813794	0.25237715
194	0x3e0ae608	0.13564312
195	0xb4215572	-1.5025378e-07
196	0x3adf055c	0.0017015147
197	0x3ed3dc79	0.41379145
198	0x801c2f2e	-2.588319e-39
199	0x3e9743b0	0.2954383
200	0x800eb02e	-1.348898e-39
201	0x3e24a25f	0.16077565
202	0x3a37832d	0.0007000443
203	0x3eaae0c9	0.33374622
204	0x00129b11	1.708666e-39
205	0x3e9d6432	0.30740505
206	0x80194500	-2.32064e-39
207	0x3e785cf2	0.24254206
208	0x3e8bedce	0.27329868
209	0x3eda45f3	0.42631492
210	0x3ec50372	0.3847919
211	0x3e28b95f	0.16476963
212	0x3dbac579	0.09119696
213	0x3e7ca6d6	0.24673018
214	0x3ec26620	0.3796854
215	0x3e91e064	0.2849151
216	0x3e65f104	0.22455221
217	0x3e73f96e	0.23825619
218	0x801af555	-2.475731e-39
219	0x3e31b79f	0.17355202
220	0x3ebdfe71	0.37108186
221	0x3e0e56e1	0.13900329
222	0x8043dd95	-6.232467e-39
223	0x3e29d1ed	0.16583987
224	0x3eaa158b	0.3321956
225	0x3e76d84a	0.24105945
226	0x3eb75703	0.35808572
227	0x3e826612	0.25468498
228	0x3e67e1b8	0.22644699
229	0x3e9633fd	0.2933654
230	0x3dd20986	0.10255723
231	0x80293a5d	-3.786192e-39
232	0x3dfeed46	0.124476
233	0x3c2bd71a	0.010488296
234	0x3ebc545e	0.36783117
235	0x3e1e794e	0.15475962
236	0x3e56b2f1	0.20966698
237	0x3e458fdf	0.19293164
238	0x3d9ffbe9	0.0781172
239	0x3e29cc7f	0.16581915
240	0x3e7f062e	0.24904701
241	0x349ba771	2.899283e-07
242	0x3e5f4260	0.21802664
243	0x3de602b2	0.11230983
244	0x3ea7e1e3	0.32789525
245	0x3e861beb	0.26193175
246	0x3edd1d51	0.4318643
247	0x3d99bbfa	0.07506557
248	0x3e0b7c87	0.13621722
249	0x3ea44939	0.32087114
250	0x3f175684	0.5911639
251	0x3e14c9fb	0.14530174
252	0x3eb64b20	0.3560419
253	0x3e7c188a	0.24618736
254	0x3ea0af3c	0.31383693
255	0x3e5f8bf5	0.21830733

bn1.bias f4 [400]
0	0xbdca811e	-0.098879084
1	0xbdb186ff	-0.086683266
2	0xbe4397a4	-0.19100815
3	0xbe4376e4	-0.19088322
4	0x3d474709	0.04865173
5	0xbe9b3c32	-0.30319363
6	0xbdf83ac6	-0.12120585
7	0xbe0b78f6	-0.13620362
8	0xbd123b69	-0.03570119
9	0xbdf9a8ea	-0.12190421
10	0xbd895b3b	-0.06706854
11	0xbcee14eb	-0.029062709
12	0xbe0d7c79	-0.13817014
13	0xbbdc62f6	-0.0067256643
14	0xbdf30047	-0.11865287
15	0xbe470b86	-0.1943799
16	0xbd9b4089	-0.075806685
17	0xbe0c807a	-0.13720885
18	0xb3e6d279	-1.07484944e-07
19	0xbe005c62	-0.12535241
20	0xbe7092f7	-0.23493563
21	0xbe2c372d	-0.16817923
22	0xad59333f	-1.2346401e-11
23	0xbdf9b7cf	-0.12193262
24	0xbe7e8116	-0.2485393
25	0xbe2c0ca7	-0.16801701
26	0xbe317bcd	-0.17332383
27	0xbe2de28d	-0.16980954
28	0xbdf47977	-0.1193723
29	0xbd878ea0	-0.066190004
30	0xbe4a36ba	-0.19747439
31	0xbd252dfd	-0.04032706
32	0xbe51dae8	-0.20493662
33	0xbe040548	-0.1289264
34	0xbc9b2543	-0.018938666
35	0xbe15401a	-0.14575234
36	0xbe02437c	-0.12721056
37	0xbe3026c6	-0.17202291
38	0xbe6a93c5	-0.22907932
39	0xb60872c9	-2.0332393e-06
40	0xbe3ed71e	-0.18636748
41	0xbdc3e1b3	-0.09564533
42	0xb2cc2e81	-2.3769873e-08
43	0xbd91b813	-0.071151875
44	0xbe5c1569	-0.21492542
45	0x8d5abbff	-6.740273e-31
46	0xbe3d8d92	-0.18511036
47	0xb6df0dea	-6.6475377e-06
48	0xbe788b03	-0.24271779
49	0xbdeb5251	-0.1149031
50	0xbe0b3829	-0.13595642
51	0xbe286655	-0.16445287
52	0xbe0ab94a	-0.13547245
53	0xbcb48969	-0.022038179
54	0x3bc41186	0.0059835343
55	0xbe477bde	-0.19480845
56	0x98461fc9	-2.5606948e-24
57	0xbd13fe40	-0.036131144
58	0xb40c7af8	-1.3083252e-07
59	0xbda4f8aa	-0.080552414
60	0xbe00d4e8	-0.12581217
61	0xbc9050f4	-0.017616726
62	0xbdf33611	-0.11875547
63	0xbd959e4c	-0.07305583
64	0xbde658a7	-0.11247378
65	0xb25f9920	-1.3015125e-08
66	0xbe0d541f	-0.13801621
67	0xbc8fcfd1	-0.01755515
68	0xbdc0bd35	-0.094110884
69	0x3d49e24f	0.04928809
70	0xaebf9126	-8.711458e-11
71	0xbe01aab5	-0.12662776
72	0xbd834326	-0.06409292
73	0xbe343b10	-0.17600656
74	0xbe4071f9	-0.18793477
75	0xbd574ad9	-0.052561615
76	0xbc83f12d	-0.016106213
77	0xbcba5bec	-0.02274891
78	0xbe3dcb61	-0.18534614
79	0xb82c4653	-4.107349e-05
80	0xb02255a2	-5.905695e-10
81	0xbe3bb902	-0.18332294
82	0xbdd84eed	-0.10561929
83	0xbe2c2f78	-0.16814983
84	0xbe5bfa96	-0.2148231
85	0xbcd01152	-0.025398884
86	0xbc47074f	-0.012147739
87	0xb4249e80	-1.5331352e-07
88	0xbdbb386f	-0.09141623
89	0xbde4ba53	-0.11168351
90	0xbdccb9e5	-0.09996394
91	0xb50ee530	-5.3232634e-07
92	0xbe8c8577	-0.27445576
93	0xbb939388	-0.004503671
94	0xbad472ca	-0.0016208526
95	0xbe040727	-0.12893353
96	0xbb3ab8e2	-0.0028491546
97	0xbdf6d182	-0.12051679
98	0x3cb4ba6f	0.022061555
99	0xace39e03	-6.469271e-12
100	0xbd9b9f6c	-0.07598767
101	0xbd6f7074	-0.058456853
102	0xbe207f56	-0.15673575
103	0xbe11a084	-0.14221388
104	0xbd898866	-0.06715469
105	0xbdbcb500	-0.092142105
106	0x3d877346	0.066137835
107	0x9836787c	-2.3583778e-24
108	0xbd031365	-0.032000918
109	0xbe4f898f	-0.20267318
110	0x3d22d422	0.039753087
111	0xbe254bfd	-0.16142268
112	0xbe094c39	-0.13407983
113	0xbe09fa6f	-0.13474439
114	0xbde20394	-0.11035839
115	0xb7581cbd	-1.2881294e-05
116	0xb80fe124	-3.4303535e-05
117	0xbe10d727	-0.14144574
118	0xbdda7468	-0.10666734
119	0xbd95f67c	-0.07322404
120	0xbda876db	-0.08225795
121	0xbe88936f	-0.26674983
122	0x3e99aa3c	0.3001269
123	0xbd9a5754	-0.07536188
124	0xbd3c568b	-0.04598097
125	0xbcb08919	-0.021549748
126	0xb92a10a6	-0.00016218665
127	0xbe24d17e	-0.1609554
128	0xbe7af71c	-0.24508327
129	0xbc1bb2df	-0.009503095
130	0xb313c296	-3.440308e-08
131	0xbcc67117	-0.024223847
132	0xb8d8ce46	-0.00010338104
133	0xbdc12268	-0.094303906
134	0xbe04e5f8	-0.12978351
135	0xbe7d0137	-0.24707495
136	0xbe115528	-0.14192641
137	0xbd808ce7	-0.06276875
138	0xbcd5f72a	-0.026118834
139	0xbde8d41e	-0.11368583
140	0xbdfcc2dc	-0.12341854
141	0x3d190657	0.03735956
142	0xbc9cf1e7	-0.019158317
143	0xbd5c36f8	-0.05376336
144	0xbda3bd35	-0.07995073
145	0xbde6f82e	-0.11277805
146	0xbde72ea5	-0.112881936
147	0xbe2da398	-0.16956937
148	0xbe2074be	-0.15669534
149	0xbe161226	-0.1465536
150	0xbd9908bd	-0.0747237
151	0xbe376616	-0.17910036
152	0xbd9c1196	-0.07620542
153	0xbe26a0e2	-0.1627231
154	0xbda9fd72	-0.08300294
155	0xbe1d14e9	-0.15340008
156	0xbe72ed37	-0.23723303
157	0xbd81c35a	-0.063360885
158	0xbdc1f8e2	-0.09471299
159	0xbd96de3f	-0.07366609
160	0xbe1fe70e	-0.15615484
161	0xbbeff4d4	-0.007322887
162	0xbd9f0105	-0.07763866
163	0xbe2dacde	-0.16960475
164	0xbdc967d1	-0.098342545
165	0xbe32be49	-0.174554
166	0x3ae83791	0.0017716755
167	0xbe6ae247	-0.2293788
168	0xbd0fa85d	-0.035072673
169	0xbcb4c000	-0.022064209
170	0xbdf2bdf3	-0.11852636
171	0xbde4ad64	-0.11165884
172	0xbe1edc74	-0.15513784
173	0xbd8a4f74	-0.06753436
174	0xbda2d8b8	-0.07951492
175	0xbda8cff9	-0.08242793
176	0xbe3456db	-0.17611258
177	0xbda13e75	-0.07873241
178	0xbdbb3d77	-0.09142583
179	0xbde83128	-0.11337501
180	0xbe18de32	-0.14928511
181	0xbe1dc9a6	-0.15408954
182	0xbb02fd02	-0.001998723
183	0xbd8857b5	-0.06657354
184	0xbe05c1fc	-0.1306228
185	0x8004668b	-4.04127e-40
186	0xbe45bc48	-0.19310105
187	0xbd4a5a72	-0.04940266
188	0xbe2e59dd	-0.17026468
189	0xb1ceb605	-6.0160823e-09
190	0xbdc1ea27	-0.09468489
191	0xbd04474e	-0.032294564
192	0xbe35aaf0	-0.17740989
193	0xbd3e932a	-0.046527065
194	0xbe3c74c6	-0.1840392
195	0xba415649	-0.0007375223
196	0xbc96db1d	-0.018415028
197	0xbdba4de2	-0.09096886
198	0xb797d806	-1.8101196e-05
199	0x3d0abd3e	0.03387188
200	0x9abeff33	-7.8994455e-23
201	0xbe5251b8	-0.20538986
202	0xb90244db	-0.00012423417
203	0xbcf6773b	-0.03008615
204	0xbc32f0c7	-0.010921664
205	0xbcfc246b	-0.030779084
206	0xa669861b	-8.101986e-16
207	0xbe808033	-0.25097808
208	0xbd9c3416	-0.07627122
209	0xbd4c98c0	-0.04995036
210	0xbe467603	-0.19380955
211	0xbe0cdf03	-0.13756947
212	0xbdbd418f	-0.0924102
213	0xbdbd8e18	-0.09255618
214	0xbe3528b2	-0.17691305
215	0xbd0c312c	-0.03422658
216	0xbd5810bf	-0.052750345
217	0x3ca5eba7	0.02025397
218	0xb939f96c	-0.00017735892
219	0xbe1ff6a7	-0.15621434
220	0xbe4456ab	-0.19173686
221	0xbe67d919	-0.2264141
222	0xbcd01728	-0.025401667
223	0xbe3d8834	-0.18508989
224	0xbdd85203	-0.105625175
225	0xbdec78d6	-0.11546485
226	0xbe6d9b6a	-0.23203817
227	0xbe563d36	-0.20921788
228	0xbd91716c	-0.07101712
229	0xbdd7d118	-0.10537928
230	0xbe165891	-0.14682223
231	0xbbd2f9d5	-0.0064384737
232	0xbe4b11ad	-0.19830962
233	0xbbec898b	-0.007218545
234	0xbe19d176	-0.1502131
235	0xbda71f18	-0.081602275
236	0xbe5ef2aa	-0.21772256
237	0xbe7665e4	-0.24062306
238	0xbdd04d60	-0.10171008
239	0xbe37a6da	-0.17934743
240	0xbdcddc12	-0.10051741
241	0xb0123eec	-5.320391e-10
242	0xbda4174e	-0.080122575
243	0xbe07d28b	-0.1326391
244	0xbde7e88a	-0.1132365
245	0xbdbf4776	-0.09339802
246	0xbe5c0499	-0.21486129
247	0xbcde9036	-0.027168375
248	0xbe386a08	-0.18009198
249	0xbe3da2c5	-0.18519123
250	0xbbe2b346	-0.0069183437
251	0xbe064912	-0.13113812
252	0xbc35c040	-0.011093199
253	0xbd5572a4	-0.052111283
254	0xbe9f6430	-0.31131124
255	0xbe7c447b	-0.24635498

bn1.running_mean f4 [400]
0	0xb6ee3e86	-7.1002314e-06
1	0xb6d9525c	-6.476692e-06
2	0x3755718d	1.2722227e-05
3	0xb7426588	-1.1586941e-05
4	0xb6bcd103	-5.627169e-06
5	0xb7e365b7	-2.7107873e-05
6	0xb8058ec5	-3.1842636e-05
7	0xb73960ce	-1.1049398e-05
8	0xb76aac09	-1.3987542e-05
9	0xb764f3bc	-1.3646608e-05
10	0xb7d15bf0	-2.4957553e-05
11	0xb79dfeb1	-1.8834458e-05
12	0x3819135d	3.6496076e-05
13	0xb799dd6b	-1.8342127e-05
14	0xb75abbcc	-1.3037537e-05
15	0xb6c2b44b	-5.8026394e-06
16	0xb736cf85	-1.0896362e-05
17	0xb6bf842b	-5.70763e-06
18	0x80467a5f	-6.472383e-39
19	0x36b5ce87	5.4182633e-06
20	0xb69f05bc	-4.739237e-06
21	0xb627a7f5	-2.4982703e-06
22	0x002c776c	4.083602e-39
23	0x3764f07e	1.3645853e-05
24	0x3723c7fe	9.762121e-06
25	0xb71aacb0	-9.219322e-06
26	0xb727ac29	-9.99406e-06
27	0xb7b1b85e	-2.1185897e-05
28	0x35923c0d	1.0895325e-06
29	0xb7424810	-1.1580079e-05
30	0x375b1e67	1.3060496e-05
31	0xb5febb73	-1.897903e-06
32	0xb6d5f3a5	-6.3762586e-06
33	0x371c767d	9.325912e-06
34	0xb2a47b21	-1.9148105e-08
35	0x362e755d	2.5996335e-06
36	0xb6a70fb2	-4.978815e-06
37	0x3728e61d	1.0067158e-05
38	0x3837dbe7	4.38354e-05
39	0x000a857e	9.66243e-40
40	0xb64c5749	-3.0449175e-06
41	0xb7a3b321	-1.9514528e-05
42	0x801a4e81	-2.415885e-39
43	0xb73f4844	-1.1401313e-05
44	0x3669bee9	3.483083e-06
45	0x00056fd3	4.99292e-40
46	0x37ae7034	2.0794665e-05
47	0x9df0458e	-6.359939e-21
48	0xb5353350	-6.7502424e-07
49	0xb8030a56	-3.124246e-05
50	0xb73e30bb	-1.1336228e-05
51	0xb762e1df	-1.3523239e-05
52	0x371e386c	9.430671e-06
53	0x80e8dfe3	-2.138615e-38
54	0x377f3e8a	1.5213745e-05
55	0x364477b1	2.9275946e-06
56	0x002ba76a	4.008983e-39
57	0x9ebc8c57	-1.9963317e-20
58	0x806c9012	-9.969916e-39
59	0xb5474bed	-7.4243763e-07
60	0xb8275fcd	-3.9905124e-05
61	0x3414f74e	1.3873543e-07
62	0xb62c58bf	-2.5681654e-06
63	0x3681980a	3.8621993e-06
64	0xb7e8a538	-2.7733491e-05
65	0x80556d83	-7.845303e-39
66	0x349c873e	2.9155666e-07
67	0xb7cd7bf2	-2.449562e-05
68	0xb73ec370	-1.1370386e-05
69	0xb8194f07	-3.6551643e-05
70	0x80a9ee3e	-1.5605664e-38
71	0xb6466a6c	-2.9566245e-06
72	0x35078b9a	5.0494566e-07
73	0x3780c0a8	1.5348502e-05
74	0x37942f76	1.7665076e-05
75	0xb829f4cf	-4.0520736e-05
76	0x001ac547	2.458493e-39
77	0xb5c2ff60	-1.452845e-06
78	0xb665b175	-3.4226953e-06
79	0x801d7e46	-2.708528e-39
80	0x802546bf	-3.423292e-39
81	0xb7496032	-1.2002931e-05
82	0xb8121758	-3.4830853e-05
83	0xb756e2b4	-1.2808177e-05
84	0xb733e11e	-1.0721646e-05
85	0xb75dc51c	-1.321852e-05
86	0xb827c4a5	-3.9999042e-05
87	0x80424ca7	-6.08864e-39
88	0x36b6ce78	5.448059e-06
89	0x36a52b1b	4.9224013e-06
90	0x372a6e61	1.0158489e-05
91	0x0002f9ef	2.7333e-40
92	0x37aeb7a4	2.082793e-05
93	0x010d10ba	2.590961e-38
94	0x2dba1576	2.1155282e-11
95	0xb71883d5	-9.0906005e-06
96	0xb80ebd18	-3.4031546e-05
97	0xb7aa6a94	-2.0315209e-05
98	0xb8280a68	-4.0064013e-05
99	0x000e30ec	1.303247e-39
100	0xb406473f	-1.2505642e-07
101	0xb71b63f7	-9.261995e-06
102	0x37280094	1.0013715e-05
103	0xb52d6110	-6.4588767e-07
104	0xb71d80fc	-9.387961e-06
105	0x360b8355	2.078906e-06
106	0xb8124a0b	-3.487807e-05
107	0x803cc231	-5.579793e-39
108	0x8099d17c	-1.412598e-38
109	0xb6ec8246	-7.048514e-06
110	0xb747bd5f	-1.1905416e-05
111	0x36220081	2.4140174e-06
112	0x370f20d9	8.531112e-06
113	0x36a28ff1	4.844733e-06
114	0xb808c016	-3.260382e-05
115	0x80aa0938	-1.5615341e-38
116	0x808bb9a8	-1.2831735e-38
117	0xb7e3edff	-2.7171334e-05
118	0xb845ca99	-4.7157144e-05
119	0xb6180cbb	-2.2657175e-06
120	0x3703fc4f	7.866954e-06
121	0x383661e3	4.3483346e-05
122	0xb8318e94	-4.2332875e-05
123	0x375ae68d	1.3047492e-05
124	0x372c1ed6	1.0259178e-05
125	0x365604fc	3.1891386e-06
126	0x80fe6662	-2.3362944e-38
127	0xb7b48a3f	-2.1522048e-05
128	0xb7abd11b	-2.048216e-05
129	0xb35ac54f	-5.093653e-08
130	0x80611205	-8.914507e-39
131	0xb7bf1d51	-2.2782626e-05
132	0x004532ca	6.354869e-39
133	0x36c3eaa7	5.83877e-06
134	0x376f2ffb	1.4256681e-05
135	0xb6a438a7	-4.894176e-06
136	0x37bd73c6	2.2584467e-05
137	0xb7d08a54	-2.4859946e-05
138	0xb806f7f1	-3.2179003e-05
139	0x3710358a	8.595534e-06
140	0x380cd338	3.3575314e-05
141	0xb73984a8	-1.1057746e-05
142	0xb7449899	-1.171804e-05
143	0xb5a19d60	-1.2041237e-06
144	0xb6ea7c18	-6.98819e-06
145	0xb519a89b	-5.7242295e-07
146	0xb752b796	-1.255972e-05
147	0x33916e13	6.772111e-08
148	0xb7056b3c	-7.952385e-06
149	0xb6edce2d	-7.0871524e-06
150	0x374a83da	1.2070837e-05
151	0x376de43d	1.4179442e-05
152	0x36d8d53a	6.4621245e-06
153	0x37218b3d	9.628767e-06
154	0xb742b916	-1.1606395e-05
155	0xb7265e55	-9.916334e-06
156	0x371ee59c	9.470994e-06
157	0x3702571f	7.768888e-06
158	0xb78635e5	-1.5999141e-05
159	0xb709b5fa	-8.208206e-06
160	0xb71f43b4	-9.492902e-06
161	0xb7a9ccb0	-2.0241685e-05
162	0xb7dadb9c	-2.6089889e-05
163	0x3648a7dd	2.9900032e-06
164	0xb783253e	-1.563376e-05
165	0xb678e609	-3.7088778e-06
166	0xb822c8be	-3.8810766e-05
167	0x372186aa	9.627702e-06
168	0x36ab1426	5.0985427e-06
169	0x37521a6a	1.2523125e-05
170	0x36ac3f3d	5.1333614e-06
171	0xb7a7477b	-1.9941237e-05
172	0x37788882	1.4813735e-05
173	0x36937413	4.394454e-06
174	0xb76be9c2	-1.40615175e-05
175	0xb69e0f8e	-4.7105777e-06
176	0xb7959d03	-1.7835298e-05
177	0x3282dc73	1.523424e-08
178	0x37692794	1.3897097e-05
179	0xb797a7a4	-1.8078666e-05
180	0x36c5e53e	5.897745e-06
181	0xb6b99e49	-5.5318565e-06
182	0xb6ae637f	-5.197187e-06
183	0xb7b14b56	-2.1135125e-05
184	0xb6f77a31	-7.3753986e-06
185	0x803110ec	-4.50601e-39
186	0xb789c754	-1.6424492e-05
187	0x3778cb11	1.4829232e-05
188	0xb7c84d0c	-2.3877736e-05
189	0x0086ed06	1.2390984e-38
190	0xb69364e0	-4.392685e-06
191	0xb61f66d1	-2.3752693e-06
192	0xb6465d36	-2.9558555e-06
193	0xb7b73e04	-2.1844178e-05
194	0x350d09d2	5.2540884e-07
195	0x803c3a1a	-5.530973e-39
196	0xb6344f9e	-2.6868433e-06
197	0xb767d7e0	-1.3818935e-05
198	0x00d5c703	1.9632353e-38
199	0xb7af32be	-2.0885254e-05
200	0x006aca2e	9.807091e-39
201	0x36d91223	6.4692154e-06
202	0x2eb8239c	8.373677e-11
203	0x35ad85ba	1.2928424e-06
204	0x802fa484	-4.375285e-39
205	0x35c65550	1.4776979e-06
206	0x003fefbc	5.871637e-39
207	0x3579dfbc	9.3085305e-07
208	0xb79830ba	-1.8142502e-05
209	0xb858b677	-5.1668347e-05
210	0x38091250	3.26804e-05
211	0x36129477	2.1842113e-06
212	0xb61d6a3b	-2.3456657e-06
213	0xb591653a	-1.0832803e-06
214	0xb78fa06b	-1.7121629e-05
215	0xb7a65aa6	-1.9830954e-05
216	0x360f91c1	2.13935e-06
217	0xb7abbb06	-2.0471878e-05
218	0x00be2a38	1.746389e-38
219	0xb78ab43b	-1.6534808e-05
220	0xb7af494c	-2.0895757e-05
221	0xb60b1eaf	-2.0730474e-06
222	0x80b53cb1	-1.6643997e-38
223	0x36f6bb08	7.3531446e-06
224	0xb7bae691	-2.2280294e-05
225	0xb718161d	-9.065055e-06
226	0xb72ed88f	-1.042163e-05
227	0xb7619108	-1.3444813e-05
228	0x37f6a907	2.9404195e-05
229	0xb683273b	-3.9086713e-06
230	0xb6b76476	-5.46552e-06
231	0x8087f4bd	-1.2485588e-38
232	0xb64d4165	-3.0585445e-06
233	0xb67e354d	-3.7879975e-06
234	0xb7588b68	-1.2907061e-05
235	0xb7738037	-1.4513781e-05
236	0xb7b78097	-2.187518e-05
237	0x379d1d03	1.8729368e-05
238	0x3679fbf2	3.7250543e-06
239	0x374d969b	1.2254018e-05
240	0xb7cc5ce0	-2.4361943e-05
241	0x14e0920c	2.2675825e-26
242	0xb6640957	-3.3980084e-06
243	0x372fee26	1.0486261e-05
244	0x377c3873	1.5033514e-05
245	0xb6632388	-3.3846318e-06
246	0x352d0189	6.4449756e-07
247	0xb78c6c92	-1.6739858e-05
248	0xb40a2d9b	-1.2868843e-07
249	0xb7813cd8	-1.5406331e-05
250	0xb80df12e	-3.3841636e-05
251	0xb6a4598b	-4.898005e-06
252	0xb6ae1433	-5.1879556e-06
253	0xb6ff2389	-7.603729e-06
254	0xb6d7f335	-6.4358123e-06
255	0xb6dae8e6	-6.524019e-06

bn1.running_var f4 [400]
0	0x3bd91da0	0.006625846
1	0x3bdd0f4c	0.0067462083
2	0x3cbfe22f	0.023423282
3	0x3cf6424a	0.030060906
4	0x3cfecfe7	0.031104995
5	0x3d09feb2	0.033690162
6	0x3cc5a4a2	0.024126355
7	0x3b739bfb	0.003717183
8	0x3cc733b9	0.024316655
9	0x3d285485	0.04109623
10	0x3c600513	0.013673085
11	0x3ce08f89	0.027412193
12	0x3db8bf34	0.09020844
13	0x3cd93334	0.026513673
14	0x3be2a025	0.0069160634
15	0x3bf007a4	0.0073251296
16	0x3c4c439c	0.012467291
17	0x3cc97f10	0.024596721
18	0x00000004	6e-45
19	0x3c95ba5f	0.018277345
20	0x3bd84533	0.006600046
21	0x3cccc46a	0.024996001
22	0x00000004	6e-45
23	0x3cb3a336	0.021928411
24	0x3c5a2c1e	0.013316182
25	0x3b86924e	0.0041067963
26	0x3c882e25	0.016623566
27	0x3ca2bfcf	0.019866852
28	0x3cef9b78	0.029248938
29	0x3cdfe827	0.027332379
30	0x3c8f8bc7	0.017522706
31	0x3d087e01	0.03332329
32	0x3c7134ca	0.014722059
33	0x3cb15df5	0.021651248
34	0x328d3cc8	1.64422e-08
35	0x3d03547e	0.032063
36	0x3b9d5360	0.004801199
37	0x3c94c1c1	0.018158795
38	0x3cdb5f14	0.026778735
39	0x00000004	6e-45
40	0x3c9af7b8	0.01891695
41	0x3c90ff1a	0.017699767
42	0x00000004	6e-45
43	0x3ce22500	0.027605534
44	0x3c5ac5a9	0.01335279
45	0x00000004	6e-45
46	0x3c832332	0.016007993
47	0x122b185c	5.398811e-28
48	0x3ce4a334	0.027909853
49	0x3cd49717	0.025950952
50	0x3cb0cfd7	0.02158348
51	0x3c0508b5	0.008119752
52	0x3dc52569	0.09626276
53	0x00000004	6e-45
54	0x3d414afa	0.047190644
55	0x3ca8fd6d	0.020628655
56	0x00000004	6e-45
57	0x09c96fc4	4.8494094e-33
58	0x00000004	6e-45
59	0x3c8c055a	0.017092396
60	0x3c596909	0.013269671
61	0x36945f3e	4.4218314e-06
62	0x3c3cc526	0.011521613
63	0x3b15a988	0.0022836644
64	0x3cf0600f	0.02934268
65	0x00000004	6e-45
66	0x3c86dce8	0.016462758
67	0x3cc326a7	0.023822142
68	0x3c68219a	0.0141681675
69	0x3f43122f	0.7619962
70	0x00000004	6e-45
71	0x3c4406a7	0.011964477
72	0x3bb78549	0.0056006056
73	0x3cdc977c	0.026927702
74	0x3d0fc30d	0.035098124
75	0x3d4569b5	0.048196513
76	0x00000004	6e-45
77	0x387ed9c4	6.076113e-05
78	0x3c32c6a0	0.010911614
79	0x00000004	6e-45
80	0x00000004	6e-45
81	0x3d091203	0.033464443
82	0x3cc93933	0.024563408
83	0x3c52566e	0.012837989
84	0x3c952b2a	0.018209059
85	0x3ca39b51	0.019971522
86	0x3d16d373	0.036822747
87	0x00000004	6e-45
88	0x3b1ec18d	0.0024224252
89	0x3ce6be1f	0.028166829
90	0x3c9b4630	0.018954366
91	0x00000004	6e-45
92	0x3cdf6307	0.0272689
93	0x00000004	6e-45
94	0x2e37e0dd	4.18091e-11
95	0x3bb88a8c	0.0056317504
96	0x3d12bd47	0.03582504
97	0x3c6de136	0.0145190265
98	0x3d398945	0.045296926
99	0x00000004	6e-45
100	0x3bef4591	0.007301994
101	0x3cc85fdf	0.024459777
102	0x3c1bcc1c	0.009509113
103	0x3bb23fd8	0.0054397397
104	0x3c1a5210	0.009418979
105	0x3a8cd1d9	0.0010743692
106	0x3d2be49a	0.04196606
107	0x00000004	6e-45
108	0x00000004	6e-45
109	0x3caf198a	0.021374483
110	0x3d7c05c1	0.061528925
111	0x3c53b1c4	0.012920801
112	0x3c8d0fce	0.01721945
113	0x3c95d02a	0.018287737
114	0x3cc687ed	0.024234736
115	0x00000004	6e-45
116	0x00000004	6e-45
117	0x3cd58453	0.026064074
118	0x3c31bbfe	0.0108480435
119	0x3c3d94e6	0.011571145
120	0x3cc5a097	0.024124427
121	0x3d89a9d1	0.06721843
122	0x3c16f0b2	0.00921266
123	0x3d217259	0.03941569
124	0x3cb4f94b	0.022091528
125	0x3ce0e37d	0.027452225
126	0x00000004	6e-45
127	0x3cabbe2c	0.020964704
128	0x3c450238	0.012024455
129	0x35245aa9	6.122669e-07
130	0x00000004	6e-45
131	0x3c8b44eb	0.017000636
132	0x00000004	6e-45
133	0x3b6b3b5d	0.0035893538
134	0x3c876991	0.01652983
135	0x3d274dff	0.040845867
136	0x3cb39cae	0.021925297
137	0x3cadc3ea	0.021211583
138	0x3d3172bf	0.04332232
139	0x3d1c0d8e	0.038098864
140	0x3d0ab5bb	0.033864718
141	0x3d31ebfc	0.043437943
142	0x3bd898d9	0.0066100177
143	0x3d0162b4	0.03158827
144	0x3c9c83d7	0.019105835
145	0x3ca94912	0.020664725
146	0x3c61075a	0.013734663
147	0x3be4d1db	0.0069830245
148	0x3d0fe577	0.035130944
149	0x3cb2e080	0.021835566
150	0x3caf71d0	0.021416575
151	0x3cfd7a88	0.030942217
152	0x3cef9563	0.029246038
153	0x3c85aa12	0.016316447
154	0x3c662167	0.01404605
155	0x3bfc5834	0.0077009443
156	0x3cd37278	0.025811419
157	0x3cf5ff5b	0.03002899
158	0x3c3e2c08	0.011607178
159	0x3c993f57	0.01870696
160	0x3c93c738	0.01803933
161	0x3cf74d84	0.03018833
162	0x3ca143b8	0.019685611
163	0x3cb769cc	0.022389315
164	0x3cd2b02b	0.025718769
165	0x3cd4679d	0.025928313
166	0x3d17d7a6	0.037070893
167	0x3cfadf91	0.030624183
168	0x3d041721	0.03224862
169	0x3d1df9f4	0.038568452
170	0x3cc7bd3f	0.024382232
171	0x3c8f4a2b	0.01749142
172	0x3d8d7047	0.06906181
173	0x3c61e358	0.013787113
174	0x3d064f28	0.032790333
175	0x3c0c1874	0.008550752
176	0x3c5513fe	0.013005255
177	0x3c4df169	0.012569764
178	0x3c7539f5	0.014967431
179	0x3cbd0cbb	0.02307736
180	0x3c73e71e	0.014886646
181	0x3bcedd59	0.006313008
182	0x3c93997e	0.018017527
183	0x3d0a4066	0.03375282
184	0x3cb05292	0.021523748
185	0x00000004	6e-45
186	0x3cff277e	0.031146761
187	0x3c79b57f	0.015241026
188	0x3caf6eae	0.02141508
189	0x00000004	6e-45
190	0x3a912507	0.0011073657
191	0x3d1f04aa	0.038822807
192	0x3bf1a49d	0.0073743598
193	0x3d0d0d81	0.034436706
194	0x3c1b85f9	0.009492391
195	0x00000004	6e-45
196	0x3a1b605c	0.00059271394
197	0x3cf2ed9e	0.02965432
198	0x00000004	6e-45
199	0x3d11315b	0.03544746
200	0x00000004	6e-45
201	0x3ce5bdbe	0.028044578
202	0x2e3cf424	4.296309e-11
203	0x3cf1b050	0.029503018
204	0x00000004	6e-45
205	0x3cbaa983	0.022785908
206	0x00000004	6e-45
207	0x3cc67abb	0.024228444
208	0x3cc65c50	0.02421394
209	0x3cc2a401	0.023759844
210	0x3d1e5733	0.03865738
211	0x3c9222a3	0.017838782
212	0x3ba90cb9	0.0051589874
213	0x3cb07373	0.021539425
214	0x3d01f55c	0.031728134
215	0x3cc4fb84	0.024045713
216	0x3cec97de	0.02888101
217	0x3caaac61	0.02083415
218	0x00000004	6e-45
219	0x3ceae12e	0.028671827
220	0x3cc09260	0.023507297
221	0x3c8cf549	0.017206805
222	0x00000004	6e-45
223	0x3c2ef324	0.010678086
224	0x3cf40ee2	0.029792253
225	0x3ce1ad49	0.02754845
226	0x3d0d5546	0.03450515
227	0x3c99e9ce	0.018788245
228	0x3cb9f62a	0.022700388
229	0x3cf52664	0.029925533
230	0x3c6d3e92	0.01448025
231	0x00000004	6e-45
232	0x3c846704	0.016162403
233	0x39d3b8f8	0.0004038287
234	0x3ccd6ff5	0.0250778
235	0x3c53e3a8	0.012932695
236	0x3c4762fc	0.012169596
237	0x3d796378	0.060885876
238	0x3bde1874	0.0067778174
239	0x3c8537bf	0.016261933
240	0x3c9812c1	0.01856363
241	0x00000efc	5.375e-42
242	0x3c19ceec	0.009387713
243	0x3bfb045a	0.007660431
244	0x3ca87c8b	0.0205672
245	0x3cf1cdcb	0.029517075
246	0x3c9b90c1	0.018989922
247	0x3bd5103f	0.006502181
248	0x3c02ceaa	0.007983843
249	0x3cd2a41e	0.025713023
250	0x3cdf6ce5	0.027273605
251	0x3bffc7e6	0.007805812
252	0x3d0ee828	0.03488937
253	0x3cab725c	0.020928554
254	0x3cdc9553	0.026926672
255	0x3c2aa1a6	0.010414517
